ddpg_multiple/checkpoint_critic.pth (torch_old, 158476 bytes, 9 tensors)

fcs1.weight f4 [128, 33]
-1.3913565 -1.3043797 -1.3046699 -1.1552316 -1.2548479 1.1050887 0.33236912 0.53290313
-0.17189878 0.7650346 0.18141502 -0.6854682 0.04950827 2.3570678 -0.5761768 0.7686836
-1.1588677 -0.18133813 0.23115739 0.5694623 -0.059455656 0.075389974 0.2338481 -0.88045084
0.16849823 -0.13112414 -1.6317846 0.07239036 1.005634 0.039048426 0.079505935 0.08201129
4.255593 3.0114892 1.1715211 0.9377946 0.6368356 0.19148184 0.8751231 1.9911772
0.0042406674 -3.177255 -0.6683779 0.9334012 1.3273196 -0.061127327 -0.9720359 -0.95362675
0.4028616 -0.22425337 0.4398852 -0.2118564 0.038377397 0.92798007 -0.8115559 0.10036165
-1.3819151 -0.7905618 0.38808236 -0.9890128 0.002499305 -0.51209664 0.057211347 0.0281983
0.067647345 0.955117 0.28030816 -2.7934382 -0.19150104 -0.45277736 -1.7775126 -1.1568861
0.5025544 -1.3286375 4.7066097 -2.2967095 -0.5411762 0.2368096 -0.46924564 -0.37467888
1.7069479 0.42848405 -1.6870416 0.0018307269 0.37523773 0.18986614 -0.34145552 2.6062207
2.630117 -0.35963133 -0.006689285 0.2127414 -0.0025376233 -0.040125586 0.71804386 -0.07300113
0.022121964 0.046732612 -1.2591294 -0.46854055 1.5950134 -0.5078443 -0.7798709 -0.3568645
-0.5000096 -2.3844166 0.23554362 -1.5057391 0.53017116 0.4232209 0.17933513 0.5304351
1.5945619 -0.6279967 1.7353098 0.0019710641 0.10784296 1.3375443 -0.8133453 0.06161857
-0.21140958 0.0100769205 -0.1640623 0.2421523 0.22295691 -1.4521173 -0.06368715 -1.2228472
0.073866434 -0.00021100555 -0.052664235 4.883408 0.33255723 -1.8444201 1.6403736 -1.1214312
-0.5921729 1.7469679 0.38180768 -0.2129027 0.18189031 1.4990542 -0.044667255 -0.36277926
0.06760504 -0.3276773 0.95472246 -2.5435195 0.040988036 0.12561035 0.118820444 0.2683967
0.16215052 0.024485413 -0.14445034 0.041064795 -0.21500835 -0.95393884 0.9012158 -0.057880357
1.1954303 0.072357886 0.022431895 0.049915202 -0.96100795 -2.533089 -0.15039368 0.6433116
0.041919857 -1.0083168 -0.9624651 -0.23834458 -0.1132453 -0.043547306 0.105727814 -0.2013724
0.4140553 0.19212963 2.321887 -0.28281838 -0.24424542 -0.52751464 -0.12654378 -0.31818232
-0.23623252 -0.058359075 -0.1076933 0.5381845 1.0481548 -0.46793014 -0.35220614 -0.8838818
-0.030843066 -0.6267506 -0.085937425 -0.06278987 0.06374816 4.120291 -0.8614597 -0.24078366
-0.38259926 0.1547824 -1.0222132 -2.1040668 -1.4430348 -0.050896224 0.7028246 -0.16273583
-0.21026157 -0.08074122 -0.37535694 0.16319041 2.5552788 0.40750468 -0.36056852 0.10974219
0.2858041 0.457239 0.40191355 -0.08639469 0.33147937 0.5269574 0.9263973 -0.6230415
0.5922425 0.02592909 -0.46070907 -0.0038461536 -0.06019812 0.0768057 8.780724 0.029824758
3.120471 -0.73747766 -0.062921144 -0.9088179 1.1830133 1.9779763 0.27224034 2.4950283
0.69811755 0.16316016 0.012272195 -0.3519847 0.3392319 -1.913439 -0.9796197 -0.3503446
-0.87470585 0.25247988 0.19646354 -0.24499871 -0.06935574 -0.38048944 -0.023045653 -0.45814872
00000000: f817 b2bf eaf5 a6bf 6cff a6bf a1de 93bf
00000010: db9e a0bf 8c73 8d3f 492c aa3e 576c 083f
00000020: 3c06 30be 4fd9 433f dcc4 393e d87a 2fbf
00000030: 2fc9 4a3d 33da 1640 5380 13bf 73c8 443f
00000040: c755 94bf b4b0 39be 86b4 6c3e 48c8 113f
00000050: c687 73bd 0f66 9a3d e075 6f3e 3a65 61bf
00000060: cd8a 2c3e 6845 06be 51de d0bf 6641 943d
00000070: 9db8 803f 3ef1 1f3d 02d4 a23d 89f5 a73d
00000080: d12d 8840 3dbc 4040 67f4 953f 4f13 703f
00000090: a807 233f d113 443e 1108 603f e5de fe3f
000000a0: 4cf5 8a3b 2558 4bc0 d01a 2bbf 62f3 6e3f
000000b0: 9ce5 a93f a660 7abd 58d7 78bf e220 74bf
000000c0: e043 ce3e ada2 65be a238 e13e e2f0 58be
000000d0: 9e31 1d3d 1a90 6d3f 21c2 4fbf 698a cd3d
000000e0: 98e2 b0bf 4262 4abf bbb2 c63e f12f 7dbf
000000f0: 61cb 233b c418 03bf 7256 6a3d 1f00 e73c
00000100: b18a 8a3d 8c82 743f 8d84 8f3e b1c7 32c0
00000110: d918 44be 6fd2 e7be 8885 e3bf d814 94bf
00000120: 68a7 003f cb10 aabf 8c9c 9640 4afd 12c0
00000130: 868a 0abf 377e 723e f740 f0be e9d5 bfbe
00000140: 457d da3f 4362 db3e fbf0 d7bf 00f5 ef3a
00000150: 291f c03e 456c 423e 42d3 aebe 52cc 2640
00000160: d653 2840 9921 b8be ca31 dbbb e2d8 593e
00000170: 414e 26bb ba5a 24bd b9d1 373f 9e81 95bd
00000180: 1f39 b53c b26a 3f3d 272b a1bf 8ce4 efbe
00000190: 6629 cc3f 1602 02bf 9fa5 47bf f2b6 b6be
000001a0: a100 00bf 489a 18c0 5932 713e 0fbc c0bf
000001b0: 4cb9 073f 69b0 d83e a1a3 373e 98ca 073f
000001c0: 9b1a cc3f 64c4 20bf a21e de3f f82c 013b
000001d0: c5dc dc3d a734 ab3f 6637 50bf c163 7c3d
000001e0: c17b 58be ab19 253c f3ff 27be c6f6 773e
000001f0: d14e 643e fbde b9bf 696e 82bd 4286 9cbf
00000200: 4947 973d 5f41 5db9 74b6 57bd e144 9c40
00000210: f144 aa3e f515 ecbf c3f7 d13f 0f8b 8fbf
00000220: a598 17bf a59c df3f 4c7c c33e 2a03 5abe
00000230: 7441 3a3e 02e1 bf3f 03f5 36bd 34be b9be
00000240: 8374 8a3d 52c5 a7be b168 743f 06c9 22c0
00000250: 12e3 273d 00a0 003e 2258 f33d 4b6b 893e
00000260: c90a 263e a295 c83c caea 13be 8f33 283d
00000270: 262b 5cbe 5635 74bf 14b6 663f f413 6dbd
00000280: dc03 993f 5f30 943d 18c3 b73c e273 4c3d
00000290: 9e04 76bf 211e 22c0 cd00 1abe 12b0 243f
000002a0: 28b4 2b3d 8610 81bf 1d64 76bf 9a10 74be
000002b0: 27ed e7bd a95e 32bd d387 d83d 9134 4ebe
000002c0: 0eff d33e a1bd 443e cc99 1440 92cd 90be
000002d0: 791b 7abe 330b 07bf b194 01be cbe8 a2be
000002e0: f0e6 71be ed09 6fbd 4e8e dcbd 76c6 093f
000002f0: f029 863f 8a94 efbe 5d54 b4be 1446 62bf
00000300: 99aa fcbc ba72 20bf f6ff afbd fa97 80bd
00000310: 658e 823d 6dd9 8340 9f88 5cbf fe8f 76be
00000320: 0de4 c3be 477f 1e3e e2d7 82bf 08a9 06c0
00000330: 5db5 b8bf 8f78 50bd 50ec 333f 39a4 26be
00000340: cf4e 57be a75b a5bd c92e c0be 631b 273e
00000350: b089 2340 74a4 d03e 709c b8be 83c0 e03d
00000360: ea54 923e 3b1b ea3e 9dc7 cd3e b3ef b0bd
00000370: aab7 a93e aee6 063f 6028 6d3f a67f 1fbf
00000380: 349d 173f 3e69 d43c 0fe2 ebbe c00f 7cbb
00000390: 4e92 76bd 4f4c 9d3d d87d 0c41 0d53 f43c
000003a0: ccb5 4740 56cb 3cbf cddc 80bd 4aa8 68bf
000003b0: fb6c 973f 542e fd3f 1663 8b3e 8bae 1f40
000003c0: d5b7 323f 7513 273e 5111 493c 5737 b4be
000003d0: ceaf ad3e 92eb f4bf 5bc8 7abf 5e60 b3be
000003e0: b9ec 5fbf 0b45 813e bd2d 493e f1e0 7abe
000003f0: 620a 8ebd 83cf c2be 3dca bcbc 7892 eabe

fcs1.bias f4 [128]
-0.083082065 -0.015329849 -0.13668428 0.003622188 -0.15819393 -0.13967371 0.09302867 -0.048118364
-0.073303334 -0.029727599 -0.16846268 0.15933608 -0.005204407 -0.025016747 -0.07459021 0.088184915
-0.13779996 0.067414336 -0.12476137 -0.06913608 -0.10895364 -0.10881717 -0.023633806 -0.12567289
-0.116745755 -0.16904984 0.045494013 -0.13310629 -0.020482667 -0.04193004 -0.14130402 -0.11626982
-0.015497725 0.1272492 -0.046219867 0.15175454 0.06405877 -0.130514 0.052904166 -0.16616732
-0.09932771 0.16792677 0.16950373 -0.0986886 0.021102916 -0.17104039 -0.094705224 0.029969005
-0.16071396 -0.060139857 -0.082019284 -0.13059023 0.093022384 -0.11344001 0.15242018 0.032735255
0.05793479 -0.12507965 0.009118053 0.16006567 -0.09084495 -0.06816784 -0.067182414 -0.036545463
0.103471555 0.088362694 -0.06175723 0.120550595 -0.15961532 -0.052289557 -0.027293745 -0.0074335258
-0.011561263 0.060209546 0.058156654 -0.14944707 0.070832126 0.017313756 0.11204461 -0.023097767
-0.15886672 0.04846465 -0.07124912 -0.11126843 -0.031302188 0.13802151 -0.14266649 -0.06989579
-0.16551878 -0.028900376 0.046682607 0.08635998 -0.054020956 0.12731604 0.07747763 0.1003174
-0.08829125 0.11940844 -0.04447247 0.13009404 0.124699965 -0.15181874 0.019455452 0.020363461
-0.030280102 0.121501505 0.0664506 -0.17147368 0.121965654 0.039774757 0.054094747 0.03224238
0.009308162 -0.0902711 0.032244902 0.003811717 0.06774051 -0.039711203 0.13063833 -0.004999733
-0.030409254 -0.06277824 0.15556502 -0.005839613 -0.06649009 -0.07649437 0.16657561 -0.15455775
00000000: ee26 aabd 0c2a 7bbc f7f6 0bbe 3b62 6d3b
00000010: 97fd 21be a006 0fbe d185 be3d c317 45bd
00000020: 0f20 96bd 4b87 f3bc 7b81 2cbe ff28 233e
00000030: bb89 aabb ecef ccbc c1c2 98bd 4b9a b43d
00000040: 6f1b 0dbe 8710 8a3d e482 ffbd 3897 8dbd
00000050: 1623 dfbd 89db debd af9b c1bc 65b0 00be
00000060: 6618 efbd 671b 2dbe ee57 3a3d 044d 08be
00000070: 44cb a7bc d5be 2bbd 00b2 10be df1e eebd
00000080: 2cea 7dbc 9d4d 023e 0b51 3dbd 8b65 1b3e
00000090: 3f31 833d 76a5 05be 0ab2 583d c427 2abe
000000a0: 546c cbbd fff4 2b3e 6392 2d3e 401d cabd
000000b0: 06e0 ac3c 3625 2fbe d0f4 c1bd 8f81 f53c
000000c0: 3392 24be 3655 76bd baf9 a7bd 72b9 05be
000000d0: 8582 be3d 3c53 e8bd 0914 1c3e 6715 063d
000000e0: 084d 6d3d e114 00be e363 153c 41e8 233e
000000f0: eb0c babd 959b 8bbd ef96 89bd b2b0 15bd
00000100: e5e8 d33d 80f7 b43d 26f5 7cbd 3be3 f63d
00000110: 3372 23be 932d 56bd 2297 dfbc ef94 f3bb
00000120: 746b 3dbc 499e 763d ac35 6e3d a708 19be
00000130: 6f10 913d 94d5 8d3c a577 e53d 8737 bdbc
00000140: f5ad 22be de82 463d 0feb 91bd b4e0 e3bd
00000150: b936 00bd 8355 0d3e 2a17 12be 8625 8fbd
00000160: c17d 29be 7bc0 ecbc 4336 3f3d 80dd b03d
00000170: 1445 5dbd 235f 023e 97ac 9e3d 3673 cd3d
00000180: 0bd2 b4bd 6a8c f43d c428 36bd 5f37 053e
00000190: b262 ff3d 5f76 1bbe 0a61 9f3c 46d1 a63c
000001a0: fa0d f8bc c8d5 f83d 4117 883d cc96 2fbe
000001b0: 21c9 f93d dbea 223d 7492 5d3d 9610 043d
000001c0: 4381 183c 0ee0 b8bd 3b13 043d 00ce 793b
000001d0: 89bb 8a3d 37a8 22bd 0ec6 053e cdd4 a3bb
000001e0: d41c f9bc e191 80bd 704c 1f3e 395a bfbb
000001f0: f52b 88bd 15a9 9cbd cc92 2a3e 6344 1ebe

fc2.weight f4 [256, 132]
-0.0654212 -0.07328135 0.0072134943 0.029047094 -0.08009581 0.0104720285 -0.07135014 -0.0383151
-0.005253899 -0.043735903 -0.024871064 -0.0069168704 -0.092193626 0.0029292393 -0.093534485 -0.045976438
-0.0037329153 -0.07548279 -0.07180761 -0.102946974 -0.012772988 -0.15443201 -0.04392542 0.0025361388
-0.0025861675 -0.036326542 -0.0064422465 -0.07870316 -0.019416498 -0.06617272 -0.045095414 -0.016957894
0.017690523 -0.083554454 0.01633185 -0.094111994 -0.07289471 -0.029784026 -0.067734085 -8.019475e-05
-0.0011125369 -0.060525626 0.007108713 -0.06968174 -0.08073574 0.004249042 -0.08781088 -0.04347629
-0.05620711 0.0055281306 0.021402676 -0.093725726 -0.06468783 0.017781062 0.0019921437 -0.0043875924
-0.047929622 -0.0027092563 0.013010769 -0.008815759 -0.12613502 -0.113587946 -0.10294203 -0.049021162
0.0314605 0.030880135 -0.011176836 -0.03764309 -0.034286715 -0.025103783 -0.04223677 -0.07872289
-0.008239111 -0.0011912242 -0.0033112187 -0.075346984 -0.076295085 -0.07301893 0.044163223 -0.07669101
0.05067231 -0.079057 -0.056809757 0.009168583 0.019652463 -0.032608204 -0.018402731 0.006174146
-0.024234701 -0.09559041 -0.016941462 0.008851785 0.0019857986 0.02002247 0.035215553 -0.009120913
0.00210757 -0.031451322 0.0037581823 -0.007862904 -0.019972071 -0.08050187 0.0007516123 -0.03935009
-0.094871126 -0.038576078 -0.080666095 -0.009858009 -0.062836036 -0.08396575 -0.05243326 -0.042924907
-0.070208855 -0.040405806 -0.0035733765 -0.06979554 -0.05698044 0.03349573 0.026947152 -0.068128176
-0.049734082 -0.0987294 0.0018030149 -0.085182466 -0.024020735 -0.036563132 0.004628512 -0.010383602
0.11859114 -0.033964448 -0.002700452 -0.0050112675 -0.000119923796 0.035000816 -0.0057494976 -0.06288331
-0.021823853 -0.0764157 -0.05002838 0.024752071 0.0020018923 -0.01598982 -0.11376695 0.0010664917
-0.07796206 0.010791883 -0.093123175 0.040649753 -0.027079698 0.019239137 -0.03745847 -0.013379672
0.011600146 -0.08325997 -0.025454428 -0.0600095 -0.023592232 -0.042327218 0.0027908972 -0.090639845
-0.00035244346 -0.07272204 -0.05857546 -0.040531177 0.034173824 -0.020603279 -0.0017365913 -0.0063713198
-0.02022934 -0.045357637 -0.03759431 -0.0114846425 -0.00042430815 -0.03334303 0.030941853 -0.049932044
-0.07259456 0.026609894 -0.02030741 -0.066593595 -0.02882215 0.018942077 -0.028301781 -0.04710378
-0.02096218 -0.033728212 -0.0030561283 -0.021354022 -0.058272634 -0.08096536 -0.008537425 -0.06378826
-0.053723257 -0.07511572 -0.066001505 -0.025840195 -0.057187937 -0.00325607 -0.029208101 -0.005348599
-0.033006184 -0.024537288 -0.0132571915 0.02191785 -0.034655176 -0.06617264 -0.0041548433 -0.013958074
-0.06682782 0.0071900766 -0.05333284 0.035213664 -0.09305654 -0.02554535 -0.07535028 -0.02318506
-0.079621546 -0.013126706 -0.022565242 0.02077835 -0.001552002 0.018062329 -0.021902632 -0.030202044
-0.0030228212 0.0018049453 -0.03880066 0.0005201611 -0.058832657 -0.086454995 -0.036073968 -0.07782168
-0.009924953 -0.023835955 -0.020343874 -0.05254724 -0.046051558 -0.056034464 -0.016203629 -0.11298431
-0.07191496 -0.021753926 -0.06689476 -0.07512942 0.01982461 -0.076426506 0.025448434 -0.025786206
-0.041243084 -0.052882012 -0.016264047 0.018172313 -0.11982417 -0.061739746 -0.09102526 -0.06383852
00000000: 8dfb 85bd 8814 96bd 2d5f ec3b 2cf4 ed3c
00000010: 4609 a4bd df92 2b3c 0620 92bd 4bf0 1cbd
00000020: e628 acbb 6b24 33bd 67be cbbc eaa6 e2bb
00000030: 03d0 bcbd 7bf8 3f3b 028f bfbd ca51 3cbd
00000040: eda3 74bb b996 9abd de0f 93bd ddd5 d2bd
00000050: cb45 51bc 6d23 1ebe 24eb 33bd 5935 263b
00000060: b17c 29bb 24cb 14bd 7b19 d3bb 1f2f a1bd
00000070: 590f 9fbc 9085 87bd f8b5 38bd 48eb 8abc
00000080: b7eb 903c 991e abbd 5fca 853c cabd c0bd
00000090: d249 95bd a1fd f3bc 2bb8 8abd 3b2e a8b8
000000a0: 8bd2 91ba b8e9 77bd 35f0 e83b 4db5 8ebd
000000b0: c858 a5bd 8c3b 8b3b 31d6 b3bd 3214 32bd
000000c0: 6d39 66bd 5225 b53b aa54 af3c 46f3 bfbd
000000d0: 0e7b 84bd 97a9 913c a08e 023b cbc5 8fbb
000000e0: da51 44bd c78d 31bb 1f2b 553c f96f 10bc
000000f0: 8a29 01be cca0 e8bd 45d3 d2bd 6aca 48bd
00000100: badc 003d 56f8 fc3c 0c1f 37bc a42f 1abd
00000110: 3a70 0cbd 73a6 cdbc 7700 2dbd 7739 a1bd
00000120: 56fd 06bc da22 9cba 0801 59bb 854f 9abd
00000130: 9940 9cbd f38a 95bd 7fe4 343d 2d10 9dbd
00000140: c58d 4f3d a3e8 a1bd 59b1 68bd d337 163c
00000150: 34fe a03c 2e90 05bd 53c1 96bc 7e50 ca3b
00000160: da87 c6bc e8c4 c3bd d2c8 8abc 1407 113c
00000170: 2c24 023b 2a06 a43c 2f3e 103d e26f 15bc
00000180: 281f 0a3b 1ad3 00bd d64b 763b 69d3 00bc
00000190: 789c a3bc 2ade a4bd d907 453a 8f2d 21bd
000001a0: cb4b c2bd f301 1ebd 4434 a5bd 7d83 21bc
000001b0: 2eb0 80bd 3cf6 abbd 42c4 56bd 07d2 2fbd
000001c0: a9c9 8fbd 8f80 25bd 4f2f 6abb f7f0 8ebd
000001d0: 5264 69bd d232 093d 46c0 dc3c c986 8bbd
000001e0: f7b5 4bbd a432 cabd 2453 ec3a 2574 aebd
000001f0: 22c7 c4bc 39c3 15bd c6aa 973b fc1f 2abc
00000200: e9df f23d 4e1e 0bbd 11fa 30bb 8f35 a4bb
00000210: 997f fbb8 045d 0f3d 4866 bcbb f7c8 80bd
00000220: f0c7 b2bc d67f 9cbd 8fea 4cbd dbc4 ca3c
00000230: 2e32 033b 15fd 82bc a6fe e8bd 86c9 8b3a
00000240: 93aa 9fbd 70d0 303c 5db7 bebd 5b80 263d
00000250: 3ed6 ddbc 659b 9d3c 0d6e 19bd 6936 5bbc
00000260: 8a0e 3e3c 3484 aabd ce85 d0bc 85cc 75bd
00000270: 7f44 c1bc 4e5f 2dbd 7ce7 363b 62a1 b9bd
00000280: 29c8 b8b9 4bef 94bd d2ec 6fbd 0504 26bd
00000290: daf9 0b3d 35c8 a8bc 569e e3ba 81c6 d0bb
000002a0: 00b8 a5bc eec8 39bd 7efc 19bd 152a 3cbc
000002b0: ad75 deb9 b392 08bd c579 fd3c 8b85 4cbd
000002c0: 75ac 94bd fefc d93c ba5b a6bc 3962 88bd
000002d0: 6e1c ecbc 6a2c 9b3c 23d9 e7bc e5ef 40bd
000002e0: e1b8 abbc 9826 0abd 5349 48bb a1ee aebc
000002f0: 49af 6ebd 2bd1 a5bd 8ee0 0bbc 6ba3 82bd
00000300: eb0c 5cbd 45d6 99bd cc2b 87bd d1ae d3bc
00000310: e63d 6abd ca63 55bb d445 efbc 4d43 afbb
00000320: 7e31 07bd 6c02 c9bc b134 59bc 108d b33c
00000330: 96f2 0dbd 8585 87bd 5a25 88bb 68b0 64bc
00000340: 06dd 88bd bc9a eb3b 8973 5abd 343c 103d
00000350: 6d94 bebd 7b44 d1bc 3f51 9abd 98ee bdbc
00000360: 9f10 a3bd 6511 57bc beda b8bc 5c37 aa3c
00000370: 8c6c cbba 73f7 933c 266d b3bc 476a f7bc
00000380: 861a 46bb ea93 ec3a 71ed 1ebd 6c5b 083a
00000390: 83fa 70bd 510f b1bd 4cc2 13bd f960 9fbd
000003a0: 459c 22bc 9f43 c3bc 32a8 a6bc c63b 57bd
000003b0: 8fa0 3cbd 6584 65bd 79bd 84bc 5164 e7bd
000003c0: 2748 93bd 4a35 b2bc 1f00 89bd 74dd 99bd
000003d0: 3867 a23c 8085 9cbd 3c79 d03c 983d d3bc
000003e0: 82ee 28bd cf9a 58bd 2e3c 85bc 1ade 943c
000003f0: 6066 f5bd d1e2 7cbd 746b babd c5bd 82bd

fc2.bias f4 [256]
-0.13769357 -0.09885725 -0.059956707 -0.13456377 -0.17926075 -0.10280846 -0.08695761 -0.12382878
-0.24566916 -0.14053723 -0.11676048 -0.16506316 -0.08504105 -0.14317611 0.22496805 -0.08016209
-0.044178884 -0.12638232 -0.14672275 0.0053574615 1.2259694 -0.11279693 -1.0305629 -0.206465
-0.12743205 -0.060413845 -0.24947567 -0.20637171 -0.12981659 -0.13028194 -0.14942282 -0.16064051
-0.120192364 -0.13136278 -0.059208747 -0.28566763 -0.120452195 1.0409757 -0.077265136 -0.082842216
-0.15994267 0.51459396 -0.039331924 -0.105248466 -0.0450913 -0.12766024 -0.11882484 -0.09448736
1.306718 -0.15406117 -0.14493816 -0.15262808 0.43361703 -0.21158394 -0.13642496 -0.026397714
0.09658079 -0.14920986 -0.20328198 -0.06872512 -0.062424764 -0.1375411 -0.13955212 -0.12576808
0.343298 -0.09149654 -0.0727184 -0.18842445 -0.07771682 -0.15860306 -0.06569294 -0.11451877
-0.07442481 -0.15118396 -0.2699969 -0.058732107 -0.101350024 0.024628086 0.19976941 0.11271691
-0.118025474 -0.17269568 -0.11575698 -0.14096597 0.21753196 -0.12798312 0.47559705 -0.092128605
-0.5914755 -0.11657327 -0.13431247 -0.11534984 1.0198042 -0.1579578 -0.092834115 -0.10830326
-0.13107486 -0.024938777 0.43768743 0.08362015 -0.1642663 -0.107619815 -0.0028137118 -0.0564118
-0.13987765 -0.15911292 -0.065519065 -0.14786004 -0.03774978 -0.09269895 -0.091201276 -0.07760902
-0.18914187 0.6653239 -0.17908798 0.31984589 -0.18269274 -0.19215174 -0.1367163 -0.11832924
-0.19384839 0.109958515 -0.087607056 -0.027454343 0.24219315 -0.61401254 -0.05977649 -0.3891502
0.026934233 0.3172295 1.1402798 -0.15827516 -0.051892407 -0.08564776 1.5998615 -0.08455055
0.31848186 -0.104900636 -0.2781827 -0.10647878 -0.03980391 0.64370674 -0.10741901 -0.24413091
-0.24993065 -0.16813609 -0.11064748 -0.5479943 -0.1160257 -0.10316445 -0.0407047 -0.09662172
-0.113977686 -0.054600928 -0.046341535 0.4361792 -0.06585757 -0.0917438 -0.11623419 -0.03961069
-0.16752231 -0.09353383 -0.12593947 -0.14276423 -0.04656708 0.5364872 -0.04168765 -0.04659381
-0.056070823 -0.06996262 -0.16243501 -0.077627085 -0.1294229 -0.061534848 0.18033811 -0.07652932
0.115766376 0.77870977 -0.08147404 -0.02865879 -0.08270477 -0.05214322 -0.0877402 -0.11840611
-0.28193653 -0.16430146 -0.09217031 0.056252554 -0.14106931 -0.40918177 -0.63863325 -0.102011815
-0.07335606 -0.04979171 -0.06125861 0.17080905 -0.24102107 0.23205121 -0.12699771 -0.0503988
-0.059935533 -0.14135139 -0.2562261 -0.06110985 -0.10487331 -0.11604324 -0.075894415 -0.039295077
-0.20071451 -0.08545027 -0.08974668 -0.11014618 0.28087068 -0.17585061 -0.115333244 -0.1462443
-0.11020554 -0.06004318 -0.11821633 -0.5436661 -0.105997525 -0.032817148 -0.13555719 -0.09094831
-0.13294905 -0.13149817 -0.0033424078 -0.117103234 -0.09233009 -0.043490514 -0.12317512 0.45959592
0.016857017 -0.25194368 -0.16816723 0.37825897 -0.07492843 -0.11674505 -0.18398115 -0.21759441
-0.18606152 -0.12667507 -0.09235361 -0.09033774 -0.26781216 -0.04842579 -0.095696054 -0.14532875
-0.060310442 -0.045746967 1.0951183 -0.13755716 -0.019814415 0.49376354 0.03375747 0.17308247
00000000: 8bff 0cbe ab75 cabd 2a95 75bd 16cb 09be
00000010: 2190 37be 3e8d d2bd d516 b2bd f299 fdbd
00000020: b290 7bbe fee8 0fbe 1e20 efbd 5106 29be
00000030: 012a aebd c29c 12be 065e 663e 062c a4bd
00000040: ebf4 34bd 5e6a 01be 7d3e 16be a58d af3b
00000050: 91ec 9c3f 1402 e7bd 7ce9 83bf 906b 53be
00000060: 8c7d 02be 8274 77bd 8d76 7fbe 1b53 53be
00000070: a4ee 04be a168 05be 4c02 19be f27e 24be
00000080: 6a27 f6bd f783 06be df84 72bd 0743 92be
00000090: a4af f6bd b13e 853f 2f3d 9ebd 2ea9 a9bd
000000a0: 03c8 23be 6ebc 033f 831a 21bd 828c d7bd
000000b0: a8b1 38bd 5eb9 02be 705a f3bd 9782 c1bd
000000c0: 8942 a73f 36c2 1dbe ab6a 14be 894a 1cbe
000000d0: 0d03 de3e 76a9 58be fcb2 0bbe 0540 d8bc
000000e0: 26cc c53d 78ca 18be 2729 50be c1bf 8cbd
000000f0: 1cb1 7fbd 93d7 0cbe c0e6 0ebe 59c9 00be
00000100: c1c4 af3e 8a62 bbbd 62ed 94bd 57f2 40be
00000110: ff29 9fbd d768 22be 058a 86bd d188 eabd
00000120: 096c 98bd f8cf 1abe 093d 8abe 1491 70bd
00000130: 9a90 cfbd d7c0 c93c 5a90 4c3e 20d8 e63d
00000140: 57b7 f1bd 23d7 30be ff11 edbd 6259 10be
00000150: b3c0 5e3e 020e 03be 7581 f33e ecad bcbd
00000160: f06a 17bf f7bd eebd 3589 09be 893c ecbd
00000170: f288 823f b1bf 21be d01f bebd 19ce ddbd
00000180: 7d38 06be 684c ccbc 9118 e03e 0b41 ab3d
00000190: 6d35 28be c767 dcbd 4066 38bb 0f10 67bd
000001a0: 163c 0fbe 7fee 22be dc2e 86bd 9f68 17be
000001b0: 839f 1abd f2d8 bdbd bcc7 babd 7af1 9ebd
000001c0: 68ae 41be ab52 2a3f d762 37be d7c2 a33e
000001d0: ce13 3bbe 6dc3 44be 5cff 0bbe 9a56 f2bd
000001e0: 3180 46be ee31 e13d 546b b3bd eee7 e0bc
000001f0: 7b01 783e ed2f 1dbf 31d8 74bd b23e c7be
00000200: 2ea5 dc3c e86b a23e b0f4 913f e212 22be
00000210: 228d 54bd 1868 afbd 43c8 cc3f d728 adbd
00000220: 0e10 a33e 25d6 d6bd f66d 8ebe 8c11 dabd
00000230: 6d09 23bd f7c9 243f 7ffe dbbd 74fd 79be
00000240: d2ed 7fbe de2b 2cbe 259b e2bd 5b49 0cbf
00000250: e29e edbd e247 d3bd f9b9 26bd 9ce1 c5bd
00000260: 226d e9bd 39a5 5fbd 9fd0 3dbd e152 df3e
00000270: 55e0 86bd 2ce4 bbbd 310c eebd d23e 22bd
00000280: f88a 2bbe aa8e bfbd 47f6 00be c930 12be
00000290: 1fbd 3ebd 3a57 093f abc0 2abd 27d9 3ebd
000002a0: 85aa 65bd 9048 8fbd 5d55 26be f3fa 9ebd
000002b0: 7087 04be f70b 7cbd 8eaa 383e 67bb 9cbd
000002c0: ec16 ed3d 8659 473f dddb a6bd d7c5 eabc
000002d0: 1e61 a9bd 2194 55bd 22b1 b3bd e77e f2bd
000002e0: fc59 90be a43e 28be cac3 bcbd 1469 663d
000002f0: 7974 10be 4680 d1be 787d 23bf 92eb d0bd
00000300: b43b 96bd 64f2 4bbd 4fea 7abd 91e8 2e3e
00000310: 3ace 76be d59e 6d3e b00b 02be f96e 4ebd
00000320: f67e 75bd 6bbe 10be 1130 83be 524e 7abd
00000330: d1c7 d6bd 14a8 edbd 886e 9bbd e0f3 20bd
00000340: 1b88 4dbe 8d00 afbd 1bcd b7bd 5294 e1bd
00000350: 48ce 8f3e 2f12 34be d633 ecbd 11c1 15be
00000360: 71b3 e1bd d6ef 75bd 671b f2bd b42d 0bbf
00000370: 3b15 d9bd 466b 06bd 81cf 0abe 1c43 babd
00000380: cc23 08be 75a7 06be 4c0c 5bbb d2d3 efbd
00000390: 8f17 bdbd 1c23 32bd 3d43 fcbd 2850 eb3e
000003a0: ba17 8a3c c3fe 80be 0834 2cbe 29ab c13e
000003b0: 1474 99bd 0718 efbd 8e65 3cbe 12d1 5ebe
000003c0: e986 3ebe 1cb7 01be e423 bdbd fe02 b9bd
000003d0: ad1e 89be 1f5a 46bd 4bfc c3bd 0fd1 14be
000003e0: 1508 77bd 2c61 3bbd d62c 8c3f c9db 0cbe
000003f0: d751 a2bc 93ce fc3e 4645 0a3d 883c 313e

fc3.weight f4 [1, 256]
-0.0073944055 -0.016718045 -0.0011592944 0.005309136 -0.010820174 0.02417968 -0.0113905 0.11861895
0.023608396 0.02772602 -0.0031757858 0.007588966 -0.014849365 -0.009884249 -0.077611946 0.010647667
-0.021087345 -0.019463757 0.0029576581 -0.0054604425 0.077742845 0.0144927045 0.007287614 0.06102398
0.009594913 0.029641034 0.040579814 -0.006657391 0.016035093 0.014059707 0.0013784408 0.00537831
-0.008268962 0.009159753 0.017790243 0.055600762 0.007237208 0.026670266 -0.040108897 -7.159549e-06
0.022360668 0.01847495 -0.005461559 -0.00874387 0.004240684 0.0072847535 -0.02327924 0.019924406
0.047017638 0.005102559 0.0007702809 0.016756013 0.018081835 0.07739799 -0.019601954 -0.0038799366
-0.09722252 -0.020639557 0.040330686 0.023704639 -0.016750958 0.052728117 0.014497286 -0.051607125
-0.041882265 -0.025921293 -0.0010128779 -0.0030472868 0.014591783 0.016287478 -0.011474171 -0.030077066
0.01724234 0.018293394 -0.0045894133 0.014483896 -0.014583364 0.031987038 -0.06026625 0.034291998
-0.0260603 -0.020530157 0.00551921 0.00067140535 -0.09520245 -0.0054038223 0.01886449 -0.016845163
0.02114626 -7.617783e-05 0.006749503 -0.0045722956 0.052868523 0.015558928 0.0063841813 -0.015194094
0.019937353 -0.023804784 0.0104141915 0.03554737 0.0157418 -0.00014159828 0.06582527 0.0005066326
-0.013091356 0.00017887886 0.0094004115 -0.014246844 -0.0033235976 0.009021324 0.019755125 -0.008565404
0.123438805 -0.04216063 0.04957961 0.024787264 -0.023281986 0.007648028 0.013879 0.0035027508
-0.022610754 0.034773555 -0.004347504 -0.00378405 -0.06558397 0.08932283 -0.0045318743 0.09821889
0.01489793 0.05009169 0.044819802 0.0144374315 0.0015962308 -0.0059620882 0.08150978 -0.008364299
0.026591245 -0.009132504 -0.04253532 -0.011540405 -0.021093016 -0.02776861 0.01053027 -0.055014163
0.010370487 -0.019703604 -0.02230759 0.085161276 -0.025088567 -0.025788946 0.00662149 0.025192821
0.008773248 -0.010470385 -0.0026023146 -0.049562857 -0.052675795 -0.001559307 0.0075372555 0.02755492
0.018781174 -0.008875726 0.014717558 0.0030128546 0.01653125 0.019258378 0.0047129835 -0.0165617
-0.014474716 -0.010668755 -0.005314064 -0.02705408 0.012746177 -0.013386588 -0.018909423 -0.032600123
0.04882888 0.015951741 -0.011915321 -0.00547711 -0.0053430777 -0.024410173 0.024421792 0.0024734067
-0.072740376 -0.016516859 -0.013722263 0.05715878 0.0016509627 0.006006991 -0.06310472 0.023455547
0.05528185 0.0019186888 0.01106957 0.029266162 -0.02088517 0.039489504 -0.015646376 -0.02959458
0.015850112 -0.018511143 -0.0048596137 -0.013815343 -0.024813695 0.014349333 -0.013828584 0.0025769563
-0.017592654 0.0043260604 -0.0010017102 0.005972746 -0.070815705 0.014805488 -0.01584331 -0.0034737922
0.00015497758 0.008014833 0.03592737 -0.039283305 0.012801349 -0.015226232 -0.042924568 -0.031550188
0.0048993817 -0.0029499745 0.036632996 -0.004137542 0.0037931711 0.0018930684 -0.014085647 0.027334664
0.040689696 0.011975454 0.01265162 0.022467693 -0.014604337 0.017488021 -0.021036554 0.049179595
0.06547624 -0.011525511 0.077912755 0.0043639718 0.054441825 -0.007480779 0.017786993 0.03448463
0.0233632 -0.023581255 0.10362223 0.024977189 0.015146107 0.012826521 0.026467668 0.021637948
00000000: c54c f2bb 48f4 88bc 77f3 97ba 43f8 ad3b
00000010: 1947 31bc 7714 c63c 389f 3abc 7eee f23d
00000020: 6566 c13c ae21 e33c d820 50bb dcac f83b
00000030: c04a 73bc 8cf1 21bc 03f3 9ebd 8d73 2e3c
00000040: 5ebf acbc 7572 9fbc 45d5 413b 83ed b2bb
00000050: a437 9f3d cf72 6d3c f0cc ee3b 48f4 793d
00000060: fb33 1d3c c1d1 f23c 0537 263d 3e26 dabb
00000070: 075c 833c af5a 663c ccac b43a 893c b03b
00000080: 8a7a 07bc ca12 163c d8bc 913c a0bd 633d
00000090: 1a26 ed3b 9a7b da3c 3a49 24bd 0f3c f0b6
000000a0: b82d b73c c758 973c e1f6 b2bb 7342 0fbc
000000b0: 70f5 8a3b f1b4 ee3b 1bb4 bebc 8238 a33c
000000c0: 9195 403d 5e33 a73b adec 493a e843 893c
000000d0: 5b20 943c d682 9e3d 4794 a0bc 8946 7ebb
000000e0: 9a1c c7bd 4a14 a9bc ca31 253d 3b30 c23c
000000f0: 4e39 89bc 70f9 573d 0686 6d3c fe61 53bd
00000100: bd8c 2bbd e458 d4bc 8bc2 84ba fdb4 47bb
00000110: 6012 6f3c 516d 853c 29fe 3bbc 2e64 f6bc
00000120: cf3f 8d3c 07dc 953c ca62 96bb dd4d 6d3c
00000130: 10ef 6ebc d704 033d bed9 76bd c475 0c3d
00000140: 697c d5bc dc2e a8bc 7dda b43b 4001 303a
00000150: 81f9 c2bd 8c12 b1bb b489 9a3c defe 89bc
00000160: ec3a ad3c a9c1 9fb8 ef2a dd3b 32d3 95bb
00000170: aa8c 583d e0ea 7e3c 6532 d13b a6f0 78bc
00000180: a953 a33c 4002 c3bc 49a0 2a3c 1e9a 113d
00000190: f3f4 803c 007a 14b9 66cf 863d 8acf 043a
000001a0: 207d 56bc 6e91 3b39 2f04 1a3c 986b 69bc
000001b0: b7d0 59bb 2dce 133c 80d5 a13c e955 0cbc
000001c0: 7ccd fc3d a0b0 2cbd fd13 4b3d a90e cb3c
000001d0: ddb9 bebc 4f9c fa3b bf64 633c 688e 653b
000001e0: 303a b9bc b76e 0e3d 8275 8ebb d3fd 77bb
000001f0: e350 86bd e3ee b63d 1e80 94bb fc26 c93d
00000200: 7316 743c f22c 4d3d f894 373d fa8a 6c3c
00000210: 9e38 d13a 9f5d c3bb 99ee a63d 6a0a 09bc
00000220: e2d5 d93c 80a0 15bc 8439 2ebd f813 3dbc
00000230: 43cb acbc ff7a e3bc 2787 2c3c 8856 61bd
00000240: fae8 293c 7469 a1bc 68be b6bc 0969 ae3d
00000250: 8a86 cdbc 5743 d3bc 16f9 d83b 2d61 ce3c
00000260: abbd 0f3c fa8b 2bbc 988b 2abb 6c02 4bbd
00000270: 93c2 57bd a961 ccba 15fb f63b dbba e13c
00000280: fada 993c 7e6b 11bc ea21 713c 5073 453b
00000290: 8b6c 873c bfc3 9d3c 5f6f 9a3b 67ac 87bc
000002a0: 5c27 6dbc 00cc 2ebc 9a21 aebb 85a0 ddbc
000002b0: 57d5 503c 6b53 5bbc efe7 9abc b587 05bd
000002c0: cb00 483d 3aad 823c 7b38 43bc 5479 b3bb
000002d0: fc14 afbb d8f7 c7bc 3610 c83c e118 223b
000002e0: e8f8 94bd 5d4e 87bc 58d3 60bc 531f 6a3d
000002f0: 1e65 d83a 4bd6 c43b 0c3d 81bd d925 c03c
00000300: 396f 623d 837c fb3a 245d 353c 97bf ef3c
00000310: 6017 abbc bfbf 213d d42c 80bc 5570 f2bc
00000320: 18d8 813c aea4 97bc 653d 9fbb c059 62bc
00000330: 1746 cbbc 7719 6b3c 4991 62bc 27e2 283b
00000340: 781e 90bc a0c1 8d3b d14b 83ba 06b7 c33b
00000350: d307 91bd b892 723c d4c9 81bc 90a8 63bb
00000360: 7a81 2239 a550 033c 9428 133d 88e7 20bd
00000370: c0bc 513c 7277 79bc acd1 2fbd c53a 01bd
00000380: fe8a a03b 5c54 41bb 7b0c 163d 3894 87bb
00000390: da96 783b d620 f83a 7cc7 66bc f2ec df3c
000003a0: 3daa 263d b234 443c be48 4f3c 2b0e b83c
000003b0: 0747 6fbc 0a43 8f3c da54 acbc 8b70 493d
000003c0: 6818 863d 7fd5 3cbc b990 9f3d a6ff 8e3b
000003d0: 64fe 5e3d 5321 f5bb 07b6 913c c13f 0d3d
000003e0: 2e64 bf3c 7a2d c1bc e437 d43d f69c cc3c
000003f0: 6127 783c 5426 523c b9d2 d83c 1142 b13c

batchnorm_1.weight f4 [128]
0.61629355 0.2738701 0.21492645 0.39676717 0.2754611 0.40298194 0.35703102 0.29026532
0.328261 0.57598567 0.14853588 0.5020986 0.57512885 0.32819223 0.37181917 0.12531094
0.18823946 0.48706686 0.23016916 0.43004063 0.46030095 0.4038374 0.28497463 0.1558297
0.22220387 0.3067855 0.3017557 0.22722016 0.27533966 0.32759145 0.36348596 0.22835721
0.49053144 0.45950648 0.23637089 0.34393874 0.31396535 0.39669064 0.25458655 0.20415466
0.49027 0.45979777 0.5226915 0.52694523 0.36957547 0.7484546 0.2850929 0.20262952
0.37599623 0.44405597 0.67430174 0.44630128 0.25746235 0.15510064 0.24590755 0.517023
0.5132047 0.23205341 0.35725778 0.12773977 0.42943648 0.36879042 0.11917809 0.19311514
0.44217125 0.603276 0.5543338 0.5469775 0.5304426 0.66617465 0.22134855 0.37112603
0.40840635 0.51503277 0.26083702 0.24897878 0.25253692 0.4659636 0.68738127 0.40241048
0.21060753 0.52543163 0.2729533 0.14991343 0.30419892 0.5805977 0.11715981 0.37600285
0.2843895 0.24999617 0.4235108 0.28419268 0.24868725 0.31522137 0.51916075 0.36819485
0.23745222 0.3256776 0.18859568 0.2906788 0.4330108 0.5477122 0.21309324 0.62767375
0.25127324 0.30733362 0.17835179 0.7406323 0.14753208 0.19965947 0.25846586 0.24235676
0.35857266 0.575352 0.4468375 0.52638024 0.14995126 0.27335745 0.53467864 0.67148584
0.3317921 0.347992 0.5520765 0.4664492 0.69644785 0.52102566 0.26794887 0.21178415
00000000: 6ac5 1d3f b438 8c3e ae15 5c3e 1125 cb3e
00000010: 3d09 8d3e a653 ce3e c5cc b63e a89d 943e
00000020: d311 a83e cc73 133f ca19 183e 8989 003f
00000030: a53b 133f d008 a83e 155f be3e 8351 003e
00000040: d8c1 403e d460 f93e 77b1 6b3e 492e dc3e
00000050: 91ac eb3e c7c3 ce3e 32e8 913e d291 1f3e
00000060: 6989 633e fd12 9d3e b97f 9a3e 67ac 683e
00000070: 52f9 8c3e 11ba a73e d51a ba3e 79d6 693e
00000080: f026 fb3e 6f44 eb3e 360b 723e bd18 b03e
00000090: 11c0 a03e 091b cb3e 2b59 823e eb0d 513e
000000a0: ab04 fb3e 9d6a eb3e 1ccf 053f e2e5 063f
000000b0: ff38 bd3e b89a 3f3f b2f7 913e 1d7e 4f3e
000000c0: 9482 c03e 4e5b e33e 0a9f 2c3f 9a81 e43e
000000d0: 1bd2 833e b4d2 1e3e 30cf 7b3e 9f5b 043f
000000e0: 6261 033f 699f 6d3e 7eea b63e 37ce 023e
000000f0: 19df db3e 19d2 bc3e a413 f43d fabf 453e
00000100: 4564 e23e 4c70 1a3f d2e8 0d3f b806 0c3f
00000110: 16cb 073f 6c8a 2a3f 32a9 623e 3b04 be3e
00000120: a31a d13e 30d9 033f 6e8c 853e 4bf4 7e3e
00000130: 854c 813e c892 ee3e 38f8 2f3f bf08 ce3e
00000140: 80a9 573e b082 063f 89c0 8b3e e882 193e
00000150: f6bf 9b3e 0da2 143f 7cf1 ef3d 7283 c03e
00000160: 809b 913e fffe 7f3e 68d6 d83e b481 913e
00000170: dfa7 7e3e b264 a13e b8e7 043f 0984 bc3e
00000180: ad26 733e 37bf a63e 3a1f 413e dad3 943e
00000190: 97b3 dd3e de36 0c3f 1d35 5a3e 3aaf 203f
000001a0: e3a6 803e d55a 9d3e daa1 363e 149a 3d3f
000001b0: a612 173e 8873 4c3e a355 843e 5f2c 783e
000001c0: d696 b73e 454a 133f e3c7 e43e dbc0 063f
000001d0: d38c 193e 82f5 8b3e b3e0 083f 7fe6 2b3f
000001e0: a7e0 a93e 022c b23e e354 0d3f 6ed2 ee3e
000001f0: 684a 323f f061 053f 9830 893e f2dd 583e

batchnorm_1.bias f4 [128]
-1.1378002 -0.28106827 -0.12740235 -0.46442786 -0.0910239 -0.49409097 -0.40251353 -0.40250275
-0.15533406 -0.8176913 0.028346598 -0.5741208 -1.1661179 -0.23950359 -0.15921931 0.0046668574
-0.0072465884 -0.30744398 -0.36344853 -0.7059267 -0.60449916 -0.39819297 0.091496855 -0.08549522
-0.18584678 -0.4808322 -0.27220434 -0.22719921 -0.3100538 -0.5137419 -0.30451784 -0.2421044
-0.6634703 -0.59060234 -0.11776575 -0.35234725 -0.36557332 -0.40960586 -0.079764046 -0.03344272
-0.37052655 -0.5287269 -0.7329808 -0.66254544 -0.5971444 -1.2800564 -0.2874774 0.27057326
-0.0030116593 -0.3064554 -1.095176 -0.3420696 -0.16611455 -0.09874267 -0.09285458 -0.74897164
-0.82975996 -0.2497473 -0.95083654 -0.1550577 -0.7883376 -0.32550696 0.03388566 -0.12033039
-0.34719637 -0.9181178 -0.7762714 -0.9778784 -0.8449401 -0.9815282 -0.17425825 -0.3083058
-0.49410105 -0.38004532 -0.28840908 -0.1762592 0.10160522 -0.64239424 -0.83676416 -0.61211395
-0.17466749 -0.5759356 -0.032394957 0.08018538 -0.1580222 -0.6992852 -0.10601241 -0.23296969
-0.36730745 -0.13113846 -0.62974733 -0.29195 -0.24063128 0.022392156 -0.68199724 -0.61937743
-0.22013156 -0.044087216 -0.26031417 -0.36058107 -0.6969465 -0.64589465 -0.18117334 -1.0185874
-0.12804388 -0.3756331 -0.075838245 -0.9321218 0.04167832 0.11172458 -0.20362847 -0.06961899
-0.4786021 -0.8612995 -0.5743313 -0.8544607 -0.043966055 -0.11751363 -0.68678325 -0.98695755
-0.5617927 -0.44287962 -1.1701244 -0.5810835 -0.9589523 -0.7462365 -0.15221226 -0.20259194
00000000: 70a3 91bf 2ee8 8fbe c375 02be 7dc9 edbe
00000010: bd6a babd 7ef9 fcbe 4116 cebe d714 cebe
00000020: e40f 1fbe 3854 51bf 2037 e83c 95f9 12bf
00000030: 5a43 95bf 6e40 75be 630a 23be 70ec 983b
00000040: ca74 edbb 4c69 9dbe ed15 babe 9db7 34bf
00000050: 75c0 1abf f3df cbbe b462 bb3d 1e18 afbd
00000060: 9e4e 3ebe a32f f6be 5e5e 8bbe e9a6 68be
00000070: 5fbf 9ebe 9784 03bf c3e9 9bbe 37ea 77be
00000080: 31d9 29bf b731 17bf 2b2f f1bd dc66 b4be
00000090: 6d2c bbbe dcb7 d1be 555b a3bd 3cfb 08bd
000000a0: a8b5 bdbe a55a 07bf a1a4 3bbf 949c 29bf
000000b0: 75de 18bf e3d8 a3bf 3d30 93be 9488 8a3e
000000c0: 425f 45bb b9e7 9cbe ba2e 8cbf bf23 afbe
000000d0: ef19 2abe 9939 cabd 8b2a bebd 9bbc 3fbf
000000e0: 266b 54bf c2bd 7fbe 066a 73bf 72c7 1ebe
000000f0: 7ed0 49bf d9a8 a6be b1cb 0a3d c86f f6bd
00000100: b9c3 b1be c509 6bbf b9b9 46bf 3d56 7abf
00000110: ff4d 58bf 6f45 7bbf c170 32be 42da 9dbe
00000120: d0fa fcbe 4d95 c2be 5baa 93be 4b7d 34be
00000130: 6616 d03d f373 24bf 2d36 56bf 80b3 1cbf
00000140: 09dc 32be 8470 13bf 93b0 04bd 3c38 a43d
00000150: 92d0 21be 5b04 33bf 091d d9bd 9b8f 6ebe
00000160: b90f bcbe 2949 06be 1f37 21bf 787a 95be
00000170: 0c68 76be c16f b73c 5f97 2ebf 858f 1ebf
00000180: 2b6a 61be cc94 34bd e647 85be 159e b8be
00000190: 166b 32bf 5a59 25bf 8185 39be 1261 82bf
000001a0: ef1d 03be fb52 c0be 1551 9bbd 899f 6ebf
000001b0: e3b6 2a3d dbcf e43d fb83 50be 6794 8ebd
000001c0: 560b f5be 207e 5cbf 6007 13bf f0bd 5abf
000001d0: c015 34bd fcaa f0bd 07d1 2fbf 40a9 7cbf
000001e0: a5d1 0fbf 1ec1 e2be a3c6 95bf e3c1 14bf
000001f0: e67d 75bf 5b09 3fbf 88dd 1bbe 4374 4fbe

batchnorm_1.running_mean f4 [128]
4.0013123 0.823189 2.164203 -2.8978722 1.4866978 0.33113256 -5.898938 -2.5448995
1.643726 1.2198911 -0.1489942 -2.0442307 -10.61154 -1.4069712 0.39897096 -1.9978046
-1.7166451 -0.6216944 -3.19739 -6.3223658 -5.017018 -2.9822254 0.16592667 -2.8052242
0.87468207 -5.7417073 0.6043973 -5.2631707 -1.6253859 -0.5518552 -2.030583 3.1578472
-0.44086102 -1.2451196 2.5880177 0.8493999 -4.0884395 -6.261244 -0.39689824 -1.3187655
0.4185408 -5.05728 -5.3094916 -1.9783384 5.0152817 -5.0954814 -5.0769696 4.154399
0.9538013 -0.63664347 -1.9321473 0.6429085 2.250534 -1.9536763 -4.922047 -0.0063583255
-5.9059987 -4.421618 -11.182119 0.71300274 -6.492498 1.6915842 -4.4170537 1.8923873
-4.112467 -5.686655 -1.6110222 -3.1104608 -2.5021217 -2.4160032 -2.4960163 -4.711776
1.1446141 -3.4356785 -6.9165454 -3.9024217 -0.37736893 -1.1743724 2.3802786 -3.1941662
3.2214704 -0.72165537 4.2019906 0.6527619 -2.777481 -1.4628744 1.3774818 -2.3346744
4.9067106 -2.6748002 -3.7063262 1.0545748 -0.63513225 0.41680533 3.149665 -4.145864
-1.5225326 -2.0569615 -2.9730735 -1.1831698 -3.1088946 -1.0196162 0.1688963 -6.137121
0.8648238 -3.895265 2.9814346 -0.90816486 -0.8087662 2.406197 -4.5597477 -11.972436
-0.5889228 -0.24528255 -0.69597286 2.210004 1.9633775 0.37684846 -2.930941 -2.6335545
-3.7687042 0.44399166 -3.7469196 1.8096989 -0.93206036 -1.2219423 1.769654 -6.8947887
00000000: c00a 8040 84bc 523f 4d82 0a40 bd76 39c0
00000010: 1d4c be3f 358a a93e 1ac4 bcc0 a2df 22c0
00000020: 9d65 d23f 6425 9c3f f091 18be add4 02c0
00000030: dec8 29c1 a217 b4bf ec45 cc3e 10b8 ffbf
00000040: 07bb dbbf 5d27 1fbf 0aa2 4cc0 d250 cac0
00000050: 698b a0c0 c8dc 3ec0 aee8 293e cb88 33c0
00000060: 2aeb 5f3f 11bc b7c0 c8b9 1a3f e56b a8c0
00000070: a50c d0bf 6246 0dbf 12f5 01c0 2b1a 4a40
00000080: 89b8 e1be 1460 9fbf 15a2 2540 4672 593f
00000090: 7fd4 82c0 1c5c c8c0 3f36 cbbe 4fcd a8bf
000000a0: fb4a d63e 3dd5 a1c0 5be7 a9c0 313a fdbf
000000b0: 307d a040 2f0e a3c0 8976 a2c0 d6f0 8440
000000c0: 522c 743f 11fb 22bf 9a50 f7bf a795 243f
000000d0: c008 1040 1112 fabf 6981 9dc0 8059 d0bb
000000e0: f1fd bcc0 e57d 8dc0 f6e9 32c1 5987 363f
000000f0: 8bc2 cfc0 d585 d83f 8158 8dc0 bf39 f23f
00000100: 5499 83c0 14f9 b5c0 fa35 cebf ca11 47c0
00000110: c322 20c0 cc9f 1ac0 bbbe 1fc0 dec6 96c0
00000120: b782 923f 28e2 5bc0 5754 ddc0 47c1 79c0
00000130: 8036 c1be d651 96bf 7c56 1840 386d 4cc0
00000140: 922c 4e40 68be 38bf b576 8640 671b 273f
00000150: 40c2 31c0 783f bbbf 5351 b03f 4e6b 15c0
00000160: c603 9d40 ed2f 2bc0 7334 6dc0 4ffc 863f
00000170: 0798 22bf 8267 d53e 1d94 4940 ebaa 84c0
00000180: 59e2 c2bf 42a5 03c0 d646 3ec0 1c72 97bf
00000190: 21f8 46c0 c982 82bf 27f3 2c3e 4c63 c4c0
000001a0: 1865 5d3f 064c 79c0 d3cf 3e40 7e7d 68bf
000001b0: 4d0b 4fbf 22ff 1940 74e9 91c0 198f 3fc1
000001c0: a5c3 16bf 592b 7bbe 472b 32bf b570 0d40
000001d0: f44f fb3f 48f2 c03e 8a94 3bc0 288c 28c0
000001e0: 7332 71c0 e052 e33e 88cd 6fc0 37a4 e73f
000001f0: 829b 6ebf 9b68 9cbf 0684 e23f 1ca2 dcc0

batchnorm_1.running_var f4 [128]
61.431335 53.856 56.67708 21.730093 27.130342 29.415474 52.821003 27.274496
69.59211 35.820927 35.97241 63.148502 74.95801 35.286385 5.6320777 128.26619
104.85559 82.454185 46.812393 30.62536 79.09827 87.43818 34.101593 57.656593
33.879314 72.88342 75.575455 49.132946 29.9276 72.98105 99.61091 90.820755
219.71645 23.048252 44.347843 14.433302 17.090996 108.10103 5.504251 17.335358
110.044876 34.284813 54.986862 23.108562 62.564693 64.16121 49.283062 15.3677435
61.545006 6.372473 67.15321 517.8024 63.69131 39.320705 70.456604 76.189156
85.316315 76.580055 52.7792 39.68836 55.524853 69.38022 46.774292 50.41783
159.5245 59.44012 57.762314 114.04199 59.01342 101.70049 57.47394 55.950558
49.992294 141.48969 90.06433 47.737457 20.45488 29.598085 64.99286 30.804995
33.640903 109.8454 174.32011 29.255888 32.274097 59.07321 12.753886 5.377194
27.304293 82.88054 35.4767 43.011475 7.2410254 42.777794 120.942406 44.102455
10.716429 81.58561 28.146055 57.867523 80.22919 23.206793 54.134445 56.268684
13.923324 43.567047 33.86777 51.619167 36.556644 9.163039 59.053986 60.239895
24.860914 68.53428 17.287506 217.78127 34.845177 128.49979 65.08563 49.595802
81.95983 32.750828 118.973 164.42166 48.486626 74.48171 97.88951 143.7967
00000000: b0b9 7542 8b6c 5742 54b5 6242 3bd7 ad41
00000010: f10a d941 e452 eb41 b548 5342 2b32 da41
00000020: 292f 8b42 a148 0f42 bfe3 0f42 1198 7c42
00000030: 80ea 9542 4225 0d42 fb39 b440 2544 0043
00000040: 10b6 d142 8be8 a442 e43f 3b42 bd00 f541
00000050: 5032 9e42 59e0 ae42 0868 0842 5aa0 6642
00000060: 6b84 0742 50c4 9142 a226 9742 2388 4442
00000070: ba6b ef41 4cf6 9142 c938 c742 3aa4 b542
00000080: 69b7 5b43 d262 b841 3164 3142 ceee 6641
00000090: 5cba 8841 ba33 d842 d322 b040 d0ae 8a41
000000a0: fa16 dc42 a623 0942 8cf2 5b42 56de b841
000000b0: 3f42 7a42 8a52 8042 db21 4542 47e2 7541
000000c0: 162e 7642 4ceb cb40 724e 8642 5b73 0144
000000d0: e7c3 7e42 6748 1d42 c8e9 8c42 d960 9842
000000e0: f4a1 aa42 fd28 9942 e71d 5342 e1c0 1e42
000000f0: 7319 5e42 acc2 8a42 e018 3b42 dcab 4942
00000100: 4686 1f43 afc2 6d42 9c0c 6742 8015 e442
00000110: be0d 6c42 a766 cb42 51e5 6542 5fcd 5f42
00000120: 1cf8 4742 5c7d 0d43 f020 b442 28f3 3e42
00000130: 98a3 a341 e1c8 ec41 58fc 8142 a170 f641
00000140: 4990 0642 d8b0 db42 f351 2e43 0f0c ea41
00000150: ad18 0142 f84a 6c42 eb0f 4c41 f911 ac40
00000160: 316f da41 d6c2 a542 24e8 0d42 c00b 2c42
00000170: 7bb6 e740 761c 2b42 83e2 f142 ea68 3042
00000180: 7e76 2b41 d52b a342 1f2b e141 5878 6742
00000190: 5875 a042 83a7 b941 ac89 5842 2213 6142
000001a0: efc5 5e41 a844 2e42 9978 0742 077a 4e42
000001b0: 013a 1242 cf9b 1241 4837 6c42 a7f5 7042
000001c0: 27e3 c641 8d11 8942 d04c 8a41 01c8 5943
000001d0: 7661 0b42 f27f 0043 d82b 8242 1a62 4642
000001e0: 6feb a342 d900 0342 2df2 ed42 f26b 2443
000001f0: 4ef2 4142 a3f6 9442 6ec7 c342 f5cb 0f43
