checkpoint_actor.pth (torch_old, 157461 bytes, 10 tensors)

fc1.weight f4 [128, 33]
000000 3e 8e 7a bb 01 41 a2 3e 10 bc a7 3c 44 26 23 bd
       -0.0038231756 0.3169022 0.020475417 -0.039831415
000010 47 2b 3a 3e b9 78 48 3a b3 8f eb 3b 67 c4 bd bd
       0.18180571 0.00076473836 0.007188761 -0.092659764
000020 2c c9 19 3d 97 2b 1f be df 06 28 bd 3e ed c4 3d
       0.037545368 -0.15543972 -0.041022178 0.09615563
000030 07 67 0b be 53 aa 52 3d 33 7d cd 3d 7b 96 95 3d
       -0.1361352 0.051431965 0.100336455 0.073040925
000040 78 c3 07 bd 8c eb e2 3c 90 27 44 bc 9f 41 1c bd
       -0.033145398 0.027700208 -0.011972323 -0.03814852
000050 36 fb 00 bc 65 1e a4 3d f7 82 27 3d b2 51 92 3d
       -0.007872393 0.0801361 0.040896382 0.071444884
000060 b1 31 be 3d 7c ae 34 bd 25 55 81 3d 57 8c b2 3d
       0.09286822 -0.044111714 0.06315068 0.08718174
000070 32 5f 75 3d 0a 42 42 3d 3b 8c f0 3c 65 84 8b 3d
       0.05990524 0.04742626 0.029363742 0.06812362
000080 d6 0b 86 bf 73 57 32 be 59 a3 21 3e e2 4d a6 bd
       -1.0472362 -0.17416172 0.15784968 -0.08120324
000090 1e ed 72 3e ea 72 8a bd 6d 4f e9 3d 2a 03 d1 bd
       0.23723266 -0.06760199 0.113921024 -0.102056816
0000a0 65 bb 20 bc f4 2e b0 3d 58 e1 a9 bd ae a5 a6 bd
       -0.009810303 0.086027056 -0.08294934 -0.0813707
0000b0 02 88 c2 bd 24 dc ab bd ef 5b 0b 3e b7 db 34 bd
       -0.09498598 -0.08391598 0.13609289 -0.04415485
0000c0 07 ce ea bc 12 4e 3c 3d 4c 7c 07 3d e1 fb 0b bd
       -0.028662695 0.04597289 0.033077523 -0.034175757
0000d0 6a 9d 26 bb f2 a7 b0 bb 08 b9 87 bc 65 c2 d9 3d
       -0.0025423416 -0.0053911144 -0.016567722 0.10632781
0000e0 86 d8 af bc b2 b6 b0 bc e2 a3 18 3d b2 6f 15 3d
       -0.021465551 -0.02157149 0.037265666 0.036483474
0000f0 37 52 57 bc 3f d6 35 3e 2c 04 aa 3c 06 af 93 bd
       -0.01314216 0.1775751 0.020753942 -0.072111174
000100 c2 c4 71 bd 55 c1 7a 3f 33 98 37 be 20 aa 17 3e
       -0.059025533 0.9795125 -0.17929153 0.14810991
000110 bf 46 8c 3e 18 71 44 3d 1f 14 68 be 6d db 06 3e
       0.27397725 0.047959417 -0.22663926 0.13169642
000120 f0 77 a7 bd 01 7f 91 3c 4f 9b 03 be 2d d3 38 bc
       -0.08177173 0.017760755 -0.12852214 -0.011280817
000130 16 c3 78 bd 8c f2 e6 3c ec 59 32 3c 59 99 dc 3d
       -0.060732923 0.028191827 0.010885697 0.10771436
000140 d0 73 e5 bd ce 34 95 be cc 0b b5 bc a8 ba 5f bc
       -0.1120373 -0.2914185 -0.022100352 -0.013655342
000150 72 f1 b3 3c 8e 34 62 3c d0 be 38 bd 8c ab a3 3d
       0.021965716 0.013806475 -0.045103848 0.07991704
000160 c3 59 c6 bc 17 a3 12 bc 94 8d 9d bc 0a 09 9a bd
       -0.024212724 -0.008950016 -0.019232549 -0.07521255
000170 86 bd 7a 3d fe df 99 bd 2a e4 15 3d bc d1 c8 bc
       0.0612159 -0.07513426 0.036594547 -0.024514072
000180 95 11 a7 3d 26 3b 22 3d 8a d5 34 bf ab de d2 bc
       0.081576504 0.03960719 -0.70638335 -0.025740942
000190 b3 54 84 3e 63 2d 5f 3e 4b a0 9d bd 6d da e2 3d
       0.2584587 0.21794657 -0.07696589 0.11076818
0001a0 b3 1e fc bc cb c2 a0 3e ad 45 a0 3d b5 5c 76 3e
       -0.030776357 0.31398615 0.078257896 0.24058802
0001b0 c8 d6 8b 3c 4f c2 c9 3d 7b 9f 04 3d 75 4b c6 3d
       0.01707019 0.098515145 0.032378655 0.09682361
0001c0 bb a1 22 3d b2 e2 e5 3c 18 55 0b 3e 81 26 bb bd
       0.03970502 0.028062198 0.1360668 -0.091382034
0001d0 21 e0 ae 3c 1c c6 95 3d 08 fb 8e bc 31 c1 d4 bc
       0.021347107 0.07313177 -0.017453685 -0.025971027
0001e0 2e 22 2b 3d b0 ba ed bd 0f ef 6b bd ca fc fe 3c
       0.041780643 -0.116078734 -0.05760103 0.031126399
0001f0 2a 29 c6 3d e1 d2 b6 3d f7 a7 24 bd 32 3f ae bd
       0.0967582 0.08926941 -0.040199246 -0.08508147
000200 e5 2b 24 bd 13 04 93 bc e5 88 9a bd b3 11 20 3f
       -0.040080924 -0.017946279 -0.07545642 0.62527007
000210 be ae 93 be c5 1a a6 3e 4e c7 a7 ba 7b 0b db 3b
       -0.28844255 0.324423 -0.0012800486 0.006684718
000220 10 18 95 bd b6 f8 14 3d ce f4 cd 3d c8 d6 2c 3c
       -0.0727998 0.03637 0.100564584 0.010549255
000230 8f ca 71 be 60 94 a0 bd 85 c0 0b 3b 30 32 8e bc
       -0.23612426 -0.078408 0.0021324467 -0.017357916
000240 52 d0 4c 3d 84 ab 6f 3e d8 37 c9 be 4c 25 59 bd
       0.050003357 0.23405272 -0.39300418 -0.053014085
000250 3d 29 1e 3d 83 91 25 bd 4a 07 a5 bc 16 c5 81 3c
       0.038613547 -0.040421974 -0.020145077 0.015841048
000260 8a 34 9f bb 58 7a 28 bd 5e 6f 84 bb ce 21 1d bd
       -0.004858558 -0.0411323 -0.0040415963 -0.038362317
000270 de b9 8a bd 43 0a 23 bd 7c 2c bc bd 9b bf 97 3d
       -0.067737326 -0.03980471 -0.09188172 0.07409593
000280 17 f3 59 3d 04 78 64 bd 50 63 8e 3c 40 a6 6f 3c
       0.053210344 -0.05577852 0.01738134 0.014627039
000290 c4 bc 97 be 86 7b 7d bd 61 0a eb be b4 92 cb 3b
       -0.29636204 -0.06188538 -0.45906356 0.0062125567
0002a0 36 83 80 3d 45 f4 e6 3c c3 2b ae bd a8 b7 c0 bd
       0.062750265 0.028192649 -0.08504441 -0.0941003
0002b0 77 a0 87 bc a1 d8 52 be ea b7 4f bd f7 10 1f bc
       -0.016556008 -0.2059045 -0.050712503 -0.009708635
0002c0 ba 11 f7 bc fb a0 66 3d 9c f0 26 3d 29 74 e7 3e
       -0.03015982 0.056305867 0.040756807 0.4520581
0002d0 c6 2c 4c 3e cd 2e 40 3d bf ec 18 3d 33 7b b8 bb
       0.19938955 0.046919633 0.037335154 -0.005629921
0002e0 d0 f7 c8 bc ee de 5c 3c d8 aa 2c 3d 22 97 fa bb
       -0.024532229 0.013480885 0.042155117 -0.007647411
0002f0 b3 0f 38 3d 07 9d 90 3d d1 98 5f bc 2a ad 2e 3b
       0.044936847 0.070612006 -0.013647274 0.0026653507
000300 7d 6c 8b 3d 83 3e 24 be 84 98 9f 3c c9 a5 1e 3d
       0.06807802 -0.16039471 0.019481905 0.038732324
000310 46 0b 42 3d 25 8e a4 3d 1b 78 67 be 9c f9 05 bf
       0.047374032 0.080349244 -0.2260441 -0.52334
000320 fd ac aa bd 7c b5 31 3e 35 74 a9 3c f2 75 da 3d
       -0.08333776 0.17354387 0.020685295 0.106670275
000330 88 72 05 bd 3c 10 a7 3c 9e f4 85 be fa f6 51 3d
       -0.03257993 0.020393483 -0.2616319 0.051260926
000340 16 df 2a be 55 25 16 3d 06 4c 78 bd 39 9a 80 3d
       -0.16686663 0.036656696 -0.060619377 0.06279416
000350 b6 7f 81 3e ff 86 28 bd 73 9c 0c be a4 ad a6 bd
       0.25292748 -0.041144367 -0.13731556 -0.08138588
000360 81 3a e3 3d d2 5d 00 3d a3 b8 e2 3d ac c2 15 3d
       0.11095143 0.031339474 0.11070373 0.036562607
000370 d0 7b 06 3e 6c 9f b8 bc fa fd aa bb 90 67 29 3d
       0.13133168 -0.022536956 -0.0052182646 0.04135853
000380 d6 0a 8c 3d ef 0b af bd 85 d3 ac 3d 24 38 00 bd
       0.06838004 -0.08547198 0.08438782 -0.03130354
000390 a9 13 41 3b d4 b5 ae bc 74 49 b6 be 29 9f 51 bd
       0.0029461181 -0.021326937 -0.35602915 -0.051177178
0003a0 35 b1 35 3e 21 f1 f3 bd b6 1e e2 3d 39 4e ca 3d
       0.1774338 -0.11911226 0.11041014 0.09878201
0003b0 a6 dd aa bd 37 77 f4 3d bf d4 fc bd 7f 55 4f 3e
       -0.08343057 0.11936801 -0.123452656 0.20247458
0003c0 56 3f 24 be e4 a6 fa bd 11 f8 c8 3d b3 47 23 be
       -0.16039786 -0.12238863 0.0981294 -0.1594532
0003d0 3a 8a 1b be d2 98 5e be 1e 0c 15 3d 46 80 0e 3d
       -0.15189448 -0.21737984 0.03638851 0.0347903
0003e0 e0 29 58 bd 0a b9 58 bb 65 9b 7d 3d 5a b5 95 bd
       -0.05277431 -0.0033069276 0.061915774 -0.07309981
0003f0 c0 49 fd 3b cf e0 b6 bd d2 84 91 bd 15 a7 8d bd
       0.007729739 -0.089295976 -0.071054116 -0.06916634

fc1.bias f4 [128]
000000 c8 2b aa bd 99 d2 7a bc bd 21 0c be e0 5f 62 3b
       -0.08309132 -0.015308999 -0.13684745 0.003454201
000010 18 48 22 be aa d9 0e be f2 21 bf 3d 85 c8 45 bd
       -0.15847814 -0.1395022 0.093326464 -0.048286933
000020 c7 71 95 bd f9 e5 f6 bc 21 a4 2c be 8a fc 23 3e
       -0.07297092 -0.030138956 -0.16859485 0.16014305
000030 b6 34 ab bb 86 60 cd bc ec 59 99 bd b2 40 b5 3d
       -0.0052247895 -0.02507044 -0.07487854 0.0885023
000040 21 d9 0c be 78 fc 87 3d 14 61 ff bd 91 65 8b bd
       -0.13754703 0.066399515 -0.12469688 -0.06806482
000050 8a cc de bd ef 89 df bd 07 8b be bc 42 aa 00 be
       -0.108788565 -0.109149806 -0.023259653 -0.12564948
000060 7a 43 ef bd a3 47 2d be 29 13 3e 3d 96 bb 08 be
       -0.11682792 -0.16921858 0.04640499 -0.13352808
000070 9d b5 a8 bc 96 40 2d bd 60 b8 10 be 37 36 ee bd
       -0.020594412 -0.042297922 -0.14132833 -0.116314344
000080 77 f9 79 bc 01 3d 02 3e dd 96 3d bd 6a 74 1b 3e
       -0.015257231 0.12718584 -0.046286453 0.15181127
000090 5d cd 83 3d 7e 56 04 be 52 04 57 3d 36 59 2a be
       0.06435654 -0.12923619 0.052494355 -0.16635594
0000a0 6f d7 cb bd 38 0d 2c 3e 3e b4 2d 3e 5d 7b ca bd
       -0.099532 0.16801918 0.16963288 -0.09886811
0000b0 38 40 ad 3c 69 79 2f be 3e f5 c1 bd 01 a3 f3 3c
       0.021148786 -0.17136158 -0.09470604 0.029740812
0000c0 ea 9e 24 be 89 0e 76 bd a4 0a a8 bd ad 7d 05 be
       -0.16076246 -0.060072456 -0.082051545 -0.13036223
0000d0 a9 bc bd 3d fe 8a e8 bd c6 64 1c 3e f1 da 04 3d
       0.092645 -0.11354636 0.15272817 0.03243536
0000e0 83 f6 6b 3d 74 53 00 be 9f dd 19 3c 4d 01 24 3e
       0.05760814 -0.12531835 0.0093912175 0.16016121
0000f0 29 17 b9 bd 84 7b 8b bd 88 fb 89 bd bd 8d 15 bd
       -0.090376206 -0.06810668 -0.06737429 -0.036512125
000100 33 fc d3 3d 77 ac b5 3d 83 b5 7b bd ec 39 f7 3d
       0.103508376 0.08870786 -0.0614524 0.120715946
000110 12 4a 24 be 57 fc 56 bd 1e 27 e0 bc d8 cd f4 bb
       -0.1604388 -0.052486744 -0.027362403 -0.0074708275
000120 68 8e 36 bc 67 49 77 3d 1d e4 6d 3d 69 5a 19 be
       -0.011142351 0.060372736 0.058078874 -0.14975895
000130 f0 78 93 3d 7b 13 8f 3c 47 6e e5 3d 87 dd bd bc
       0.07200801 0.017465344 0.11202674 -0.023176922
000140 27 95 22 be bd 4f 4a 3d 38 f6 91 bd 5b ed e3 bd
       -0.1587721 0.04939245 -0.071270406 -0.11129256
000150 81 28 01 bd f9 4e 0d 3e 1e d7 11 be ee fb 8e bd
       -0.03153277 0.13799657 -0.14242217 -0.069816455
000160 b2 84 29 be 5a 94 f0 bc 3c a9 3d 3d 26 5b b0 3d
       -0.16554525 -0.029367615 0.046303973 0.08611135
000170 eb 95 5d bd f9 54 02 3e 1a ed 9d 3d f6 ad cd 3d
       -0.05409805 0.12727727 0.07711239 0.10042946
000180 06 d6 b6 bd c0 27 f4 3d 5b 1b 36 bd 79 21 05 3e
       -0.089275405 0.11921644 -0.044459682 0.1300105
000190 f0 9a fe 3d 57 f6 1a be 42 b3 9d 3c a7 be a6 3c
       0.12431896 -0.15133034 0.019250516 0.020354582
0001a0 90 89 fe bc 95 a9 f8 3d 68 82 87 3d d3 8c 2f be
       -0.031071454 0.1214172 0.0661667 -0.17143564
0001b0 18 e2 f9 3d fb 7b 23 3d d0 83 5e 3d 4f 79 05 3d
       0.12201327 0.03991316 0.054324925 0.032586392
0001c0 c9 7c 1f 3c 08 9a b7 bd e7 a2 04 3d 15 d5 46 3b
       0.009734341 -0.08964926 0.03238192 0.003033941
0001d0 1c 87 8a 3d ea c3 21 bd 26 bc 05 3e 9a d6 98 bb
       0.06764051 -0.03949348 0.13060054 -0.0046642544
0001e0 cf 60 f5 bc 0c 04 80 bd af 20 1f 3e 9c 8f bd bb
       -0.029953388 -0.06250772 0.15539812 -0.005784942
0001f0 a6 9e 87 bd 98 73 9c bd e3 7b 29 3e dd 05 1e be
       -0.06622057 -0.07639235 0.16551165 -0.15431924

fc2.weight f4 [256, 128]
000000 87 a6 23 3e 87 a6 1d 3d df 7b ed 3d 9c 7d f0 ba
       0.15981494 0.03848889 0.11595892 -0.0018347981
000010 c8 d0 06 3e 7b ef e4 be 9b 10 06 be e1 85 c2 3d
       0.13165581 -0.4471396 -0.13092272 0.094981916
000020 ca 95 13 3e 64 ff 7a 3e f9 22 e9 bd e4 51 de be
       0.14412609 0.24511486 -0.11383624 -0.43421853
000030 89 3d 1b be 21 21 06 bf 05 07 42 3c 05 4e e8 be
       -0.15160193 -0.523943 0.011842494 -0.45372024
000040 c3 82 dc bc a4 ea 1b be 57 37 3d 3d 46 6a 84 bf
       -0.02691782 -0.15226227 0.046195354 -1.0344932
000050 67 44 77 3e 5c a0 38 be a6 a0 a4 bc 68 c0 73 be
       0.24147187 -0.18029922 -0.020096134 -0.23803866
000060 c9 9d 31 bd 79 45 42 bd 45 01 b2 be a9 20 4c 3e
       -0.043363366 -0.047429536 -0.34766594 0.19934334
000070 eb 94 d3 bd bb e9 63 bb cf c6 87 3e a7 cd 67 3e
       -0.10331138 -0.0034776765 0.26518866 0.22637044
000080 24 4a 3d 3e fc 99 85 be d3 3b d8 3d 8d 5d 00 3f
       0.18485314 -0.26094043 0.105582856 0.5014275
000090 19 9a 21 bb 43 00 8c 3c 73 7c a3 be 8b 1c b9 3e
       -0.00246585 0.017089969 -0.31930885 0.3615459
0000a0 95 a6 5b be 8b 81 00 be b3 81 4c bb 21 6f 0f be
       -0.21450265 -0.12549417 -0.0031205236 -0.14007236
0000b0 3a a5 ab 3d a2 80 64 be 61 ec 44 3e eb e7 40 3e
       0.08381124 -0.22314695 0.19230796 0.1883847
0000c0 d7 ad 47 3e 16 f0 b7 bd 1b 6e f4 bc 82 90 ee 3d
       0.19499908 -0.0898134 -0.029837659 0.116486564
0000d0 dc 7f c7 bd 8f 2f c2 bd 67 c5 99 bd a0 ee 02 3d
       -0.09741184 -0.09481727 -0.07508355 0.03196585
0000e0 73 f1 62 3b 6a 10 5e 3e ea 35 3f 3e de d2 33 be
       0.0034628778 0.21685949 0.1867291 -0.17560908
0000f0 e4 d8 12 3d 17 6f 9d be 55 db 33 be f3 17 07 3e
       0.035851374 -0.30748817 -0.17564137 0.1319273
000100 f6 12 35 be 95 91 04 3e d7 be 74 be ab c1 a4 bd
       -0.17683014 0.1294616 -0.23900925 -0.08044752
000110 30 54 2e be cf 3d 02 3e b9 21 d0 3d 21 70 09 be
       -0.17024302 0.1271889 0.10162682 -0.1342168
000120 11 4a 31 3e 46 e7 40 3e 0f 33 06 be 72 92 d0 3e
       0.1731341 0.18838224 -0.13105415 0.4073673
000130 8f e1 d3 be 6c d0 53 bd 03 0f 36 be 01 13 a9 3e
       -0.41383025 -0.05171244 -0.17779164 0.3302231
000140 69 5b a1 3a 24 9b 3e bd 4b 1b 8e bc 71 fb e8 3d
       0.0012310568 -0.046534672 -0.017346999 0.11376084
000150 25 c6 76 3e ff ba 10 be 5f fd ed 3e e9 b6 22 be
       0.24099024 -0.14133833 0.4648237 -0.15890087
000160 e2 73 0a be 6b 65 15 be ac e5 ab 3e 2f 09 f6 3e
       -0.13520768 -0.14589469 0.33573663 0.48053882
000170 17 0a ee bc d2 2a 89 bd d3 6a a6 bc 28 eb 9d be
       -0.029057546 -0.066976205 -0.02031461 -0.30843472
000180 e8 0c ac be 32 f3 8f 3e fb c7 4e be 79 b0 a9 be
       -0.33603597 0.2811523 -0.20193474 -0.3314245
000190 de 3c 89 bd 1c 13 df be dc a1 95 3d 58 d8 c6 3d
       -0.067010626 -0.43569267 0.07306263 0.09709233
0001a0 eb 88 7a be d2 ef c2 be 1a d0 cc be f2 fe b8 be
       -0.24466293 -0.38073593 -0.4000252 -0.36132008
0001b0 24 42 5c be 74 6a 94 3e 20 77 34 3d 47 0b 1e be
       -0.21509606 0.28987467 0.04405892 -0.1543399
0001c0 c4 57 73 3e 6f ed 47 3e a9 fd af 3c 3c 10 94 be
       0.23763949 0.19524167 0.02148326 -0.28918636
0001d0 73 44 81 3e 34 e5 ad be e3 4e 4d be 9b ba 31 bd
       0.25247535 -0.3396393 -0.20049624 -0.04339085
0001e0 b1 eb b1 be d3 8c 0d 3f 2e 2f 8e be 83 01 8d be
       -0.3475013 0.55293006 -0.2777037 -0.27540216
0001f0 ce cc 21 bd 48 ac be 3d 7e dc d0 bc ad 0e d8 bd
       -0.039501958 0.09310204 -0.025495764 -0.10549674
000200 ed 62 11 3e 32 a7 be bd 60 a3 ed bd 67 0c 0e 3f
       0.14197893 -0.09309234 -0.11603427 0.55487674
000210 26 7e a5 be 53 09 43 be f6 2e d3 be 1d d6 0b be
       -0.32322806 -0.19046526 -0.41246766 -0.13655896
000220 11 f8 ac 3d ae a6 c7 bc 17 72 18 be 71 1e c5 bd
       0.084457524 -0.024371471 -0.14887272 -0.09624947
000230 fe 32 90 be ca 48 c7 3d 16 d4 bc 3e 8b 78 aa 3d
       -0.28163904 0.0973068 0.3688056 0.08323773
000240 a7 94 fa bd 95 fb dd 3e 06 7e 96 be 1d a8 ba 3d
       -0.122353844 0.43356004 -0.29393023 0.09114096
000250 c9 f4 e4 3d fb c4 46 3b cf eb b9 bd 02 c9 82 bd
       0.111795016 0.0030329812 -0.0907818 -0.063859954
000260 a8 ad 86 be d3 72 3f bd ec dd e5 3e 4f 48 26 3e
       -0.26304364 -0.046740364 0.44895875 0.16238521
000270 5f d0 cf be eb 88 51 be 4c e1 72 bd 7b 3a 65 3d
       -0.40588662 -0.20462386 -0.05929689 0.055963974
000280 ec 9c 87 be 44 bb d4 3d 51 8f 29 3d 1c 95 80 be
       -0.2648691 0.103872806 0.041396443 -0.2511376
000290 29 e6 11 bd 0c af f9 3e d6 e6 3a 3e 4c dc 75 39
       -0.03561989 0.48766363 0.1825212 0.00023447088
0002a0 50 02 4d be d9 af 04 be 6d 63 bf bc 40 6e 6d 3e
       -0.20020413 -0.12957706 -0.02336284 0.23186588
0002b0 97 0c a8 3d 81 38 e8 3c 95 9c 48 3d 6f 73 5f 3e
       0.08205526 0.028347256 0.048977453 0.21821378
0002c0 3d 95 be be 07 38 bf 3e 0b 53 23 bc f4 59 82 bc
       -0.37223235 0.37347433 -0.009968529 -0.015912034
0002d0 a8 ff 1a be 0f dc 0d be c1 2f a1 be 3d d2 c5 be
       -0.15136588 -0.13853477 -0.31481746 -0.38636962
0002e0 f4 47 dd be 30 20 25 be 43 8c 00 bf cb f4 13 be
       -0.43218958 -0.1612556 -0.5021402 -0.1444885
0002f0 5d 3e 95 be bd 49 55 be 8c 77 4f bf 55 cf 80 be
       -0.29149142 -0.2082891 -0.8104179 -0.25158182
000300 13 4b 6e 3d 26 48 ef 3d a9 99 48 3e 74 f3 80 3d
       0.058177065 0.11683683 0.19589867 0.06296435
000310 72 11 00 be 24 8a a5 be 0a ef c6 bd a6 cb 76 bd
       -0.12506655 -0.32331955 -0.09713562 -0.060252808
000320 9f 57 85 be 63 fb d9 bd 44 af 19 be 7e ff c0 be
       -0.26043412 -0.10643651 -0.15008265 -0.37694925
000330 be 5d a0 be 9f 03 8b 3d b9 a4 63 be 69 55 14 bf
       -0.3132152 0.067878 -0.22230805 -0.57942826
000340 b4 36 01 bf b2 2c 69 be 23 5b b0 3e b3 e4 e3 bd
       -0.50474095 -0.22770956 0.34444532 -0.11127605
000350 e3 a5 71 3d 69 69 40 bd 15 92 04 3f 06 e1 9d bd
       0.058996093 -0.046975527 0.51785403 -0.077089354
000360 49 68 14 bf 23 f9 f0 bd 09 dd 8f 3e d2 38 bf 3e
       -0.57971627 -0.11766269 0.28098324 0.37348038
000370 a9 79 99 3e b8 7c d0 bd 59 d7 2c be ff 3c b1 be
       0.29975632 -0.10180038 -0.16879024 -0.3461685
000380 53 c3 28 3e 73 93 0c 3d 8c f5 9f bd 13 5b a6 3c
       0.1648076 0.034320306 -0.07810506 0.0203071
000390 f9 5a 33 3e c1 f1 d0 3e e8 95 6e be a6 ef 74 be
       0.17515172 0.40809444 -0.23299372 -0.23919544
0003a0 d8 4b ce 3c 7d 37 b8 3d 71 2d 8f 3b 81 a8 fe 3d
       0.02518265 0.089949585 0.0043694307 0.12434483
0003b0 76 dc f3 3d 42 72 94 3e 2d a9 23 be 5d 81 45 be
       0.11907284 0.28993422 -0.15982504 -0.1928763
0003c0 d4 31 da 3d a0 23 84 be 30 af f4 be 90 17 6e 3e
       0.10654035 -0.2580843 -0.47789907 0.23251176
0003d0 7c 0b 0e bf 53 ee 1e bd ca 8a ca 3d ae f5 8e be
       -0.55486274 -0.038801502 0.09889753 -0.27921814
0003e0 c2 cd 0c bf d3 bf b3 be b0 76 98 be a5 94 cb be
       -0.5500146 -0.35107288 -0.2977805 -0.39761844
0003f0 6f a3 7a bd d6 93 d6 3e 34 7f 0a 3e 5e c7 51 3e
       -0.06119102 0.41909665 0.13525087 0.20486209

fc2.bias f4 [256]
000000 8f 9b 03 bb 10 29 8a be fb 60 b7 bd cd 06 04 be
       -0.0020081734 -0.26984453 -0.089540444 -0.1289322
000010 0d b3 ad bd bd 7b 12 be 68 87 08 be 1d ee 81 be
       -0.08481417 -0.14305015 -0.13332903 -0.2537698
000020 d9 8d 45 3d 44 58 7b 3e 35 1f 83 be f9 be 62 be
       0.04823098 0.2454539 -0.25609747 -0.22143163
000030 4b 67 c4 be 1d 3f 75 be ab b9 39 3e 0a e9 4b be
       -0.38360056 -0.23949857 0.18137233 -0.19913116
000040 fe b9 ad be 43 d8 f4 bd d3 04 91 bd 06 12 8d be
       -0.33930963 -0.11955311 -0.07080998 -0.27552813
000050 62 b2 dc bc f2 38 e0 bd 96 ce b5 be 38 da 41 be
       -0.026940528 -0.109483615 -0.35509175 -0.189309
000060 fd 5d ec 3c d5 46 f5 be e1 7e 21 3e 31 0e c4 3d
       0.02885341 -0.47905603 0.15771057 0.09573019
000070 7d 7f 46 3e 3a b0 ba bd b8 85 af be 40 e0 fb be
       0.1938457 -0.09115644 -0.34281707 -0.49194527
000080 b7 3e cc bd 69 17 cf bd af df 01 be e7 f4 e1 bd
       -0.099728994 -0.10111887 -0.12682985 -0.110330395
000090 f8 c2 66 3d 39 d9 94 be 22 38 29 3e 7d 78 1e 3e
       0.05633828 -0.29071978 0.16525319 0.1547565
0000a0 8a 50 1f bd c7 fd 29 be 18 ad b5 bd 87 ce 79 be
       -0.038895167 -0.16600715 -0.08870906 -0.2439519
0000b0 ca 4b c1 be a6 8b 31 be 6c e1 8b 3c 92 5b 81 be
       -0.37753135 -0.17338428 0.017075263 -0.25265175
0000c0 07 e1 ed be 6d 3a 10 3e 19 d4 45 be fa db 43 3d
       -0.46460745 0.14084788 -0.1931919 0.047817208
0000d0 c0 c4 27 be a4 2c 45 3d 26 f4 ef be 90 24 38 be
       -0.16383648 0.048138276 -0.46865958 -0.17982697
0000e0 71 cd d5 bd ce 4f be be ea 0a 55 3e 37 3d 72 be
       -0.104395755 -0.3717026 0.20804945 -0.23656164
0000f0 a3 8d a5 bd a9 82 65 be 75 e2 c1 be c4 fd a1 be
       -0.08083656 -0.22413124 -0.37868086 -0.3163892
000100 90 92 0e 3d 7b c2 5b be cb cf 47 bc 12 a6 0a bd
       0.03480774 -0.21460907 -0.012195538 -0.033849783
000110 bc 85 66 3e c8 8d 33 be 70 c5 1c 3e b8 73 2c 3e
       0.22511953 -0.17534554 0.15309691 0.16841018
000120 29 04 c1 bd a7 3e 52 be b0 2c 25 be 95 5e 74 be
       -0.094246216 -0.20531712 -0.16130328 -0.23864205
000130 d7 58 29 be e7 c9 76 be 70 f7 0e bf 93 4a 08 3e
       -0.16537796 -0.24100457 -0.5584631 0.13309698
000140 9a 15 d7 bd 04 c4 b7 3c 21 84 a1 bb 2a db 95 be
       -0.10502167 0.022432335 -0.004929081 -0.2926877
000150 5c f9 8a be 8f d0 e7 bd 9f 99 df be a0 e5 d5 bb
       -0.2714337 -0.11319076 -0.4367189 -0.0065276176
000160 c8 93 32 be 63 87 88 be 5d 62 b7 3e 03 c8 03 be
       -0.17439187 -0.26665792 0.35817233 -0.12869267
000170 75 89 e4 bd 33 ed 8b be 57 e3 b2 be e9 c9 07 be
       -0.1115903 -0.27329406 -0.34939072 -0.13260616
000180 d7 d8 5c be d3 be 81 be 0c 65 c7 bd 4d f3 86 be
       -0.21567093 -0.253409 -0.0973607 -0.263575
000190 84 04 d1 be 07 33 da bd b8 55 04 be 48 4b be be
       -0.40823758 -0.10654264 -0.12923324 -0.3716681
0001a0 a5 d4 9d be d2 f7 97 3a 3c f2 50 be 4d 35 02 be
       -0.30826297 0.0011594242 -0.20404905 -0.12715645
0001b0 ff 6b 6a be 61 a5 67 be 68 90 ca bd 23 6f 0d be
       -0.2289276 -0.22621681 -0.098908246 -0.13811927
0001c0 fd 16 55 bd 4f 96 73 bd 27 8e fb bd ae a2 c3 3d
       -0.052023876 -0.059469517 -0.12282973 0.09552513
0001d0 46 e1 95 bd a4 8b b0 bd 30 d3 9d be 6b f4 ce bb
       -0.07318358 -0.08620384 -0.30825186 -0.006315758
0001e0 85 df 7c be 4f 11 86 be ee 0e bb bc 0f 52 ab be
       -0.24694641 -0.2618508 -0.022834267 -0.33461043
0001f0 a5 5c 8a be a7 ef 9f be 83 78 2c be 83 b3 cc bd
       -0.27023807 -0.31237528 -0.16842847 -0.09995177
000200 e7 ac 86 be 91 e9 9f be f7 a3 81 bd e2 03 91 bc
       -0.2630379 -0.31232885 -0.06330102 -0.017702047
000210 23 ed b0 be 3d 0d 35 3e 6c d5 47 3e 1f 21 15 be
       -0.3455592 0.17680831 0.19515008 -0.14563416
000220 04 7d 02 be f5 d5 9a be e9 fe 03 bf 87 fe 2b be
       -0.12743002 -0.3024136 -0.5156084 -0.16796313
000230 b2 20 19 3d 85 4a 1d bd f8 f3 95 bd d1 b8 35 be
       0.037384696 -0.038401145 -0.07321924 -0.17746283
000240 79 85 ca be 45 45 02 be 6f 69 38 be 3a fd 70 be
       -0.39554957 -0.12721737 -0.1800897 -0.23534098
000250 9e 37 2c 3e 54 c1 d0 3d b5 f8 9e 3b e1 1d 2c 3e
       0.16818091 0.101931244 0.0048514255 0.16808273
000260 6b f9 56 bd 4d c7 d5 bd 98 10 8d be d7 97 6e be
       -0.052483957 -0.10438404 -0.27551723 -0.2330011
000270 95 67 1f be c6 3b 87 be d6 fe 21 be 7c e1 72 be
       -0.15566857 -0.2641279 -0.15819868 -0.23718828
000280 f3 50 8d be be 2f 29 be 1e 16 a8 bd 5a 9d 79 be
       -0.27600822 -0.16522118 -0.082073435 -0.24376431
000290 57 07 fe bd 2d d0 1e be 88 02 b7 bd 25 86 66 be
       -0.12403744 -0.155091 -0.0893603 -0.2251211
0002a0 9e a3 31 be 6d bd 2d be 51 fb 60 be 19 ce ab 3c
       -0.17347571 -0.16966791 -0.2197087 0.020972298
0002b0 55 ab 05 be 49 b6 f3 3c 73 ff 2d be bc 70 c0 be
       -0.13053639 0.029750006 -0.16991977 -0.3758601
0002c0 99 a5 90 bd 57 02 9f be 9b 90 28 bd 1e d1 9f bd
       -0.07062835 -0.31056473 -0.04115353 -0.07803558
0002d0 68 55 50 be 8c 1d 67 3c fa aa 3d be 79 70 46 be
       -0.2034508 0.014106166 -0.18522254 -0.19378842
0002e0 37 f2 6c 3e 24 4d ac be 11 31 21 3e 42 28 3c be
       0.23139273 -0.33652604 0.15741374 -0.18374732
0002f0 fe 8c d0 be 17 9e 16 be 3e 03 cf 3d 13 8d 28 3b
       -0.40732569 -0.14708744 0.1010804 0.0025718852
000300 0b bd de bd df 93 b1 be d4 19 ac bd 85 d5 29 be
       -0.10875901 -0.3468313 -0.08403364 -0.16585357
000310 19 39 2e 3e 5d 3a cf bd 8c 18 1c 3e 29 62 11 3d
       0.17013969 -0.10118554 0.15243739 0.035494003
000320 a2 b4 d7 3d bb dd 59 3c 9e b2 1b bc 44 60 33 be
       0.105325 0.013297494 -0.009503035 -0.17517191
000330 e2 19 a5 be cd 11 2d bd 7c 2e 71 be f9 b1 d8 3e
       -0.3224631 -0.042253304 -0.23552889 0.42323282
000340 81 35 bc 3d 28 21 96 be cb 16 82 be 12 4c 81 be
       0.091898926 -0.2932217 -0.25408015 -0.2525335
000350 2a c5 af be ca af 6d 3d a7 a6 7c be 99 58 ff 3d
       -0.34330112 0.058028974 -0.24672948 0.124680705
000360 f1 ed 08 3e f5 dc a0 be 0f 0d 77 be 5f 48 91 be
       0.13372017 -0.31418577 -0.24126075 -0.28375527
000370 0c 23 85 be 66 c8 f2 bd bf dc 74 be c7 3c c5 be
       -0.260033 -0.11854629 -0.23912333 -0.38522932
000380 a6 dc 58 3d 59 72 9c bd bd 16 a4 be c0 3e 5a be
       0.0529448 -0.076389976 -0.32048598 -0.21313
000390 bf 5d a5 bd bf 83 38 3e f3 ba 88 be fc 3c 0e bf
       -0.08074521 0.18019007 -0.2670513 -0.55561805
0003a0 c6 9a aa bd e3 f9 2a be e4 55 86 bd ab 5a 20 be
       -0.08330302 -0.16696887 -0.06559351 -0.15659587
0003b0 bb 66 bf be 72 a6 51 be db 47 1b be e7 d1 37 bd
       -0.37383065 -0.2047365 -0.1516413 -0.044877913
0003c0 d6 78 0d 3e 3f 4e 63 bd 3c 31 e3 be d7 5e d5 be
       0.13815627 -0.055494543 -0.443735 -0.4167392
0003d0 20 d6 10 3e 8c 09 6e be 72 26 a0 3d d8 48 09 be
       0.14144182 -0.2324583 0.07819833 -0.13406694
0003e0 13 46 f4 bd 7f 9c e0 bc 5e 19 14 bd a1 1c f1 bd
       -0.11927428 -0.027418373 -0.036157005 -0.11773039
0003f0 2e ee 84 bd cf 2e 10 bf 47 b7 1b be c4 f1 01 be
       -0.06490742 -0.56321424 -0.15206634 -0.12689883

fc3.weight f4 [4, 256]
000000 d4 97 c3 bf 23 2d 59 3d 3c a9 2c be 1f b1 ff be
       -1.5280709 0.05302156 -0.16861433 -0.4993982
000010 af 5f 33 3e 63 ae de be 39 a5 b0 be 9e 4d cc 3f
       0.17516969 -0.43492422 -0.34501055 1.5961187
000020 d7 72 3b bf 02 88 12 bf b3 92 af be b8 a5 28 bf
       -0.73222107 -0.5723878 -0.3429161 -0.65877867
000030 bc 13 08 bc 85 2d 72 3f 3b c9 41 be 94 7b 07 bf
       -0.008305486 0.9460071 -0.1892442 -0.5292294
000040 33 9d 13 3f f2 af 8c 3f 9a 24 c5 3d 00 41 a5 3e
       0.5766174 1.0991194 0.09626122 0.32276154
000050 af ab d1 be 2d 50 7f 3f 60 2e 83 be 2b 8c 4c 3f
       -0.40951297 0.99731714 -0.2562132 0.7990138
000060 44 b4 9f be f4 b1 85 3f 2f 15 8c be 0f ed 1e bf
       -0.3119222 1.0444932 -0.27359912 -0.6208047
000070 2f f3 79 3e 9d 76 2f 3f 7c f8 f6 bd b7 26 e2 bf
       0.24409173 0.68540365 -0.120591134 -1.7668065
000080 f7 0d a9 3e 72 eb 3b 3f 38 9f 13 bf e2 e0 8c be
       0.33018467 0.73406136 -0.57664824 -0.27515322
000090 d8 1f 7a be e4 fd f5 3e 5d 8b e8 3e e5 7b 79 be
       -0.2442621 0.48045266 0.45418826 -0.24363668
0000a0 0d 1a c5 3e 83 3f 80 3f bf 50 48 bf 75 1c 99 bd
       0.38496438 1.0019382 -0.7824821 -0.07476131
0000b0 78 4f db 3e 28 7f 7e bd 84 7e 3c 3f 9c 69 93 3f
       0.42834067 -0.062132984 0.7363055 1.1516604
0000c0 12 a4 f0 bd 6e 1a e8 be a5 5d 8f 3e e3 01 eb be
       -0.11750044 -0.45332664 0.28001133 -0.45899877
0000d0 24 ee 91 bf d1 17 7f 3e fb 79 d5 3e 1a 24 7f 3f
       -1.14008 0.24911429 0.41694626 0.9966446
0000e0 b4 7a 08 3f be fa 5b bf 31 6d 0f bf 29 2c 80 be
       0.5331223 -0.8592948 -0.5602599 -0.25033692
0000f0 6d 28 89 3e f1 74 13 bf f6 42 9c 3e 81 4d 68 3f
       0.26788655 -0.57600313 0.30519837 0.9074326
000100 bb 56 98 3e f0 ff 24 3f d0 85 21 3f bd dc cb be
       0.2975367 0.6445303 0.63094807 -0.39816847
000110 56 31 e6 3e 5a 1b 61 3f 0d cc ba 3d 4e 8b c3 be
       0.44959515 0.8793236 0.09120951 -0.3819222
000120 2a c2 dc 3e 8b ea 81 3e 60 35 77 bf c0 b4 84 be
       0.43116885 0.25374255 -0.9656582 -0.2591915
000130 4f b2 1e 3f 59 f2 33 3f 03 74 94 3f 18 ce c7 be
       0.6199083 0.7029167 1.1597904 -0.39024425
000140 83 5a 1a bf ba c5 47 bf ee 0f 95 3d 26 61 23 3f
       -0.6029436 -0.7803608 0.07278429 0.6382011
000150 d8 5e b4 be 17 2f bd 3e 10 de 6d bf 97 ed 97 3e
       -0.3522861 0.3694999 -0.92916965 0.29673454
000160 99 3f 17 3f 17 26 37 3f 1d 4f 21 3f 6e 2c 2f bf
       0.5908142 0.71542495 0.6301134 -0.6842717
000170 2f d3 4e bf 6c f3 93 bf df d1 a2 3f 39 07 7d bf
       -0.8079099 -1.1558661 1.2720298 -0.98839146
000180 fb 1f 0a c0 03 b3 32 bf 98 d1 1b 3d 31 35 cc be
       -2.158202 -0.698044 0.03804168 -0.39884332
000190 c4 33 9d bf ef 55 90 3f 56 60 fb 3e 62 a5 05 3f
       -1.2281423 1.1276225 0.49096936 0.5220548
0001a0 58 9d fd 3e 64 19 42 3f e0 12 91 3e f6 0c fd be
       0.49534106 0.75819993 0.28334713 -0.4942395
0001b0 50 0a 4e 3f cf 0d 12 bf 7d 5a 3a 3f f8 56 1f 3c
       0.80484486 -0.5705232 0.72794324 0.009725325
0001c0 49 2c 85 3d 06 74 11 3e 32 15 82 bd 69 95 62 3e
       0.06502587 0.14204416 -0.06351699 0.22127308
0001d0 4a 1b 29 3f 1c 4f 3a 3e 2a aa 13 3f 92 70 02 3f
       0.66057265 0.1819424 0.57681525 0.5095302
0001e0 8c f9 e4 be 88 6c 0f 3e e5 2e e8 be dd a5 92 be
       -0.4472164 0.14006245 -0.45348278 -0.2864217
0001f0 66 f9 45 3f 52 68 00 bf ae a1 0c bf fb c1 84 be
       0.77333677 -0.5015918 -0.54934204 -0.25929245
000200 b8 54 e1 3c d3 a9 27 bf c9 39 19 bf 71 fd f6 be
       0.027506217 -0.65493506 -0.598538 -0.48240235
000210 63 3f 3b 3f 5b 74 ad be c8 b4 e5 3e 82 76 b5 bf
       0.73143595 -0.33877835 0.44864488 -1.4176791
000220 7e 07 e2 be c7 48 3e 3f 19 61 87 3b 7e 3c 02 bf
       -0.4414634 0.743298 0.004131448 -0.50873554
000230 ac 12 6e 3f 0b 6b de be 72 08 53 3e ae dd 55 bf
       0.9299724 -0.43441042 0.2060869 -0.8354138
000240 9f d0 c8 3e cc a4 ab bf 64 8f 84 bd 16 5c 62 3f
       0.39221665 -1.3409667 -0.06472662 0.8842176
000250 2c 45 a6 be 9e ab 67 bf a1 55 0f 3f 9e ed ff be
       -0.3247465 -0.9049624 0.55990034 -0.49985975
000260 ad 0a 28 bf 41 ba 3c bf 7b 93 ba bf d3 e6 2c bf
       -0.6564129 -0.737217 -1.4576257 -0.6753971
000270 71 85 d7 3e 43 53 11 bd bb c8 a3 3e d2 9e ec 3e
       0.42093995 -0.035479795 0.31989083 0.4621492
000280 3c ea 1e bf d1 0d 8b be 5b c9 58 3e 6e d4 9f 3f
       -0.62076163 -0.2715898 0.21170561 1.2486703
000290 01 1a bf be 59 00 2d 3e c5 ad 85 3f 40 10 05 bd
       -0.37324527 0.16894664 1.0443655 -0.0324862
0002a0 9f bd 6d be f4 cf 34 bf a1 f3 06 be 31 47 36 be
       -0.23216866 -0.7062981 -0.13178875 -0.17800595
0002b0 bc 5d e3 3e eb 3f 90 bd 31 a1 64 3e de c2 0c 3e
       0.4440745 -0.070434414 0.22327115 0.13746211
0002c0 aa e4 28 bf 22 85 d8 3e 33 51 ef 3e 70 ed 7e 3f
       -0.65973914 0.42289072 0.46741638 0.9958105
0002d0 8d ba 72 3e 45 31 2b 3f 6d 08 87 3f 03 df 00 3e
       0.23703976 0.66872054 1.0549446 0.12585072
0002e0 e7 5e df 3e 69 b9 f1 bf 5a be 7a 3f 34 49 33 be
       0.43627092 -1.8884708 0.97946703 -0.17508394
0002f0 e2 fd cb 3d 09 d1 8c 3e d2 f4 1e 3f e9 01 8c bf
       0.09960534 0.2750323 0.62092316 -1.0938083
000300 43 f4 49 bf 58 fb 1c 3f 11 88 4b bf fb f8 d4 be
       -0.7888834 0.6132102 -0.79504496 -0.41596207
000310 d4 41 0e bd 59 46 9f be 65 09 d0 bc 3e 86 1e 3f
       -0.034730747 -0.31108359 -0.025395105 0.6192359
000320 34 c0 dd 3d b1 d1 c0 be dc 21 36 3e e5 7e 00 3f
       0.108276755 -0.37659982 0.17786354 0.50193626
000330 4d 4e 00 bf 70 22 38 3f 34 b8 af be d0 7e 28 bf
       -0.5011948 0.7192755 -0.34320223 -0.658185
000340 1c 14 77 ba 58 08 d3 3e 35 5f 7a bd 10 98 eb 3e
       -0.0009425299 0.41217303 -0.061125953 0.46014452
000350 51 a9 45 be 14 7d f0 3e ef 99 8f 3f 6b 38 31 3f
       -0.1930287 0.46970427 1.1218852 0.6922671
000360 fc aa a3 be a3 ca 31 3f 5e a0 9b 3f 7c c0 39 bf
       -0.31966388 0.69449824 1.2158315 -0.7255933
000370 88 c7 11 3f 87 c8 b3 be df c2 77 be e0 ce 9b bd
       0.56945086 -0.35113928 -0.24195431 -0.07607818
000380 81 58 aa 3e 18 b6 bf bf a9 ea c5 be e2 da 30 bf
       0.33270648 -1.4977446 -0.38655594 -0.6908399
000390 d8 45 85 bf 99 82 8d bf d5 92 64 bd 3e 02 c9 3e
       -1.041194 -1.105548 -0.055804092 0.39259523
0003a0 11 74 c7 3e d4 34 a3 3e fc a9 8d 3e 60 b7 8e be
       0.3895574 0.31876242 0.2766875 -0.2787428
0003b0 95 b3 91 be c4 13 5d bf f2 cc 5e 3f 05 7e 27 3e
       -0.28457323 -0.86358285 0.8703147 0.16356666
0003c0 06 6c 19 bf 30 14 80 be 03 21 04 bf c8 a5 0d bf
       -0.59930456 -0.25015402 -0.5161287 -0.5533109
0003d0 40 db 07 bf ad 36 cb be 2e 13 77 3e cf e3 ac be
       -0.53068924 -0.39690152 0.2412841 -0.33767554
0003e0 1d c0 53 be 2e 48 d5 be 22 f5 82 3c 43 99 bc 3e
       -0.20678754 -0.4165663 0.015986029 0.3683568
0003f0 4a 85 89 bf f0 89 bd 3e ea 06 96 bf ff 7b 46 3f
       -1.0743802 0.370193 -1.172086 0.77532953

fc3.bias f4 [4]
000000 a9 65 e3 3c 77 d2 a5 3d 37 9c 25 bd 24 fd 94 bd
       0.027758436 0.080967836 -0.04043218 -0.07274845

batchnorm_1.weight f4 [128]
000000 20 7a af 3f ee a3 af 3f d6 dc c0 3f e1 99 9c 3f
       1.3709145 1.3721902 1.5067394 1.223446
000010 8d 33 a1 3f de dc b7 3f 84 f8 32 3f 01 8e 98 3f
       1.2593857 1.4364278 0.69910455 1.1918336
000020 a2 e0 ad 3f d1 cf 95 3f 91 3d 73 3f 32 98 a8 3f
       1.3584177 1.1704046 0.9501582 1.3171446
000030 aa 8e a2 3f cd 5d be 3f 5c 40 a2 3f 2b 04 9b 3f
       1.2699788 1.4872376 1.2675891 1.2110647
000040 9f c1 bf 3f 63 70 ca 3f 8a b2 a5 3f 15 cf 9c 3f
       1.4980963 1.5815548 1.2945111 1.2250696
000050 de 22 c8 3f d8 99 a7 3f 32 b7 a4 3f 84 84 cd 3f
       1.5635641 1.3093824 1.2868407 1.6056066
000060 f9 94 ad 3f 89 3c 9d 3f c0 3b a2 3f d7 da 8e 3f
       1.3561088 1.2284099 1.2674484 1.1160535
000070 27 9c b6 3f ef 57 bb 3f d4 e5 cb 3f 9d 39 ac 3f
       1.4266404 1.463621 1.5929513 1.3455082
000080 29 23 a6 3f e9 61 a3 3f 59 8a 9c 3f d7 02 9f 3f
       1.297948 1.2764255 1.222972 1.2422742
000090 2d 8d b3 3f 91 f0 d8 3f 7d be a2 3f 5e 60 99 3f
       1.4027458 1.6948415 1.2714382 1.1982534
0000a0 1b 81 86 3f 8c ab ab 3f 56 94 8b 3f 91 72 9c 3f
       1.050815 1.3411727 1.0904644 1.2222463
0000b0 69 44 25 3f 7b 4c a1 3f cd 98 ad 3f 39 5a b8 3f
       0.6455751 1.2601465 1.3562256 1.4402534
0000c0 9c 4b 98 3f 63 f8 b3 3f 6c 4b 88 3f ca 29 73 3f
       1.1898074 1.4060177 1.0648017 0.9498564
0000d0 ad 3f 91 3f b0 fc ae 3f 53 b2 89 3f 92 5f a9 3f
       1.1347557 1.3670864 1.0757545 1.3232291
0000e0 74 06 28 3f 75 90 8d 3f 92 f0 a3 3f 97 b2 83 3f
       0.65634847 1.105971 1.2807791 1.0288876
0000f0 47 05 b0 3f fd 71 9c 3f 22 47 c5 3f 25 2f 8b 3f
       1.375161 1.2222286 1.5412333 1.0873762
000100 e9 be ca 3f c1 a9 ab 3f bd 3c 9f 3f 41 24 ad 3f
       1.5839511 1.341118 1.2440411 1.3526689
000110 04 6d d0 3f f0 a8 95 3f df cc 93 3f ec 7a a0 3f
       1.6283269 1.1692181 1.1546897 1.2537513
000120 74 df cc 3f 6f 7f 9b 3f 6a 00 e3 3f 5d 56 96 3f
       1.6005692 1.2148265 1.7734501 1.1745106
000130 05 b2 d2 3f 0b b9 ab 3f 2b fa b3 3f 2b 2c 8a 3f
       1.6460577 1.3415846 1.406072 1.0794729
000140 84 9a 99 3f 86 66 93 3f 11 ce 9d 3f e5 ea 85 3f
       1.200028 1.1515663 1.2328511 1.0462309
000150 45 6d ba 3f 1b 6c ac 3f 46 9d 92 3f 00 ac ac 3f
       1.4564596 1.3470491 1.1454246 1.348999
000160 ab db a0 3f 00 d7 aa 3f 38 7f 98 3f 8c fa dc 3f
       1.2567037 1.3346863 1.1913824 1.7263961
000170 d4 a9 d2 3f 03 e7 a0 3f 4d da b2 3f c7 06 a6 3f
       1.6458077 1.2570499 1.397287 1.2970818
000180 dc 1b 99 3f dc e1 a5 3f 18 a2 a4 3f 76 35 ab 3f
       1.1961627 1.2959552 1.2861967 1.337569
000190 13 85 b0 3f f3 10 ae 3f d3 c6 aa 3f 9b a2 82 3f
       1.3790611 1.3598922 1.3341926 1.0205873
0001a0 4b 9c aa 3f 76 0e 91 3f fb 8d bb 3f 13 d1 b2 3f
       1.3328947 1.1332538 1.4652704 1.3970054
0001b0 7e d7 80 3f da 6a af 3f 7c 4f ae 3f 8d 6d 86 3f
       1.0065763 1.3704484 1.3618007 1.0502182
0001c0 ea 03 a7 3f d9 fb 9e 3f d1 53 cc 3f c2 34 b4 3f
       1.304807 1.2420608 1.5963079 1.40786
0001d0 b1 3f cb 3f 6b 8d bc 3f 62 58 9d 3f 65 82 95 3f
       1.5878812 1.4730657 1.2292597 1.1680418
0001e0 f8 16 fc 3f e5 2d cb 3f e0 c3 a1 3f 7b 0f 94 3f
       1.969451 1.5873381 1.2637901 1.1567224
0001f0 d8 5e b3 3f 1c 3e c9 3f 15 62 ed 3f 98 71 d5 3f
       1.4013319 1.5722079 1.8545557 1.6675291

batchnorm_1.bias f4 [128]
000000 bd 09 7e bf 0e 86 35 bd 1e 42 d6 bd 2f ee 85 bf
       -0.9923361 -0.044317298 -0.104618296 -1.0463313
000010 99 ad f8 3e 3a e6 2e 3d 57 0e a4 3f 5a 01 06 be
       0.48569945 0.04270003 1.2816876 -0.13086453
000020 2e 5e d2 3d da 9e b0 be c6 2f fd 3e 37 4a 3b 3e
       0.102718696 -0.34496194 0.4945051 0.1829003
000030 6e 06 76 3f 7f e6 93 be c6 86 15 bf c1 5b a3 3e
       0.9610356 -0.28886792 -0.5840877 0.3190594
000040 bb c7 2d bf 41 3d 3e bf 63 cf 82 3f 77 af 66 bf
       -0.6788289 -0.74312216 1.0219539 -0.9011149
000050 a2 5a ce be f5 6e 07 bf 6c 19 91 be 92 da f5 be
       -0.40303522 -0.5290368 -0.28339708 -0.48018318
000060 33 96 33 bf 94 84 52 be 76 b3 e7 be cb a4 44 bf
       -0.7015106 -0.20558387 -0.45254105 -0.76813954
000070 2f 2d 1f bf 8b 41 b1 be 5b da bd bd 3f 20 49 bf
       -0.6217832 -0.34620318 -0.092701636 -0.7856483
000080 8c 01 a6 3e b3 42 ae bd 4d 19 d7 be f3 9a 8c be
       0.32423055 -0.085088156 -0.4201149 -0.27461967
000090 99 1c d1 be b7 25 b5 bf 20 ed 1b bf 64 d5 0b bf
       -0.4084213 -1.4152135 -0.609087 -0.54622483
0000a0 0a 5e 49 3f 13 b1 80 be b9 e2 19 bf 13 07 01 bf
       0.7865912 -0.25135097 -0.60111576 -0.5040142
0000b0 a9 9b b3 3e 83 b6 b1 3b 3e 92 25 3e 12 5b 0d bf
       0.35079697 0.0054233684 0.16169068 -0.5521709
0000c0 1f 15 31 bf cc 92 b1 be 7f 59 a8 3d 4c 2f 4a be
       -0.69172853 -0.3468231 0.08220195 -0.19744605
0000d0 15 33 8f 3e 30 15 27 be 36 49 7b be ec db a5 be
       0.2796866 -0.16316676 -0.24539647 -0.3239435
0000e0 85 20 71 3f 38 59 a5 be bb 31 2e 3e 7b 60 35 3d
       0.94190246 -0.3229463 0.17011158 0.044281464
0000f0 be 06 2e bf 09 94 3b 3f 45 79 b8 3e c8 bd 14 be
       -0.6797904 0.7327276 0.3603002 -0.14525521
000100 1b a1 81 be 70 cf 96 bd 93 b3 aa be 07 bc b3 3b
       -0.25318226 -0.07363784 -0.3334013 0.005485061
000110 22 6f c1 3e 7c 85 9c 3d 26 e9 04 bf 13 5d 80 be
       0.377801 0.076426476 -0.51918256 -0.2507101
000120 d7 48 13 bf 3f 3a 81 3d 70 33 06 bf 3c 99 f6 be
       -0.5753302 0.06309938 -0.5242224 -0.48163784
000130 c7 3e d6 be ae 37 cc bd 2d af 03 bb 75 4f 05 3f
       -0.4184477 -0.099715576 -0.0020093427 0.52074367
000140 cc 5c 25 bd 19 97 c2 3e 5d 53 89 be 7d 38 d7 bd
       -0.0403717 0.38005903 -0.26821414 -0.10508821
000150 4b 85 8d be 54 02 f7 3c c6 22 1d bf a7 d0 e3 3a
       -0.27640757 0.030152477 -0.61381185 0.0017380909
000160 45 d3 06 be e7 9e 8f be 18 46 63 bf 84 0c 18 be
       -0.1316653 -0.2805092 -0.8877883 -0.14848524
000170 a5 75 ae be 00 e0 f5 bd f5 08 d8 bd ca 54 0d bf
       -0.3407413 -0.12005615 -0.105485834 -0.552075
000180 9b f3 e4 be f9 df 0d bf 71 bb 96 3e 29 ea a3 bd
       -0.44717106 -0.5541988 0.2943988 -0.08003647
000190 b9 f6 63 bf 59 11 e6 be 4d 7e 31 3c 52 19 e2 be
       -0.89048344 -0.4493511 0.010833335 -0.44159943
0001a0 6e ce 3d bc 7d c8 a5 3e 20 e9 10 bf cc 95 29 bf
       -0.011584861 0.32379523 -0.5660572 -0.66244197
0001b0 57 6a e4 be b3 05 5d bf 8c f5 70 be 02 e1 ed bd
       -0.4461238 -0.8633682 -0.23531169 -0.116151825
0001c0 65 04 e4 be 66 7e c5 bd 23 ca 8a bf 7d ee 0b bf
       -0.44534603 -0.09643249 -1.0842937 -0.5466078
0001d0 bf f0 1e bf bd 2c 5d bf 76 d8 af be aa a0 d7 be
       -0.620861 -0.8639639 -0.34344834 -0.42114764
0001e0 00 c3 ea 3e 26 03 e3 be db 40 0a 3f 7f 20 9e 3d
       0.45851898 -0.4433834 0.5400521 0.07721042
0001f0 9a 4e 9c be 77 68 31 bf 42 bc 89 bf 35 05 2c bf
       -0.30528718 -0.69300026 -1.0760577 -0.67195445

batchnorm_1.running_mean f4 [128]
000000 48 9d 99 bf 17 76 22 be 07 04 c9 bd b3 81 64 bf
       -1.2001123 -0.1586536 -0.09815221 -0.89260405
000010 2a 62 ca bd 0d e2 29 be 6f f6 75 3f bb 0b b3 3d
       -0.098820046 -0.16590138 0.9607915 0.08742472
000020 87 7a bd 3e d8 34 c9 3e 0a 79 96 3f ba d3 19 3f
       0.37007543 0.3929813 1.1755688 0.60088694
000030 71 89 f7 be 1b bb 7f bf b2 8e 74 bf 64 88 81 3f
       -0.48347047 -0.99894875 -0.95530236 1.0119748
000040 9f 90 d7 be 52 35 dd be d3 bd 3d 3e 84 35 0d c0
       -0.42102525 -0.43204743 0.18529443 -2.2063913
000050 e4 f6 1b bf 5e 54 85 3e 11 f7 2b bc 32 67 18 be
       -0.609236 0.2604093 -0.010495917 -0.14883116
000060 d9 ca 5c be 5c 37 4e bf 56 67 a6 bf 66 98 f2 be
       -0.21561755 -0.8055322 -1.3000286 -0.47381896
000070 a8 fd aa 3d 4b 24 f3 be 93 48 45 3e 18 e1 2f bf
       0.08349162 -0.47488627 0.19265966 -0.6870284
000080 c2 bb 18 bc 8f e6 39 3e 07 0d 2c 3f 76 c6 39 3f
       -0.009322109 0.18154357 0.6720738 0.7256845
000090 9e ff f9 3e 18 6a a9 be b5 63 0d bf 05 45 4a 3e
       0.48827833 -0.33088756 -0.55230266 0.19752891
0000a0 34 ab 80 be a2 88 fe 3e c4 25 af be 46 3c e6 bd
       -0.25130618 0.49713618 -0.342085 -0.11241965
0000b0 3a eb 34 3f c2 1f d2 be 84 46 65 be 1b 2a 39 bf
       0.7067143 -0.41039854 -0.22390181 -0.7232987
0000c0 67 52 d2 be 73 83 4c be d8 21 1a bf 7c fe da be
       -0.41078493 -0.19972019 -0.6020789 -0.4277228
0000d0 43 fb 53 3d de f6 72 bd f9 0d 95 3f 71 52 03 3e
       0.051753294 -0.059317462 1.1644889 0.12824418
0000e0 f4 0c bc 3c 4c ec a6 bf bf f5 58 3f 2b 46 5d 3f
       0.022955395 -1.3040862 0.8474998 0.8643519
0000f0 9f 00 71 3e 30 99 d2 3e 76 73 9d be f7 0d 44 3a
       0.23535393 0.41132498 -0.30752152 0.00074788876
000100 8a de 60 be 28 39 a3 3c 0b 7d 48 3f c7 09 c8 bd
       -0.21959892 0.019924715 0.783158 -0.0976749
000110 64 dd 2b 3e a3 94 ca be fa c3 f7 3d 7f fa 0d be
       0.16783673 -0.39566526 0.120979264 -0.13865088
000120 de f5 0f bd 92 f1 62 3e 39 f3 8c bd 65 33 c7 bc
       -0.035146587 0.22162464 -0.068823285 -0.024316499
000130 ae 71 a9 be 08 f6 08 bf 35 37 50 bd 05 c0 b3 3b
       -0.33094543 -0.53500414 -0.0508339 0.005485537
000140 9a 60 7d 3d d7 56 45 bc 62 d2 1f bf 44 8c c6 be
       0.061859705 -0.01204463 -0.62430394 -0.3877889
000150 f6 69 39 3e 4f a9 93 be 46 e9 95 bf fe ff 42 bf
       0.18106827 -0.2884011 -1.1711814 -0.76171863
000160 de b2 01 3f 0a fb c8 be e6 ef 20 bf 56 71 26 3e
       0.50663555 -0.39254028 -0.62866056 0.16254172
000170 4c 6b 69 be 67 f1 01 3e ef 63 8b 3f f0 a1 ae 3d
       -0.22794837 0.12689744 1.0889872 0.08526981
000180 cb 55 06 bf 6c 4d c5 3c e0 9a 95 be 20 00 d1 be
       -0.5247466 0.02408477 -0.29219723 -0.40820408
000190 25 d1 97 bf 87 32 31 bf d4 f0 86 be e3 ee b3 be
       -1.1860701 -0.69217724 -0.26355612 -0.35143194
0001a0 43 5a 84 3e 28 6f 06 3f a6 f3 80 3f d4 69 38 bf
       0.25850114 0.5251336 1.0074356 -0.7203648
0001b0 b2 68 70 bd 6e 40 00 bf ed 58 4f 3e 15 9e 89 be
       -0.058693595 -0.5009831 0.20248766 -0.2687842
0001c0 56 d5 63 bf 50 3b 0d be eb 89 61 3d 33 fa c9 be
       -0.889974 -0.13792157 0.05506317 -0.394487
0001d0 56 4e a3 be 63 05 07 bf 0f 33 dc be ea 9c 6c be
       -0.31895703 -0.52742594 -0.43007705 -0.23106733
0001e0 e6 62 e5 3e db 1f c3 be 89 54 54 3d 0f af b2 bd
       0.44802016 -0.3811024 0.05183843 -0.08724796
0001f0 64 99 a9 3d b5 9f f7 3d 9e 28 24 3d d8 1f 8e bf
       0.0828121 0.120910086 0.040077798 -1.1103468

batchnorm_1.running_var f4 [128]
000000 28 73 c7 3f 4b 45 97 3f ed 5d 49 3f f9 bf b9 3f
       1.5582018 1.1818022 0.78658944 1.451171
000010 c2 49 57 3e 5b 81 26 3e 37 18 d6 3e ad b5 a3 3f
       0.2102423 0.16260283 0.4181535 1.2789818
000020 46 08 4e 3f 8e 53 39 40 12 16 0d 40 6e 8e fe 3e
       0.80481374 2.8957248 2.204472 0.4971804
000030 8e dc 61 3f 90 56 1e 40 24 01 8b 3f c3 60 72 3f
       0.88227165 2.4740334 1.0859723 0.94678897
000040 96 b8 4b 3f 4f 19 99 3d c7 b7 db 3e c4 1f ee 3f
       0.7957853 0.0747553 0.42913648 1.8603444
000050 44 77 41 3f aa 8a 0a 40 32 61 7e 3f 42 95 a5 3e
       0.7557261 2.1647134 0.9936706 0.32340437
000060 c0 9a f9 3e c4 66 3d 3f 6a 7f 3f 3f 3b 49 cc 3f
       0.48750877 0.7398493 0.74803793 1.5959848
000070 7d c7 ca 3f f8 8a 00 3f 9d d6 31 40 7a ff b2 3e
       1.5842129 0.5021205 2.778724 0.34960538
000080 f2 4e ad 3e 3c d7 a8 3f cf 64 89 3f 67 c2 63 40
       0.33849293 1.3190684 1.0733889 3.5587404
000090 fe 37 22 40 88 48 51 3e 19 dd 5e 40 e3 35 ff 3f
       2.5346675 0.20437825 3.4822447 1.993832
0000a0 63 0e ff 3f 4f f3 8e 3f 7b 8d 22 40 3f 52 e1 3e
       1.9926265 1.1168002 2.5398853 0.4400806
0000b0 de e0 2a 3f 26 dc 82 3f d9 f6 fe 3e c8 ed 45 40
       0.6674937 1.0223434 0.49797705 3.092638
0000c0 17 c2 27 3f 50 00 17 40 85 0d 0d 3f 89 23 97 3f
       0.6553053 2.359394 0.55098754 1.180772
0000d0 07 0a 80 40 32 61 25 3f 7e 35 da 3f 57 e3 74 3f
       4.001224 0.64601433 1.7047575 0.95659393
0000e0 12 c9 76 3e f2 15 79 40 71 60 c4 3f d8 8d a5 3f
       0.2410014 3.8919644 1.5341932 1.2933912
0000f0 fc 5a 8f 3e 3c e7 c4 3f 68 12 b7 3f 59 10 ba 40
       0.27999103 1.5383067 1.4302492 5.8144956
000100 28 13 70 3e 4e 9b 47 3f b0 30 d2 3f c9 43 2d 40
       0.23444808 0.7797135 1.6421108 2.7072623
000110 ae 89 39 3f 30 41 02 41 e5 31 65 3f 53 27 60 3f
       0.7247571 8.140915 0.8952926 0.87560004
000120 3c 34 0d 3e 81 60 8b 3f bc 75 1e 3f 65 99 ad 3f
       0.13789457 1.0888826 0.618984 1.3562437
000130 95 31 41 3f b1 4c eb 3e 8a 7f dd 3f 95 53 6e 3f
       0.7546628 0.45956948 1.7304547 0.93096286
000140 ed 14 af 3f 56 1e 6c 3e 29 ca 02 40 12 82 96 3f
       1.3678261 0.23058447 2.0435889 1.1758444
000150 72 57 16 3f d6 67 5a 3f 30 be 56 3f b1 35 a3 3f
       0.5872718 0.8531469 0.83883953 1.275076
000160 2c 5c df 3f 6d 40 85 3f a5 93 39 3e 92 a9 05 3e
       1.7450004 1.0410286 0.18122728 0.13052967
000170 f6 7b a0 3e d3 cd 0b 3f c5 63 9a 3f 2e 52 0e 40
       0.31344575 0.5461094 1.2061697 2.2237659
000180 7d c7 1b 3f fe 77 e6 3f e1 83 23 3f a4 c0 05 3f
       0.6085127 1.8005369 0.63873106 0.5224707
000190 26 06 05 40 51 28 f7 3f d5 03 86 3e 45 32 0c 3f
       2.0785003 1.9309179 0.261748 0.54764205
0001a0 92 76 12 40 4e fa 2b 3f c5 70 b6 3f dd 95 b5 3f
       2.288487 0.6717881 1.4253165 1.418636
0001b0 02 86 a7 3f 8c 91 c1 3f b7 21 c1 3e cd e8 8f 3f
       1.3087771 1.5122542 0.37721035 1.124292
0001c0 d1 5a c5 3f 8f 80 3d 3e 65 29 f4 3e 6f 23 e4 3e
       1.541834 0.18506072 0.47687832 0.44558284
0001d0 a8 30 fe 3f 10 fc 88 3e 92 df 0d 3f 03 d2 10 40
       1.9858599 0.26754808 0.55419266 2.262818
0001e0 75 93 25 40 27 dc 6f 3f 7e ac 2b 3f fb 57 31 3f
       2.587125 0.936953 0.6706008 0.6927487
0001f0 cc 6b f1 3e 78 ee 02 40 a9 50 bd 3d 15 c6 34 40
       0.47152555 2.045805 0.092439 2.82459
