ddpg_single_normal_distribution_noise_2/checkpoint_critic.pth (torch_old, 158476 bytes, 9 tensors)

fcs1.weight f4 [128, 33]
000000 22 c2 1c 3e d4 9a eb 3c 93 b4 db 3e 71 e7 e4 bd
       0.15308431 0.028760351 0.42911205 -0.111769564
000010 5a 27 d3 3d 7e e1 87 be 47 62 f5 be 7b b9 24 be
       0.1031024 -0.26539224 -0.47926542 -0.1608638
000020 73 bd be 3e 8f 5c c8 3d e3 87 92 bc 60 6c 2c bd
       0.37253913 0.09783279 -0.017887061 -0.042095542
000030 e5 b8 20 be 81 f2 9f be 13 8f 46 3d 63 56 41 bf
       -0.15695532 -0.31239703 0.04847629 -0.7552244
000040 d5 40 69 3e 9d fc 12 bc 6a d5 0c 3e 56 db 1a bd
       0.22778638 -0.0089713605 0.13753286 -0.03780683
000050 e0 8c c9 bc 19 3f 16 be 14 61 0f bd d5 a7 0b bd
       -0.024603307 -0.14672507 -0.03500469 -0.034095604
000060 99 28 9a 3d 4a 96 8c be 55 c0 d7 3d 7e 6b 94 3d
       0.07527275 -0.2745841 0.10534731 0.07247065
000070 a9 59 05 3f 3e f1 1f 3d ea a9 a2 3d 89 f5 a7 3d
       0.52089936 0.039048426 0.07942565 0.08201129
000080 0c 0f f7 3f 3c 98 94 3e 2a 5e 9f 3e 00 7c 19 3e
       1.9301467 0.29022396 0.3112653 0.14988708
000090 4e 85 74 bc 25 c0 e2 3e 34 b5 02 bf d8 dd d4 bd
       -0.01492436 0.4428722 -0.51057744 -0.10393876
0000a0 25 b2 e2 bd 07 4c 98 be 5c f9 6b be 51 6d ec 3d
       -0.110691346 -0.29745504 -0.23044342 0.11544288
0000b0 85 75 76 bd a3 63 d7 3d 84 a3 05 3e 2a a7 8a be
       -0.06017067 0.10517051 0.13050658 -0.2708066
0000c0 c1 93 63 3f ae 79 66 3e dd 33 c2 be 69 fc 0e bf
       0.8889733 0.22507355 -0.37930194 -0.558539
0000d0 11 45 a9 3e 9a 83 9d bc e6 1a 72 3b b8 68 fc 3c
       0.33060506 -0.019227792 0.0036942302 0.030811653
0000e0 b0 e2 00 3e 11 81 e1 bb e7 63 9f 3d e1 de a1 bc
       0.12586474 -0.006881841 0.07782727 -0.019759597
0000f0 27 1b 27 3b d7 be 65 bf 72 56 6a 3d 3f 96 e6 3c
       0.0025498362 -0.89744323 0.057211347 0.028147815
000100 b1 8a 8a 3d dc 63 47 3f 9d 11 ab 3e 3e 21 aa 3c
       0.067647345 0.7788675 0.33411875 0.020767804
000110 d4 7a 42 bf 8d e2 b6 bd 18 27 96 be 10 6c 67 3e
       -0.7596867 -0.0892993 -0.293267 0.22599816
000120 3d 14 e5 3e fd c7 7b 3d 63 93 30 be 0e 37 be be
       0.44742003 0.06147002 -0.17243724 -0.37151378
000130 97 b4 51 3e 42 c7 76 3c 7f 8e 40 be 16 32 94 bd
       0.20479046 0.015062155 -0.18804358 -0.07236116
000140 3f db d6 bd 42 1b ec 3e 81 2f 1f 3e a6 fe 33 bf
       -0.104910366 0.46114546 0.15545465 -0.7031044
000150 ff b5 c7 3e 05 dd 3a 3f 80 9c 65 bd d8 cb a3 3d
       0.3900604 0.729935 -0.056057453 0.079978645
000160 ad bc e2 bd 19 27 10 3e 50 44 27 be 6b 0b 02 be
       -0.11071143 0.14077415 -0.16334653 -0.12699668
000170 ae c7 1d 3f 98 8c 24 bd 35 10 d1 be 9e 81 95 bd
       0.6163281 -0.040173143 -0.40832677 -0.07300113
000180 e7 98 b5 3c b2 6a 3f 3d 0d 6d b1 3f 6c ba 1c 3e
       0.022167636 0.046732612 1.3861405 0.1530549
000190 28 aa d0 3e 26 2f 27 be ae 85 a4 bf 24 4c 7c 3d
       0.4075482 -0.1632658 -1.2853296 0.06159605
0001a0 f7 39 a6 be 40 05 6b 3f f2 a9 11 be c7 e8 05 bf
       -0.324661 0.91804886 -0.14224985 -0.52308315
0001b0 af 2a db 3e 7d 94 34 3e 2b 75 c7 3e 59 ea 96 be
       0.42806002 0.17634769 0.3895658 -0.29475668
0001c0 0e 16 68 3e 81 12 3c 3e fa 38 2a 3c 25 64 8c bf
       0.22664663 0.18366434 0.010389561 -1.0968062
0001d0 80 ee bd 3d 7d 7c bc 3e 06 3e 84 be 77 7a 31 3e
       0.09274006 0.36813727 -0.2582857 0.17331873
0001e0 fe 70 d8 3b 25 62 79 3e e3 86 72 3c 1a 8a 03 3f
       0.0066052666 0.24353845 0.014802667 0.513826
0001f0 7e f6 13 be b0 63 80 ba bd 4a 82 bd 76 b7 97 3d
       -0.14449498 -0.0009795334 -0.063619114 0.07408039
000200 49 47 97 3d 59 4e 93 b9 74 b6 57 bd 86 31 15 40
       0.073866434 -0.00028096398 -0.052664235 2.3311477
000210 ff 45 50 3f 45 ce 2e 3f 6b ec d6 3d a4 38 bb be
       0.81356806 0.6828349 0.10494312 -0.3656665
000220 e1 46 e9 3e b4 38 e4 3e 5c 03 35 3e 86 c0 bf bd
       0.4556189 0.4457451 0.17677063 -0.09362893
000230 db 38 12 3f 72 a8 91 3e 71 52 e6 3e 65 74 72 3e
       0.57118005 0.28448826 0.44984773 0.23677213
000240 3c 8b b0 bc 5f 68 e3 3e bf 3b e9 3d 08 96 33 3d
       -0.021550767 0.44415566 0.11388349 0.043844253
000250 4c 70 3e 3e 59 ad d5 3e d0 61 37 bd fd c1 7a 3c
       0.18597525 0.41733816 -0.044771016 0.0153050395
000260 a1 f6 07 be fc fa 87 bc 5a 35 33 be 7b b7 23 3f
       -0.13277675 -0.01659917 -0.17500821 0.63951844
000270 28 8f 10 3f 93 ce 23 be 6c 7d fe be ee c8 6b bd
       0.5646844 -0.1599677 -0.49705064 -0.05756467
000280 7b 6c 2f 3c 5f 30 94 3d 9f 2e b5 3c e2 73 4c 3d
       0.010707016 0.072357886 0.022116957 0.049915202
000290 21 ee 6c 3f a2 c1 71 bd 03 03 2a 3d 08 94 a0 3e
       0.92550856 -0.059022553 0.04150678 0.3136294
0002a0 87 08 2f bf 87 ec b3 3f 58 62 0b bf 1f da b7 3e
       -0.68372387 1.4056557 -0.54446936 0.359086
0002b0 f4 09 60 3e 32 97 55 3d 89 8d 41 3e 24 12 98 bd
       0.21878797 0.052146144 0.18901648 -0.07425335
0002c0 fa 7d ab ba d9 21 77 3e c1 b3 88 3d bd c3 3e 3e
       -0.0013083809 0.24134006 0.0667491 0.18629356
0002d0 f9 0e 2e be e4 c8 d7 bf 83 b9 b0 3e bc d5 31 3f
       -0.16997899 -1.6858182 0.34516534 0.6946676
0002e0 95 e1 9a be e8 97 b1 bc fd ff e2 bd e3 a0 a2 3e
       -0.3025023 -0.02167888 -0.11083982 0.31763372
0002f0 0a 42 36 3e 33 6d 2a 3e f1 c3 fe 3d 11 56 e5 3b
       0.1779863 0.16643219 0.124397166 0.0069987853
000300 4d 5a fc bc a5 b3 70 bf f6 ff af bd 7c ad 80 bd
       -0.030804778 -0.94024116 -0.085937425 -0.062830895
000310 65 8e 82 3d 9e 22 dd 3f b7 43 83 be e9 c0 1f bd
       0.06374816 1.7276189 -0.256376 -0.039002333
000320 67 48 22 3f 0a 4b ea be 92 ff 58 3f 75 37 d2 3d
       0.6339173 -0.45760375 0.8476497 0.10264484
000330 d7 76 4f be b4 fc df bd a2 e5 50 3e 74 80 36 be
       -0.20260178 -0.10936871 0.20400098 -0.17822438
000340 4f 5f b2 bd 3a ab 03 3f f7 36 4d be 0d b4 8a 3d
       -0.08709585 0.51433146 -0.20040499 0.06772623
000350 7d d5 5e 3f 97 90 7e be 58 56 c3 bd d7 7a f3 bd
       0.8704451 -0.24859844 -0.09537953 -0.11888664
000360 84 d4 65 bf 21 39 6e bf 28 33 6f 3d 9d 62 26 3e
       -0.897774 -0.9305592 0.058398396 0.16248555
000370 c9 6b d5 3d a5 48 a7 bd c8 3e 52 3f 23 d8 8d be
       0.10420949 -0.08168153 0.82127047 -0.27703962
000380 92 42 a7 3d ce a1 d3 3c 4b b4 c9 bd c0 0f 7c bb
       0.08166994 0.02583399 -0.09848841 -0.0038461536
000390 43 2c 76 bd 4f 4c 9d 3d 4b 0a 14 3d 5b 24 2c 3d
       -0.060100805 0.0768057 0.03614263 0.04202686
0003a0 90 84 bc 3c fb 8a c1 3c 16 a7 f7 bd 3d 71 37 3e
       0.02301243 0.023625841 -0.12092416 0.1791429
0003b0 a3 fe d5 3c 4a 20 88 3c 7e 9d 3d 3c 3c ee 4c bd
       0.026122397 0.01661696 0.011573194 -0.050031886
0003c0 9c bd 22 bd 2b da 23 ba 4d 85 3a 3c c4 a8 6d 3c
       -0.039731607 -0.0006250466 0.01138432 0.014505569
0003d0 fe 94 57 bd 3d 02 59 bc 59 69 09 3c 70 32 9e bd
       -0.052632324 -0.013245163 0.008386933 -0.07724464
0003e0 a8 0b a9 be 2a d6 7f 3d dc 54 b6 bd f4 16 18 3c
       -0.33016706 0.062460102 -0.089029044 0.009282816
0003f0 ff 4d ee ba 6d 1c 4e bb 53 76 19 bc fc 41 8a bc
       -0.0018181204 -0.0031450049 -0.00936659 -0.016877167

fcs1.bias f4 [128]
000000 2e 98 a9 bd 80 24 7b bc d9 fe 0b be ee 77 63 3b
       -0.08280979 -0.0153285265 -0.13671435 0.0034708935
000010 d1 4e 22 be 82 04 0f be e2 92 be 3d c8 8b 47 bd
       -0.15850379 -0.13966563 0.093053594 -0.04871729
000020 97 ff 95 bd 99 ec f6 bc f9 83 2c be b5 57 23 3e
       -0.073241405 -0.030142115 -0.16847219 0.15951426
000030 fa 19 b1 bb f4 d3 cd bc a7 7e 98 bd f9 3d b5 3d
       -0.005404708 -0.025125481 -0.07446032 0.08849711
000040 97 38 0d be 9c 41 89 3d 5b b9 ff bd 38 f7 8b bd
       -0.13791119 0.06701967 -0.124865256 -0.068342626
000050 73 2a df bd 3b cd de bd cd 96 be bc 6b c3 00 be
       -0.108967684 -0.10878988 -0.023265267 -0.12574546
000060 7b 46 ef bd fc 33 2d be 5d c5 3d 3d 66 8c 08 be
       -0.11683365 -0.16914362 0.0463308 -0.13334808
000070 e3 30 a6 bc fc 18 2c bd cc 77 10 be ac 7e ee bd
       -0.020286983 -0.042016014 -0.14108199 -0.116452545
000080 3e 7b 79 bc df d5 02 3e 78 25 3d bd 84 1b 1b 3e
       -0.015227137 0.12776898 -0.04617831 0.15147215
000090 34 89 83 3d ab 5b 05 be 37 fb 57 3d c4 63 2a be
       0.06422654 -0.1302325 0.05272981 -0.1663962
0000a0 3a 03 cc bd 2f f4 2b 3e 6c dc 2d 3e 20 46 ca bd
       -0.09961553 0.16792367 0.16978616 -0.098766565
0000b0 63 d9 ab 3c b4 2b 2f be 8a 61 c2 bd a6 f2 f3 3c
       0.020977682 -0.17106515 -0.0949126 0.02977879
0000c0 db 7d 24 be 0e 0b 76 bd 83 13 a8 bd bb 73 05 be
       -0.16063635 -0.060069136 -0.082068466 -0.13032429
0000d0 7c e4 bd 3d 84 09 e9 bd a8 63 1c 3e e7 58 04 3d
       0.092720956 -0.11378768 0.15272391 0.032311346
0000e0 eb 37 6d 3d 75 1d 00 be 5a 3c 17 3c 73 da 23 3e
       0.057914656 -0.12511237 0.0092306975 0.160013
0000f0 e2 62 b9 bd 2a ed 8b bd f0 85 89 bd 94 d6 15 bd
       -0.090520635 -0.06832345 -0.06715 -0.03658159
000100 cb 29 d4 3d 35 f0 b4 3d f1 5d 7b bd e4 f4 f6 3d
       0.10359534 0.08834878 -0.061368886 0.12058428
000110 92 bd 23 be 98 8a 56 bd 2f 1a e1 bc cc fb ef bb
       -0.15990284 -0.052378267 -0.027478306 -0.0073237177
000120 ae 4e 34 bc fc 3e 77 3d 71 89 6e 3d d9 12 19 be
       -0.011005087 0.0603628 0.058236543 -0.14948596
000130 94 70 93 3d ae 09 8e 3c 45 a9 e5 3d b9 bc bf bc
       0.07199207 0.0173386 0.11213926 -0.02340542
000140 4e dc 22 be 68 fd 48 3d d8 d5 91 bd d4 a7 e3 bd
       -0.15904352 0.049069792 -0.071208656 -0.11115995
000150 1c 4e 00 bd 81 66 0d 3e 3a 0c 12 be 4a e8 8e bd
       -0.03132449 0.13808633 -0.14262477 -0.069778994
000160 71 97 29 be bb 4e ef bc 4f c7 41 3d 98 95 b0 3d
       -0.16561677 -0.029212346 0.047309216 0.08622283
000170 67 a4 5b bd 11 5a 02 3e 12 59 9e 3d 10 d6 cd 3d
       -0.053623583 0.1272967 0.077318326 0.10050595
000180 16 41 b6 bd 5b 91 f4 3d cd 40 36 bd 48 3a 05 3e
       -0.08899133 0.11941787 -0.044495393 0.13010514
000190 7a df fe 3d 8f 22 1b be 4c 04 a2 3c b6 d8 a6 3c
       0.124449685 -0.15149902 0.01977744 0.020367008
0001a0 73 42 fe bc 6e 96 f8 3d 7b 76 88 3d 28 a0 2f be
       -0.031037545 0.12138067 0.06663223 -0.17150939
0001b0 79 df f9 3d 05 b3 22 3d 68 9c 5e 3d cf 95 05 3d
       0.12200827 0.039721508 0.05434838 0.03261357
0001c0 f3 3a 21 3c df 74 b8 bd c1 df 03 3d 5f 0f 6b 3b
       0.009840715 -0.090066664 0.03219581 0.0035867316
0001d0 4c ba 8a 3d 89 e6 23 bd 9e c3 05 3e 29 ed 96 bb
       0.067738146 -0.040014777 0.13062903 -0.0046059084
0001e0 35 98 f9 bc 27 11 81 bd 66 34 1f 3e de 15 bd bb
       -0.030468086 -0.063021 0.15547332 -0.005770429
0001f0 77 64 87 bd e7 cf 9c bd 3d 4b 2a 3e 8a 22 1f be
       -0.06610959 -0.07656842 0.16630264 -0.1554052

fc2.weight f4 [256, 132]
000000 3f 73 a0 bd 58 a9 81 bd 40 40 d8 bb 37 d9 e2 3b
       -0.078344814 -0.06331128 -0.006599456 0.0069228667
000010 05 19 73 bc 36 45 1f 39 89 cd 36 bd ac 43 09 bd
       -0.014837508 0.00015189205 -0.044629607 -0.033511803
000020 ea b6 5b bb f3 fe 61 bb e8 bd 9a 3c 72 b3 58 bc
       -0.0033525773 -0.0034484237 0.018889382 -0.013226377
000030 70 0f 7f bc e4 09 4e bc 84 2b 8e bd 14 80 19 bd
       -0.015567645 -0.0125756 -0.06941894 -0.03747566
000040 2c c7 bc 3c a2 7b 07 bd a0 e4 b8 bd b4 4a 73 bd
       0.023044191 -0.03307689 -0.09027982 -0.059397414
000050 2b 88 ec 3b f6 65 97 bd 58 86 cb bc ee d7 6e 3c
       0.007218381 -0.073924944 -0.024844334 0.014577849
000060 5b 36 97 3b 17 6c 4d bd 20 05 5e 3c ac 75 b7 bc
       0.004614634 -0.05015191 0.013551027 -0.022394978
000070 0e ac 13 bd dc aa b6 bd 90 a1 29 bd 94 6e ba bc
       -0.036052756 -0.089193076 -0.041413844 -0.022757806
000080 03 08 4b 3d 83 d7 21 bd ea ec 61 bc 4b be ad bd
       0.049568187 -0.03951217 -0.013789395 -0.08483561
000090 6f bb 92 bd 45 76 8f bc b7 a4 3a bd 72 61 24 bb
       -0.07164656 -0.01751245 -0.04556724 -0.0025082496
0000a0 c0 fa 53 bd 34 58 9d bd bc e5 8c bc 7c 68 8f bd
       -0.051752806 -0.07682839 -0.01719939 -0.07002351
0000b0 30 92 67 bd 65 55 82 3c 5f e6 8f bd a3 e0 ba bc
       -0.0565359 0.01590986 -0.07026362 -0.022812193
0000c0 e4 6e a6 bd 1b 28 01 bc ad 7f 75 3b af b7 33 bd
       -0.081266195 -0.007883097 0.0037460134 -0.043876346
0000d0 76 90 98 bd 95 0f 21 3c 2b 39 a3 3c f0 94 6e 3b
       -0.07449429 0.009830375 0.01992472 0.0036404692
0000e0 bb e0 de bd e1 23 d9 bb 46 0e fb 3a 15 c1 62 bd
       -0.10882708 -0.0066265916 0.0019154034 -0.05535992
0000f0 92 d1 df bd 91 50 ce bd 3d 43 37 bd c8 a6 2f bd
       -0.10928644 -0.100739606 -0.044741858 -0.042883664
000100 48 14 8c 3c 4c 4c 1b 3d 06 bc ba bc a6 2d 6b bb
       0.017099515 0.03791456 -0.022794735 -0.0035885363
000110 7d 35 2a bd ef e6 2c bd 70 e5 31 bd a1 39 15 bd
       -0.041554917 -0.042212423 -0.0434317 -0.036431912
000120 dd 69 92 bc 47 1b 61 3c 62 5f 15 bc 27 08 5c bd
       -0.017872745 0.013739414 -0.009116979 -0.053718712
000130 b3 2e af bd 7c a3 76 bd f9 35 2f 3d b7 72 7a bd
       -0.08553829 -0.060214505 0.04277608 -0.061144557
000140 54 ae d3 3c 9a ac 90 bd 18 21 25 bd f5 94 8c 3c
       0.025839962 -0.07064171 -0.040314764 0.017160872
000150 6a f6 14 3d 6d 66 d5 bc 01 b7 4d bc 5a 16 8c 3c
       0.03636781 -0.026049817 -0.012555839 0.017100502
000160 ba ac 8b bd 08 f9 8e bd bd b9 36 bd 57 68 18 3d
       -0.06820054 -0.06981093 -0.044610728 0.03720888
000170 ec ae 05 3d bb a1 bf 3c c0 ea 7d 3d 41 ee 8f 3c
       0.03263752 0.023392549 0.061991453 0.017569663
000180 0d 2e 82 3c 03 bb 67 bd 5e 11 38 3c d7 9e cc bc
       0.0158911 -0.056574833 0.011234609 -0.024978084
000190 2d 04 74 3c c4 d9 95 bc d5 c0 bf bc ae 6f 6e bc
       0.014893574 -0.018292315 -0.02340738 -0.014552994
0001a0 c3 85 1a bd ca db fd bc 09 3c 6b bd b8 5f 38 bb
       -0.03772522 -0.030988593 -0.0574303 -0.0028133225
0001b0 e2 58 61 bd 6b a4 a1 bd e5 05 83 bd 85 92 02 bd
       -0.055016406 -0.07892688 -0.06397609 -0.031878013
0001c0 37 45 75 bd fe 0d 3a bb 3d b3 b0 bb c1 2d 64 bd
       -0.05988046 -0.0028389688 -0.0053924606 -0.055707697
0001d0 7a 7e 77 bd 61 58 fd 3c f2 bf 77 3c 0b d7 91 bd
       -0.06042335 0.030925931 0.015121447 -0.07121094
0001e0 7b 6c 18 bd 5c 33 d3 3b 44 df 31 bc 49 3f 76 bd
       -0.03721283 0.0064453315 -0.010856453 -0.060118947
0001f0 1e 98 05 bd 1a 83 dc 3b cd 48 cf 3c 15 f3 41 bd
       -0.032615773 0.0067294957 0.025303269 -0.04735096
000200 30 7e 3d bd 93 fc 02 bd 4e eb 3f 3d bb cb ea 3c
       -0.04626292 -0.031979155 0.046855263 0.0286616
000210 34 8c 17 bb 55 0f 99 bc 30 5e e4 3c ff 44 8b bd
       -0.002312434 -0.018684069 0.027876943 -0.06800269
000220 c4 90 89 bb 48 d2 b6 bd 94 1c 44 bd a1 64 8f 3c
       -0.0041981656 -0.08926827 -0.047878817 0.017504038
000230 2f 67 0b bd 2d 6d 7a bd 60 a1 77 bd 68 d2 85 3a
       -0.03403395 -0.061139274 -0.060456634 0.0010209801
000240 aa 55 36 bd 2b 04 63 3c 0a 6e 7f bd 29 0e c8 3c
       -0.04451529 0.013855974 -0.0623608 0.024420815
000250 dc f6 0c bd f2 c5 c9 3b ae be ac bc 01 7d df bd
       -0.03441511 0.00615763 -0.021087017 -0.109125145
000260 42 2e 1c bd ac 27 98 bd 42 ca 6f bb 93 a9 1d bd
       -0.038130052 -0.07429442 -0.003658906 -0.038491797
000270 d0 3a fe 3c 0e e1 52 bd 83 bc 85 3b b9 e1 67 bd
       0.031033903 -0.05148416 0.0040813102 -0.05661175
000280 5b 11 2f 39 30 26 84 bd 5d e8 5b bd 7d e0 0d bd
       0.00016695766 -0.06452596 -0.053688396 -0.034637917
000290 df d1 30 3d 80 45 a8 bc 25 76 70 3c 72 ae 4d 3c
       0.0431689 -0.020540953 0.014676605 0.012553798
0002a0 93 37 0e 3b b9 38 2f bd d2 d5 3e bd be 86 26 bc
       0.0021700605 -0.042778704 -0.046590634 -0.010163961
0002b0 39 77 89 bc f6 8b 6b bd e6 61 5a 3c cc 80 23 bd
       -0.016780483 -0.057506524 0.013329005 -0.039917752
0002c0 5a a6 84 bd 9e 30 a3 3c 76 2e 8d bc 58 31 b4 bd
       -0.064770415 0.019920643 -0.017234068 -0.08798474
0002d0 4d da ed 3a cd 61 2a 3c 40 a2 a6 bd 9b eb 0a bd
       0.0018146724 0.010399294 -0.081364155 -0.033916097
0002e0 4a c9 65 bd 4a 15 78 bd 7d d9 ba 3b 4a 84 a6 bc
       -0.056100167 -0.060567178 0.005702196 -0.020326752
0002f0 bd 9f ae bb f9 d9 c9 bd 84 58 9f bc 02 b5 c0 bd
       -0.005329101 -0.09856028 -0.019451387 -0.094095245
000300 b5 2f 2a bd 88 97 54 bd 8e d2 3c bd 77 f3 d7 bd
       -0.041549403 -0.051902324 -0.046099238 -0.10544484
000310 f3 69 c4 bd 99 a2 eb bc 85 57 22 bc a3 d6 c0 3c
       -0.09590521 -0.028764056 -0.009908562 0.023539847
000320 cd ad 50 bd a2 52 01 3c c9 a1 20 bd 71 4e 04 3d
       -0.050947 0.007893236 -0.03921679 0.03230137
000330 df 15 91 bb 47 70 6e bd dd 29 33 bc f9 07 87 bc
       -0.004427656 -0.058212545 -0.010935274 -0.016483294
000340 27 02 cf bd 86 26 1d 3d 69 5f c3 bd c0 3f 16 3d
       -0.101078324 0.038366817 -0.095396824 0.03668189
000350 f3 ec a5 bd 5c 39 59 bd 7c 44 55 bd fc 35 1c bd
       -0.08101835 -0.053033218 -0.052067265 -0.03813742
000360 7f 77 9d bd b9 67 92 bc 14 4d 3f bd 17 a3 03 3d
       -0.07688808 -0.017871724 -0.046704367 0.032137956
000370 03 1b 88 bc d3 0a eb 3c be 2e 00 bd 05 57 f4 bc
       -0.016614443 0.028691685 -0.031294577 -0.02982665
000380 37 13 77 3c 4b 1a 19 bc ae a6 66 bd 2c 90 f9 3c
       0.015080265 -0.009344648 -0.056311302 0.030464254
000390 72 5c e2 bd 4d 1c 92 bd 3a a0 2e bd 61 fa 36 bd
       -0.11052789 -0.07134304 -0.042633273 -0.044672374
0003a0 54 51 97 3b b8 c0 99 3b 00 38 1c bc 39 3a 62 bd
       0.0046178494 0.0046921633 -0.009534836 -0.055231307
0003b0 d2 a4 1b bd 12 6b 61 bd 9e ec cf 3c f1 56 b2 bd
       -0.03799898 -0.05503375 0.025381383 -0.08707989
0003c0 41 c8 ff bc 0d 84 60 bc 0f 93 3d bd 8f ed 63 bd
       -0.031223418 -0.013703358 -0.046282824 -0.055646475
0003d0 29 bf 79 3c 7a bd 1e bd 59 72 0f 3c 93 29 db bc
       0.01524333 -0.038754918 0.00875529 -0.026753223
0003e0 91 75 46 bd 73 df 53 bd cd 7b 0e 3c 54 ce b3 3c
       -0.048451964 -0.05172677 0.008696509 0.02194897
0003f0 9d b0 c6 bd 83 3e 86 bd 83 31 8b bd 97 d5 70 bd
       -0.09701655 -0.06554892 -0.06796553 -0.058797445

fc2.bias f4 [256]
000000 85 db cd bd 89 6e 9d bd 38 42 23 bd db 7a b7 bd
       -0.10051636 -0.076870985 -0.039858073 -0.0895898
000010 73 29 c1 3e 0d a2 0a 3e 7c 9b 8c bd 36 43 9d 3e
       0.37726936 0.1353838 -0.06865594 0.3071534
000020 b8 90 30 be 70 15 9a bd 68 d6 59 bd f2 34 3e 3e
       -0.17242706 -0.0752362 -0.05318299 0.18574885
000030 8f ba 28 3f 10 17 5b bd 5b d0 16 be 89 fe 0e be
       0.65909666 -0.05348879 -0.14727919 -0.13964285
000040 16 0c 80 3e c2 4f 18 3e 64 99 59 3e fd 23 81 bc
       0.2500922 0.14874175 0.2124992 -0.01576423
000050 90 39 a9 3f 1e e0 f1 bd 1a f9 17 3f c5 1b 0a be
       1.3220692 -0.11810325 0.59364474 -0.13487156
000060 50 23 bf bd 4c 50 b4 bb ff b7 00 3f 0c a2 16 be
       -0.09332907 -0.005502736 0.50280756 -0.14710253
000070 b2 25 09 3f db 21 ec bd d2 49 82 bd 28 62 c3 bd
       0.53573143 -0.11529895 -0.06361736 -0.09540206
000080 d9 3e e1 bd c5 3e af bd fa c7 b8 3e 32 44 a0 bd
       -0.10998315 -0.08556894 0.3609007 -0.07825507
000090 8c eb 06 be 91 23 d8 bd bb 06 2d bd df 09 29 3f
       -0.13175792 -0.10553659 -0.042242747 0.6603069
0000a0 4e 33 d0 3d d8 1b 35 3f 34 f5 41 3f ef ee 8c bd
       0.101660356 0.7074561 0.75764775 -0.068815105
0000b0 1c 43 a7 bc 18 5a 19 be ba 1a f1 bd 5a 0e b5 bd
       -0.020417742 -0.14975774 -0.11772676 -0.08840628
0000c0 41 2a 58 be aa fe e3 bd 8b bc ab bd 4a fb cc bd
       -0.21109869 -0.11132558 -0.08385571 -0.10008867
0000d0 6a 41 1f bd 79 2f df bd 25 f5 aa 3e 77 57 94 bd
       -0.038880743 -0.108977266 0.33390155 -0.07243245
0000e0 51 9c 9c bd 61 e3 0c be e4 e4 31 bd af 0a c8 3e
       -0.076470025 -0.13758613 -0.043431178 0.3907065
0000f0 fb 33 4c 3f a6 18 3d bd fc 74 17 be d6 6a 12 bd
       0.79766816 -0.046166085 -0.1479072 -0.035746418
000100 0f 1f 19 be cc 58 b0 bd 61 fc 74 bd 58 55 d9 3d
       -0.14953254 -0.08610687 -0.059811 0.10611981
000110 6a 6f df bd 90 8c d6 3e db 69 c2 bc 77 34 71 bd
       -0.109099224 0.41904116 -0.023732116 -0.058887925
000120 a3 6a 8e bc 0d ee bd bd ff da 0b 3f 50 59 bf bd
       -0.017384833 -0.0927392 0.54631037 -0.09343207
000130 ad e9 91 bd 44 5e 99 bc 1d d5 82 bd 8a 86 b6 bd
       -0.07124648 -0.018721707 -0.063883044 -0.0891238
000140 18 14 95 3d 06 e6 24 be 1f fd da bd 84 fc 58 be
       0.07279223 -0.16103372 -0.1069281 -0.21190077
000150 2f f2 6e bc f1 82 f1 bd c8 ce ef bd 09 72 d0 bd
       -0.014584108 -0.11792553 -0.11709362 -0.101780005
000160 3c fe 46 bd cb ce a8 bd 1d 5c d6 bd 0d ce 85 bd
       -0.0485823 -0.08242568 -0.10466788 -0.06533442
000170 05 30 12 bd 34 83 27 be 70 bf 0b be e6 e6 a6 bd
       -0.035690326 -0.16358644 -0.13647246 -0.08149509
000180 27 34 61 bd 66 65 6f 3f c7 98 49 be b5 01 fb 3d
       -0.054981377 0.93514097 -0.19687186 0.12256185
000190 ac ce ed bd 1c ba a8 bd 8e 80 d3 bc 2d 3a 36 bd
       -0.11611685 -0.082386225 -0.025818136 -0.044489074
0001a0 cc 77 07 be a0 da d5 bd 71 cb b1 bd ba a7 17 be
       -0.13229293 -0.1044209 -0.086813815 -0.14810076
0001b0 e9 4c 99 3d a9 56 87 bd 37 3c 8f bd 79 fd 25 3b
       0.074853726 -0.06608326 -0.06993907 0.0025328083
0001c0 c8 eb 87 bd d6 72 6c bd 0e 73 99 bd 1d 3f 7f bd
       -0.066367686 -0.057726704 -0.07492648 -0.06231605
0001d0 ad 00 78 3e 72 e2 f0 bd b3 7d ef bd 3f 5d 86 bd
       0.24219008 -0.11761941 -0.11693897 -0.06560754
0001e0 c8 58 ef bd a6 8f 10 be 95 48 df bd 24 d8 75 bc
       -0.116868556 -0.14117298 -0.10902516 -0.015005145
0001f0 5f a8 8f bd ee 2e 7c 3f fb b3 08 3e 5e 90 db bd
       -0.07014536 0.9850911 0.13349907 -0.10720895
000200 bf 9d 86 3f 13 2d 20 bd 0d 26 5e bc bb 54 1e be
       1.051689 -0.039105486 -0.013558877 -0.1546201
000210 3f 58 1e bd 9f 69 9e be a1 76 bc bd db 15 e9 3e
       -0.038658377 -0.30939957 -0.09202314 0.45524487
000220 eb b1 9c bd 57 42 da bd 6a 77 4b bd 66 a6 e6 bd
       -0.07651123 -0.106571846 -0.04967443 -0.11262207
000230 67 89 17 3f 05 ab 2a 3e 7b d3 02 be 8d 94 a2 bc
       0.59194034 0.16666801 -0.12775986 -0.019846225
000240 5b 9d e1 bd 46 bb 16 be 64 ba 06 bd 1f c3 3f 3f
       -0.11016341 -0.14719877 -0.0328926 0.74907106
000250 6a ab ac be 9d ea 8f bd 7c 7a 2e 3f 4e 2f 06 be
       -0.3372453 -0.07027171 0.68155646 -0.13103983
000260 9e 29 e1 bd 80 c3 f2 bb 03 dd 5b bd 9e 40 30 bd
       -0.10994266 -0.0074085593 -0.05367757 -0.043030374
000270 63 66 07 be 7c f7 a8 3e e0 bb ad bd bd 81 0a be
       -0.13222651 0.33001316 -0.084831 -0.13526054
000280 f7 87 09 be 6e e7 f9 bd 51 b4 18 bd 21 30 16 be
       -0.13430773 -0.12202345 -0.037281338 -0.14666797
000290 2d 59 7b bd 81 b2 e9 bd a5 da 30 bd 81 44 0e 3c
       -0.06136434 -0.11411 -0.043177266 0.008683325
0002a0 49 b8 88 bd bd 00 21 be b0 81 14 be c4 1d 40 be
       -0.066757746 -0.15722938 -0.14502597 -0.18761355
0002b0 c5 f5 c4 bd d9 3a 6c 3e a7 61 db bc 74 e2 ee 3c
       -0.09617189 0.23069324 -0.026779963 0.029160716
0002c0 d2 d2 41 3e 75 f3 db 3c b1 4d 3f bd 2b 8e 9b bc
       0.18928078 0.026849488 -0.04670495 -0.01898869
0002d0 78 a2 fb bc 2b b2 56 bd 7c bd 21 bd 53 91 08 be
       -0.03071712 -0.052416008 -0.039487347 -0.13336687
0002e0 39 6c 1c 3f 4b 46 2c be d9 3f 47 bd 1f f3 05 bd
       0.61102635 -0.1682369 -0.048644874 -0.03270256
0002f0 61 33 1d be 26 c0 6c 3e 35 1e d8 be 60 3d 15 bd
       -0.15351631 0.23120174 -0.42210546 -0.036435485
000300 9c 9c 9a bd 13 79 e7 3d f3 27 51 bd 61 ab 1a 3f
       -0.07549402 0.1130239 -0.05106349 0.60417753
000310 12 66 d1 bd c8 63 bc bc d0 0a 0d be 34 e7 12 bd
       -0.102245465 -0.022996798 -0.13773656 -0.035865024
000320 7d fa 6c 3e f1 9a f7 bd 4a 30 05 be 5f 69 41 bd
       0.23142429 -0.120900996 -0.13006702 -0.04721963
000330 45 b9 a5 be 5c 19 f4 bd a6 c1 91 bd 8e 6a b9 ba
       -0.32367912 -0.119188994 -0.07117014 -0.0014146136
000340 d7 53 13 be a9 6c 9d bd 9f 41 15 3b e0 60 77 3e
       -0.14387451 -0.07686741 0.002277471 0.24158049
000350 67 03 a7 bd a0 ac 0c be 8a b7 84 bd 77 63 10 be
       -0.08154946 -0.13737726 -0.0648032 -0.14100443
000360 7c 31 43 3e 60 1a 86 be 60 f5 87 bd fc f1 89 ba
       0.19061846 -0.26191998 -0.066385984 -0.0010524387
000370 9a 34 26 bd 8c 70 c9 bd a8 f5 f4 bd b1 99 ee bd
       -0.04057751 -0.0983592 -0.11960918 -0.11650408
000380 ed 15 da bd 29 bc 99 3e 9c 0c 54 bc d5 b5 02 be
       -0.10648713 0.30026367 -0.012942459 -0.12764676
000390 c5 b0 46 3e 44 06 d4 bc 93 8e ac bd 86 c6 b5 bb
       0.1940337 -0.025881894 -0.084256314 -0.0055473475
0003a0 5f 66 99 bd 18 92 1d be f0 f1 26 be 91 5f 62 bd
       -0.07490229 -0.15387762 -0.1630323 -0.05526692
0003b0 4e 43 8d bd 46 bb f5 bc 78 18 c9 bd 1f f9 27 be
       -0.06897603 -0.029996525 -0.0981912 -0.16403626
0003c0 4f 81 97 bd 35 4b eb bd 42 fa af bd 70 82 70 3e
       -0.073977105 -0.11488954 -0.08592655 0.23487258
0003d0 fb 5d 63 bd 9a 74 8e 3e fa b3 9e bd 60 3b fa bd
       -0.05550955 0.27823335 -0.077491716 -0.12218356
0003e0 e2 76 9a 3d cf a3 a3 be df 23 34 bd dd f7 ab bd
       0.07542206 -0.31960914 -0.04397952 -0.083968855
0003f0 12 ff 05 bd b0 5f 71 3e ec fb f7 bd 3a a8 a4 3c
       -0.032713957 0.23571658 -0.12108597 0.020099748

fc3.weight f4 [1, 256]
000000 f6 63 35 bc 5f 49 c4 bb df 4b d8 3c 3b 77 3b 3c
       -0.011071196 -0.005990192 0.026403366 0.011442001
000010 ea c2 66 3d f3 26 c8 3c 73 56 9f 39 af 6c d4 3c
       0.05633823 0.024432635 0.00030391253 0.02593073
000020 af bc dd 3c 72 98 a5 3a 30 ce 6a bb 19 41 d6 3c
       0.02706751 0.0012633933 -0.0035828464 0.026154088
000030 ed 75 6d 3d b6 ae fe bc 76 3d 0e 3c 35 6b 72 bd
       0.05797379 -0.031089168 0.008681646 -0.05918427
000040 67 06 20 3d 60 46 b2 bd 19 60 09 3d 4a b8 ac ba
       0.039068606 -0.08704829 0.03353891 -0.0013177481
000050 43 87 7a 3d f8 6e 20 bd e6 86 23 3d 3b c8 af ba
       0.061164152 -0.039168328 0.03992357 -0.0013411114
000060 9a cb 25 3c 1c ed 19 3e 95 c9 bb 3c 53 5f 95 3a
       0.010119343 0.15031856 0.02292327 0.0011396207
000070 de b9 53 3d 29 b7 06 3c a4 81 10 bc 26 95 82 bc
       0.05169093 0.00822238 -0.008819971 -0.01594026
000080 ee 91 72 bc d5 90 fc ba 24 9d c3 3c 03 cc 94 bc
       -0.0148053 -0.0019269238 0.023878641 -0.018163687
000090 29 3e 10 bc 2d 4a a1 bc 3d 4b 2d 3a a8 5d 41 3d
       -0.008803883 -0.01968869 0.00066106376 0.04720846
0000a0 eb 0f 18 3d 35 16 4a 3d d0 8c 80 3d ee 80 d5 bb
       0.037124556 0.049337585 0.06276858 -0.0065156138
0000b0 b0 b7 8b 3c 6e ab bd 3c ef 75 6d bc 34 c9 83 3b
       0.017055362 0.023153033 -0.01449345 0.004021788
0000c0 ed fd 25 3d 69 e6 be b9 20 0e c2 3b e7 85 36 bc
       0.040525366 -0.00036411293 0.005922094 -0.011140323
0000d0 56 f2 4c bc 52 6f af 3c 6d c5 0f 3d 48 c6 7f bc
       -0.012508949 0.021415386 0.03510039 -0.015611239
0000e0 17 e2 16 3c 9e 4a 98 bc 65 b1 ab bc b3 64 f7 3c
       0.009209177 -0.018590268 -0.020958612 0.030199384
0000f0 87 9c 0b 3d 01 b4 27 3c 4e c2 19 3c 86 70 ec bc
       0.034084823 0.010235787 0.009384705 -0.02886225
000100 42 3d c3 bc 77 b6 89 bc 7c 25 e1 3c f0 ac f5 3c
       -0.023832921 -0.016810639 0.027483694 0.02998969
000110 4e 19 b0 3b e5 36 03 3e 48 a3 da ba 32 f5 76 3c
       0.0053741103 0.1281391 -0.0016680742 0.015073108
000120 f0 e0 2a bc 61 34 16 bd fd 1f 02 3d 85 79 49 bc
       -0.010429606 -0.036671046 0.031768788 -0.012297039
000130 6f 60 86 3b d4 0e 76 bb 65 32 df bc a4 12 8f 3c
       0.0041008512 -0.003754546 -0.02724571 0.017464943
000140 b2 41 95 bd 12 69 dc bc a7 3b 39 bc af 62 9e bb
       -0.07287921 -0.02690557 -0.011305726 -0.0048335413
000150 63 fe 7c 3c 3b ba ab 3c 17 99 95 3a 1b 6c 9f bc
       0.01544151 0.020962825 0.0011413422 -0.019460728
000160 a5 b0 44 3c 0d 67 9b bc 6f 9a b5 3a 7c b4 9e bb
       0.012005006 -0.018970037 0.0013855229 -0.0048432928
000170 23 85 b5 bb c3 93 ac 3c d8 b4 50 bd 9d a9 04 3c
       -0.005539553 0.021066552 -0.050953716 0.00809708
000180 72 88 e1 bc c6 38 1e 3d 48 de 47 bd ca ff 26 3d
       -0.027530883 0.038628362 -0.04879597 0.040771283
000190 c8 e4 33 3a 68 0b aa 3c 2b be 51 bc 9b 4b a9 3c
       0.0006862399 0.020757392 -0.012801687 0.020665934
0001a0 19 c5 ee 3b 39 fb 8f bc 3d 7d 82 3c 7d f4 ae 3c
       0.0072866795 -0.017575847 0.015928859 0.021356815
0001b0 14 ba de 3d 45 1f 8c bc f4 d7 83 bc c5 3d f0 bb
       0.10875335 -0.017104754 -0.016094185 -0.0073315823
0001c0 b4 ac d2 3a 62 bc 8e bc e0 d3 ea bb cf 95 03 3c
       0.0016073198 -0.017423812 -0.0071663707 0.008031323
0001d0 67 b9 93 bd a6 1e 96 3b 5a bb a1 bc 67 d9 88 bc
       -0.07213097 0.0045812903 -0.019742656 -0.016705228
0001e0 b0 c7 64 bb 46 68 4a 3b 98 4a 47 bc ea b9 75 3c
       -0.0034909062 0.0030884906 -0.012163781 0.014997939
0001f0 88 29 4e 3c 50 6b 86 3d bc 15 32 3d 78 46 3d bb
       0.012583144 0.06563437 0.04347776 -0.0028881114
000200 ca 59 11 3d d4 8c 0f bc cc 8e 42 3c de 94 6c 3c
       0.03548602 -0.008761603 0.011874866 0.01443979
000210 2d 0d 33 3c c8 30 5b bd a4 f3 aa bc b6 98 7f 3d
       0.010928434 -0.05351332 -0.02086813 0.062401496
000220 53 55 1b bc dd 2e 5d bc f4 98 d7 3c 0e 5f 01 bb
       -0.009480792 -0.013499943 0.02631805 -0.0019740495
000230 fc 5f 03 3d 77 e9 cd 3c 62 b2 e5 3b ae c9 84 bb
       0.03207396 0.025135739 0.0070097903 -0.0040523624
000240 20 c0 99 3c 0b bb af 3a 2c 8c 05 bc 87 e3 48 3d
       0.01876837 0.0013407184 -0.008151095 0.049045112
000250 57 0d 11 bd 56 9d 41 3b 45 48 da 3c c9 8f 9c bc
       -0.035413112 0.0029543242 0.026645789 -0.01911153
000260 ca 48 c1 3b 4b d6 21 bc 34 a6 37 bd b9 e4 ea 3c
       0.0058985697 -0.009877752 -0.044836238 0.028673517
000270 4b 2d bf 3b 93 00 be 3c ee f6 7c bc 5e 6c 5a 3d
       0.0058342568 0.023193633 -0.015439732 0.053326003
000280 26 60 99 bb 6c f2 0d bc 22 88 80 3c bc 87 d3 bc
       -0.0046806512 -0.008663755 0.015689913 -0.02582156
000290 32 5d a9 3c 83 d5 b8 bc c7 57 a1 bc f4 34 63 3c
       0.020674322 -0.022562748 -0.019695176 0.0138676055
0002a0 97 75 df bb f3 b3 1c bd 5f 14 93 3c fd c0 56 bd
       -0.0068194377 -0.03825755 0.01795405 -0.05243014
0002b0 44 ca ef 3c bc f9 15 3d 88 01 47 bc 5f 82 bf 3d
       0.029271252 0.03661512 -0.012146361 0.09351038
0002c0 67 f7 4a 3d 7f 69 c5 3c 30 ad e0 bc 33 4b dd 39
       0.049552348 0.024098156 -0.027426332 0.00042208433
0002d0 84 09 53 bb 6c 89 36 3c 70 da 41 bc b1 6d 64 bb
       -0.0032201717 0.011141162 -0.011831865 -0.003485542
0002e0 68 7a 06 3d 4b da 87 bc 77 2f 60 3c 99 bf c4 3b
       0.03283158 -0.016583582 0.0136831915 0.0060042855
0002f0 31 65 d1 3c f1 27 56 3d df 85 fa bc fa 9a e6 bb
       0.025560947 0.052284185 -0.030581413 -0.0070375176
000300 11 a6 c8 3c cb dc 8f bd 2b 02 d7 3b 63 88 47 3d
       0.02449325 -0.07024535 0.0065615377 0.048714053
000310 ae 57 61 3c ad 8c 1c bc d7 92 ad bc 8a 49 86 bc
       0.013753815 -0.009555024 -0.021188183 -0.016392488
000320 0a 5d 27 3d 8c c7 e3 3c 6c bf f9 3b 33 59 e3 3c
       0.040860213 0.027805112 0.007621696 0.027752494
000330 9e 50 64 bd 0d f2 c3 3b 2d a9 33 3c e6 64 aa 39
       -0.055740945 0.0059797824 0.010965628 0.00032500102
000340 74 2d 29 3a ab 88 1b 3d de 58 85 3d 88 37 66 3d
       0.00064536114 0.037972134 0.06511091 0.056205302
000350 05 a3 3f 3c 5c 6a ac 3b 9b f9 9a 3c e6 2a aa bb
       0.011696582 0.0052617025 0.01891785 -0.005193102
000360 48 d4 47 3c e0 f1 7a bd ed 68 95 bc 73 ef 52 bc
       0.012196608 -0.061265826 -0.01823851 -0.012874472
000370 8d 62 1f bc 6f ac ee bb 6b 3e 94 bb f8 4b ce bc
       -0.009728086 -0.0072837393 -0.0045240424 -0.02518271
000380 ee b7 0f bc 2c 81 dd 3c 98 9d 2b bc b1 02 53 3c
       -0.00877188 0.027039133 -0.010474585 0.01287906
000390 d9 91 4a bd 3f 17 e7 3c 6c 78 4f 3b 7c fc e5 ba
       -0.049455497 0.028209327 0.003165747 -0.001754656
0003a0 17 b7 96 ba 73 90 6e bc 3a 93 44 bc c1 6e 2f 3c
       -0.0011498657 -0.014560807 -0.011997992 0.010707558
0003b0 58 a3 9d 3b 1f dc cb 3c 99 29 e4 3c 23 93 c9 bc
       0.004810732 0.024885235 0.027851867 -0.024606293
0003c0 1e 22 b2 bc d9 54 79 3c e1 d1 47 ba 59 ed 1c 3d
       -0.021744784 0.015217983 -0.0007622522 0.03831229
0003d0 39 a2 0e 3b db ae 2e 3d db 9a a0 3a db 38 63 bc
       0.0021764173 0.042647224 0.0012253182 -0.013868536
0003e0 0f 35 85 3d 0a 2d c8 bc 17 d0 7e 3b c7 75 e3 bc
       0.06504261 -0.024435539 0.0038881355 -0.027766122
0003f0 8d 58 97 3b 68 05 ac 3d 6c 27 66 3b 12 82 32 bd
       0.0046187104 0.08399469 0.0035118712 -0.043581076

batchnorm_1.weight f4 [128]
000000 2a f8 31 3f d3 bc 61 3f ec 54 1a 3f e7 ff 2f 3f
       0.69519293 0.8817875 0.6028583 0.6874985
000010 d9 78 0d 3f 32 46 40 3f 4f a2 1c 3f 83 dc ca 3f
       0.55262524 0.7510711 0.61185163 1.5848545
000020 91 99 c7 3e 7c 37 fd 3e 46 51 17 3f a9 04 3f 3f
       0.3898435 0.49456394 0.5910839 0.74616486
000030 26 ff 1c 3f 5e 8e 1a 3f 22 4c 26 3f e1 b8 14 3f
       0.61326826 0.60373485 0.6495992 0.580946
000040 30 5b e8 3e ea 4d 3c 3f d6 a1 12 3f f0 0f a7 3e
       0.4538207 0.7355639 0.5727819 0.32629347
000050 7f f6 c5 3e 56 7d 16 3f df 88 21 3f 63 fb 4e 3f
       0.38664624 0.58785 0.63099474 0.80852336
000060 01 d8 f3 3e 96 de 88 3f de a0 90 3f ca f3 e0 3e
       0.47625735 1.0692928 1.1299093 0.43935996
000070 f2 86 21 3f ee 3e 32 3f c2 b4 4c 3f 9a 05 29 3f
       0.63096535 0.69627273 0.79963315 0.6602417
000080 70 57 2a 3f 26 a6 7f 3f 98 20 4c 3f d4 ef 5e 3f
       0.6653967 0.998629 0.79737234 0.870847
000090 ef 31 0e 3f f8 06 83 3f ab ae 0b 3f 53 2c 4f 3f
       0.5554494 1.0236502 0.545634 0.8092701
0000a0 33 ce f4 3e 14 f6 ad 3e 6e e9 02 3f de f8 80 3f
       0.47813568 0.33976805 0.51137435 1.0075948
0000b0 97 a8 a3 3e 70 c2 9b 3f 0d a3 62 3f 24 18 dc 3e
       0.3196456 1.2168713 0.88530046 0.42987168
0000c0 3d 29 40 3f 62 d4 ac 3e 2a 5d 0d 3f 24 ec 62 3f
       0.75062925 0.33755785 0.5522028 0.8864157
0000d0 17 3c d0 3e 08 13 58 3f 76 59 1a 3f fc f3 07 3f
       0.40670845 0.8440404 0.60292757 0.53106666
0000e0 9b e3 50 3f a7 86 05 3f 8a 0f ea 3e e3 c8 1c 3f
       0.815973 0.5215859 0.4571498 0.6124403
0000f0 b4 d4 2e 3f 0a 8f 0e 3f 9f db 17 3f 6f 64 42 3f
       0.6829331 0.5568701 0.5931949 0.759345
000100 34 1f 2c 3f cd b1 4d 3f 94 b6 0f 3f 59 39 e5 3e
       0.6723511 0.8034943 0.5613797 0.44770315
000110 7b e3 11 3f 4b d8 03 3f f0 a5 2a 3f 83 72 ff 3e
       0.5698773 0.5150191 0.6665945 0.49892053
000120 4b 0f 33 3f f2 e5 3b 3f 8c 20 ff 3e bf 12 1e 3f
       0.6994521 0.73397744 0.4982952 0.61747354
000130 81 56 15 3f 56 90 2f 3f 6b d7 0b 3f 6d a2 7f 3f
       0.5833512 0.68579614 0.54625577 0.9985722
000140 08 c8 45 3f dc 1b 56 3f d6 08 30 3f f1 53 d9 3e
       0.7725835 0.8363626 0.6876348 0.42446855
000150 c9 6a cd 3e b7 14 42 3f 2f c7 cb 3e 80 14 82 3f
       0.40120533 0.7581286 0.39800403 1.0162506
000160 e2 2a e2 3e 36 cf 70 3f 4c 0d 85 3f 87 42 04 3f
       0.44173342 0.9406618 1.0394683 0.5166401
000170 61 9e 00 3f 30 f4 3a 3f 60 f5 f6 3e 40 21 89 3f
       0.5024167 0.7302885 0.4823408 1.0713272
000180 96 5f ab 3e 5e 54 20 3f b3 d4 17 3f e3 d9 28 3f
       0.33471364 0.62628734 0.5930893 0.6595747
000190 ee 6f 0f 3f ae 82 ea 3e 72 69 6b 3f 6d ce 00 3f
       0.56030166 0.45802826 0.9195777 0.5031498
0001a0 7b 3e 11 3f a2 d3 eb 3e 0e 65 84 3f 6e 93 b7 3e
       0.5673596 0.460599 1.034334 0.35854667
0001b0 dd 62 87 3e 1a eb 32 3f e5 8d ef 3e 1b 8d 18 3f
       0.26442614 0.69889987 0.46787944 0.5959031
0001c0 31 0f 4d 3f bb 98 02 3f a8 e6 81 3f 9d 0b 37 3f
       0.80101305 0.510143 1.0148516 0.71502095
0001d0 d4 9a 41 3f 02 18 8b 3f e3 8b 2f 3f 62 f1 64 3f
       0.75626874 1.0866702 0.68572825 0.8943082
0001e0 e5 01 2c 3f ad bf 1d 3f 8d 6f 2d 3f 44 52 37 3f
       0.6719039 0.616206 0.6774834 0.716099
0001f0 a9 f9 22 3f 88 f1 8c 3e b1 12 7a 3f 59 c7 81 3f
       0.636622 0.27528024 0.9768477 1.0138961

batchnorm_1.bias f4 [128]
000000 c8 e6 c8 be 26 fb 7c be 96 84 29 be aa 8f 19 bf
       -0.39238572 -0.2470518 -0.16554484 -0.5998484
000010 77 14 18 bf c4 e6 a7 be fd cb 0b bf 75 0a 7e be
       -0.59406227 -0.32793248 -0.54608136 -0.24808677
000020 07 65 0f be d5 a2 ad bd 0c 06 4e 3e 4d 74 e5 be
       -0.14003383 -0.08478323 0.20119494 -0.44815293
000030 76 c4 03 bf 15 33 93 be 9a b9 45 be ef f2 92 be
       -0.5147165 -0.2874991 -0.19309083 -0.2870097
000040 45 25 dc be 3b 05 18 bf 9f fd 9a 3e fd 5b 0d 3e
       -0.42997184 -0.5938298 0.30271623 0.13804622
000050 04 3f a6 be 98 34 c5 be 6f ab 76 be f1 3a 17 bf
       -0.32469952 -0.38516688 -0.24088834 -0.5907431
000060 7e d8 9c be 0b 7f 76 be d5 cb 09 bf d2 6d 19 be
       -0.3063392 -0.240719 -0.5382665 -0.149833
000070 79 ab 13 bf ec 15 1f bf 3f 84 ff be f3 ed 45 bf
       -0.5768352 -0.62142825 -0.49905583 -0.77316207
000080 d7 a6 60 bf 97 f4 06 bf 2b b5 8e be d7 91 79 be
       -0.8775458 -0.52716964 -0.27872595 -0.2437204
000090 80 09 7a be d1 bd 2b bf 82 5a b7 3e 25 05 21 be
       -0.24417686 -0.6708651 0.3581124 -0.15724619
0000a0 f0 f5 a3 be 61 c9 9a 3e d9 56 8b bd b5 62 e4 be
       -0.32023573 0.30231765 -0.06803674 -0.44606557
0000b0 8a 31 8a be 8a 45 cc be f0 80 ad be 63 b4 ef bd
       -0.2699092 -0.39896804 -0.33887434 -0.11704328
0000c0 38 b0 8b bf e9 99 b8 3d 66 5d a2 be f8 aa 2e bf
       -1.0913153 0.09013731 -0.31711882 -0.6822963
0000d0 a5 2f ab be 4c 76 f6 3d 64 50 10 bf af 78 84 be
       -0.33434787 0.12034282 -0.56372666 -0.25873324
0000e0 67 71 8c be c6 3a 25 be 4e ee ce 3d be 0a 61 be
       -0.2743027 -0.16135702 0.10104047 -0.21976754
0000f0 23 ec 91 be 0c 92 c0 be 5e 63 dc be 9c 45 ad be
       -0.2850047 -0.37611425 -0.4304456 -0.3384217
000100 93 1a cb be e1 6b 88 be 12 82 fd be 24 94 cf be
       -0.39668712 -0.26644805 -0.49513298 -0.4054271
000110 8e b2 0b bf aa 4d d4 be d8 75 1f bf 4f 04 9f be
       -0.5456933 -0.41465503 -0.6228919 -0.31057975
000120 59 6b be be 26 7c cf be 1f 39 ad be 78 f7 be be
       -0.37191275 -0.40524405 -0.33832642 -0.3729818
000130 8c 27 e2 bd de ac 03 be 52 7e 08 bf 8e b4 77 be
       -0.11042699 -0.12858912 -0.5331775 -0.2418997
000140 5f 6e 32 be e8 5d ce bd ce e6 24 bf 47 4c d4 bc
       -0.17424916 -0.10076505 -0.6441468 -0.025915278
000150 6b fe 40 be 9b 06 1c be 50 3a 63 be 9e 5f 08 bf
       -0.18847053 -0.15236895 -0.22190213 -0.532709
000160 09 28 94 be a8 1c ca be db 2f 8c be 97 e8 38 be
       -0.28936794 -0.39474988 -0.2738026 -0.18057476
000170 b2 da ce be 7e c7 44 bf ea e7 bd be a0 ec 70 be
       -0.40401226 -0.768669 -0.37091 -0.23527765
000180 42 a9 ca bd 06 09 38 bf d2 53 ef be 11 42 25 bf
       -0.098955646 -0.7188877 -0.46743637 -0.64553934
000190 df c9 d9 3c d4 c4 e8 3c 78 c7 18 bf e5 87 dc bd
       0.026585517 0.028414167 -0.59679365 -0.10768107
0001a0 53 bb d1 be ef 4f 81 be dc c6 3c be 84 5e 89 be
       -0.4096323 -0.25256297 -0.18435234 -0.26829922
0001b0 03 0e 12 be e2 dd c6 be 7f 40 07 be 62 d1 9a bd
       -0.14263158 -0.38841158 -0.13208197 -0.07559468
0001c0 0c 06 b7 be 9a 09 b2 be 6c 28 d4 3d 63 93 18 be
       -0.357468 -0.3477295 0.10359272 -0.14899974
0001d0 43 3c 5e be e4 a1 7f be b9 26 90 be 94 b4 0c bf
       -0.21702676 -0.249641 -0.28154543 -0.5496304
0001e0 34 a4 44 bf f2 0a 20 bf 74 a5 38 bf fb 57 87 be
       -0.76813054 -0.625167 -0.7212746 -0.2643431
0001f0 f9 35 1c bf 9d 67 f3 3c 41 75 f7 bd e7 34 17 bf
       -0.61019856 0.029712493 -0.12082911 -0.590651

batchnorm_1.running_mean f4 [128]
000000 75 03 a6 be 55 ef 66 3e 1b 0c d5 3e 5c e1 2a c0
       -0.32424513 0.22552235 0.41610798 -2.6700048
000010 4a 84 53 c0 e0 7f 99 bf 56 df 45 c0 86 d3 52 bd
       -3.3049493 -1.1992149 -3.0917563 -0.051471256
000020 6f 22 b2 3f e1 28 53 3e f4 77 2d 3e 66 b9 1d bf
       1.3916758 0.20621063 0.1694029 -0.6161102
000030 42 68 91 bf f3 74 46 bf 19 4f 24 40 af 1d 98 bf
       -1.1359942 -0.775222 2.5673277 -1.1884059
000040 2d 9d 2e 40 21 98 c4 3d 1c 58 81 40 5f 33 ea 3e
       2.7283432 0.09599329 4.0420055 0.45742318
000050 99 83 7a 3f bc fc 0c bf bf a1 21 bf 28 9e a8 bf
       0.9785705 -0.5507314 -0.6313743 -1.3173265
000060 14 cd 83 c0 9d 9a e7 3d 40 4e c4 3f 91 3f 08 bf
       -4.118784 0.11308787 1.533638 -0.53221995
000070 10 4a 2b c0 d7 23 20 c0 99 85 a7 be 3b d4 c0 3f
       -2.6763954 -2.5021875 -0.32719114 1.5064768
000080 98 3a 81 bf b8 70 a2 bf f8 02 22 bf dd b3 1a bf
       -1.0096006 -1.2690649 -0.6328578 -0.604307
000090 c7 bb 88 be 31 0f 98 3e 4b 85 95 bd 3e 35 ec be
       -0.26705763 0.2969909 -0.07300814 -0.4613437
0000a0 01 fc 12 3f b8 56 c8 3f ea 94 f5 bf cd 36 80 be
       0.5741578 1.5651464 -1.918607 -0.2504181
0000b0 f2 ae 83 3e c1 55 34 be ab dd b9 3e 81 34 80 3d
       0.2571941 -0.17610838 0.36301932 0.06260014
0000c0 02 4d bb be dd 1e 47 bf 5e 0d 6b 3f cb 93 7c c0
       -0.3658219 -0.7778147 0.9181727 -3.9465206
0000d0 3f cc 58 3f 96 15 fa 3e 6d 0d 9d bd 0d 2e b4 bf
       0.84686655 0.48844594 -0.076685764 -1.4076554
0000e0 dd 9e d8 3f 88 9b 01 3f 25 8b c5 bf c8 b6 ba 3f
       1.6923481 0.50627947 -1.5433089 1.458703
0000f0 c9 5c a5 be a0 55 70 c0 46 cf 12 bf 05 f9 b1 be
       -0.32297352 -3.7552261 -0.57347524 -0.347603
000100 00 c6 91 bf 9f 8f 48 3e a8 3e 80 bf 02 fd 0e c0
       -1.138855 0.19586037 -1.0019121 -2.2341924
000110 47 7e 51 c0 c8 6c 04 3f d1 b0 09 c0 04 7f 10 be
       -3.2733324 0.51728487 -2.151417 -0.14110953
000120 07 3a 48 3f 69 eb ef 3e 9a 35 d5 bf 71 29 23 bf
       0.7821354 0.4685929 -1.6656983 -0.6373511
000130 61 c1 6d bf 7e 9c 2d c0 00 88 22 bf 0b 21 e2 be
       -0.928732 -2.7126765 -0.6348877 -0.44165835
000140 fa 6a 25 be 41 9d 4f 3f 67 25 c4 be 62 7e b5 3f
       -0.1615409 0.81099325 -0.38309786 1.4179194
000150 5b 57 17 c0 17 73 83 3e 55 79 63 c0 df 61 f8 3e
       -2.3647068 0.25673744 -3.5542805 0.4851217
000160 6b e3 6b 40 96 af 09 bf a7 ce 5b bc 15 97 2e 3f
       3.6857555 -0.5378355 -0.013415969 0.6819928
000170 67 e5 9b 3f cf ee 04 3f bb da b4 3f f6 44 97 bd
       1.2179383 0.51926893 1.4129251 -0.073862
000180 b7 06 ea 3f c7 bb 25 bf c5 b9 09 40 7d b0 21 c0
       1.8283299 -0.6473965 2.1519635 -2.526397
000190 58 71 61 bf fb 8f 3d 3f 4d c8 6d 3e 7e 63 78 3e
       -0.88063574 0.7404782 0.2322094 0.24256703
0001a0 8a 73 2d 40 db ba 64 be e7 0c 89 3e fb 29 e1 bf
       2.710177 -0.22336905 0.26767656 -1.7590936
0001b0 1b 8e f3 be ed 67 60 3f fe 54 56 be 53 d1 11 40
       -0.47569355 0.8765858 -0.2093086 2.2784011
0001c0 f1 fa 95 3d 33 c5 93 3e 77 38 77 3f cd ba b7 3f
       0.07323254 0.2886139 0.96570534 1.4353882
0001d0 91 9f 69 3e ee da 1e bd 87 b8 03 3e b5 56 dc bf
       0.22814776 -0.038783006 0.1286336 -1.7213961
0001e0 61 d6 c1 3d 6b 45 01 3f b2 09 8f 3f 5c e4 6a be
       0.09464718 0.5049655 1.1174834 -0.22938675
0001f0 c5 c1 11 40 36 f6 de be 84 16 42 40 1d b9 1d bc
       2.2774518 -0.4354722 3.0326242 -0.009626654

batchnorm_1.running_var f4 [128]
000000 d9 7e 02 41 04 17 8f 41 fe fa a7 41 eb be 6a 41
       8.155969 17.886238 20.997555 14.671611
000010 dc c4 bc 41 8b 1a 04 42 53 d6 ec 41 d4 70 07 41
       23.596123 33.02592 29.60465 8.465046
000020 f8 ef 69 41 fa 21 1e 41 39 bb 0d 42 37 41 ad 41
       14.621086 9.883295 35.432835 21.656843
000030 6d be 08 41 fd 79 f4 40 bb 0a 88 41 78 be 77 41
       8.546491 7.639891 17.00524 15.484001
000040 ee 07 d0 41 7c cf 42 41 50 ef 00 42 f4 99 ed 41
       26.003872 12.175655 32.233704 29.700172
000050 c5 47 7a 41 97 83 0d 41 ff 08 e5 40 53 92 91 41
       15.642522 8.844626 7.157348 18.196447
000060 ea b8 da 41 0d 5d f0 40 db b5 2f 41 5e c0 5f 41
       27.34029 7.5113587 10.981898 13.984465
000070 84 28 80 41 4f 00 67 41 eb 60 dc 40 b1 5d 41 42
       16.019783 14.437575 6.886831 48.341496
000080 f8 7c 96 41 18 6c e2 40 87 d6 9b 40 5b f9 47 41
       18.81102 7.075695 4.8699374 12.498378
000090 dc fa c8 41 d3 12 08 41 5d 25 d8 40 f7 8b 65 41
       25.12249 8.504596 6.754561 14.346671
0000a0 62 68 40 41 84 9f 8e 41 3c 93 fe 41 ef 2d 19 41
       12.025484 17.827888 31.821892 9.573714
0000b0 71 9e 8d 41 a5 cb 0d 41 6f 04 bc 41 34 0f 4b 41
       17.702364 8.862218 23.502165 12.691212
0000c0 fa 88 93 42 7a d1 7e 41 29 06 e6 40 27 9f 91 41
       73.76753 15.926142 7.188252 18.202711
0000d0 c4 6b b1 41 5e ec fe 40 7b f6 95 41 37 c3 39 41
       22.17762 7.9663534 18.745352 11.61016
0000e0 92 39 6f 41 b2 93 cc 41 c4 46 3f 41 d3 d4 38 41
       14.951555 25.572117 11.954777 11.551959
0000f0 2c b2 10 41 f9 d1 68 41 85 c7 e3 40 d6 f9 eb 41
       9.043499 14.551263 7.1181054 29.49699
000100 d4 0b 57 41 5f f7 01 41 63 c3 81 41 ac 38 b3 41
       13.440388 8.122893 16.220404 22.402672
000110 4b 17 a2 41 f4 4e 1b 41 73 70 a7 41 cd f3 2c 41
       20.261374 9.706776 20.929907 10.809522
000120 4b eb 65 41 fb b3 9b 41 55 4e 69 41 cf 05 16 41
       14.369945 19.462881 14.581624 9.376418
000130 ea f8 87 41 06 38 29 42 7e 4c 40 41 76 7e f5 40
       16.99654 42.30471 12.018675 7.671687
000140 0f 36 d4 40 8b 5a 41 41 bb 46 c3 41 ce 86 5a 41
       6.631599 12.084605 24.409536 13.657911
000150 8c b7 de 40 7b 3e d8 40 a4 93 80 41 c9 a9 56 41
       6.9599056 6.757627 16.07209 13.416451
000160 7f 16 ac 41 b6 9c e0 40 88 db de 40 64 b9 1d 41
       21.510984 7.0191298 6.9642982 9.857761
000170 20 d2 36 41 2a 62 f6 41 b2 c0 f7 40 b8 95 0f 41
       11.4263 30.797932 7.7422724 8.974052
000180 7b a4 0d 41 d7 aa 1c 41 3a 69 d3 41 de ac c3 41
       8.852656 9.791709 26.42638 24.459408
000190 5c ce 0c 41 be 53 b7 40 0d d1 21 41 ee 09 66 41
       8.800381 5.7289724 10.113538 14.377424
0001a0 f0 a4 8c 41 28 41 ba 41 1b 8a ab 40 1a 15 3d 41
       17.580536 23.281815 5.3606086 11.817652
0001b0 32 c5 ae 40 be f2 0b 41 c7 f0 93 40 58 d7 1c 41
       5.4615717 8.746763 4.623142 9.802574
0001c0 4c 35 bf 40 c7 39 42 41 79 fd 28 41 7f a0 7e 41
       5.975256 12.139106 10.561883 15.914184
0001d0 bb b0 7e 41 a4 2e cd 40 1d 91 1e 41 76 ba 0b 41
       15.918147 6.4119434 9.910428 8.733023
0001e0 5e 3f 8e 41 1b 18 53 41 57 94 b1 41 c3 79 ed 40
       17.780941 13.193385 22.197432 7.4211135
0001f0 97 96 6d 41 45 fc 50 41 ca 7f 54 42 9f 03 05 41
       14.849265 13.061589 53.124794 8.313384
