ddpg_single_normal_distribution_noise_2/checkpoint_actor.pth (torch_old, 157461 bytes, 10 tensors)

fc1.weight f4 [128, 33]
0	0xbe03f1ad	-0.1288516
1	0xbe2129ab	-0.15738551
2	0xbe1e9ece	-0.15490267
3	0x3be0f7cb	0.0068654767
4	0x3d8f03f8	0.06983179
5	0x3d0e94dd	0.034809936
6	0xbe75671e	-0.23965117
7	0xbcc8e86f	-0.024524895
8	0x3da8d5c5	0.08243898
9	0x3d759210	0.05995375
10	0xbcc15299	-0.023598956
11	0xbd0bedaf	-0.03416222
12	0xbd4e27d8	-0.050330967
13	0xbd5c616f	-0.053803857
14	0xbb159f2d	-0.0022830472
15	0x3d34c046	0.04412868
16	0xbd5163d7	-0.051120605
17	0x3cd54689	0.02603461
18	0x3cbbc24f	0.022919802
19	0x3bac1c49	0.0052523953
20	0x3a8017e5	0.0009772746
21	0x3d607b68	0.05480519
22	0xbd59ac14	-0.053142622
23	0x3c80d7f2	0.01572797
24	0x3cde0692	0.027102742
25	0xbc4269ab	-0.0118660135
26	0xbd147c49	-0.03625134
27	0x3db218d4	0.08696142
28	0x3cf432c7	0.029809369
29	0x3d42420a	0.04742626
30	0x3cf2511c	0.029579692
31	0x3d8b8465	0.06812362
32	0x3eca7cd9	0.39548376
33	0xbe6eb6a6	-0.23311862
34	0x3c987251	0.018609198
35	0x3d24ffeb	0.040283125
36	0x3d221904	0.039574638
37	0xbda0880d	-0.078384496
38	0xbc9f8d8a	-0.01947667
39	0x3ce5db71	0.02805874
40	0xbc18adcb	-0.009318779
41	0x3dbfcd1d	0.09365294
42	0xbd1350e1	-0.035965804
43	0xbbfa78df	-0.0076438035
44	0xbc0492f2	-0.008091675
45	0xb99bf8b3	-0.000297492
46	0x3e1941d7	0.14966522
47	0xbd18c26b	-0.037294786
48	0xbd3a5813	-0.04549415
49	0x3ccf0c49	0.025274413
50	0x3caba54b	0.020952841
51	0xbd115409	-0.035480533
52	0x3cd3d765	0.025859544
53	0xbbe845b5	-0.007088388
54	0x3c427e8c	0.011870991
55	0x3a0e5fff	0.00054311746
56	0x3d6c33bd	0.05766653
57	0xbc8bc9a3	-0.017063921
58	0xbcca5501	-0.024698736
59	0xbc3bba38	-0.011457972
60	0xbc56452f	-0.013078018
61	0xbc4e1c01	-0.012579919
62	0x3caa042c	0.020753942
63	0xbd93cfbf	-0.07217359
64	0xbd71c4c2	-0.059025533
65	0xbb48f9b1	-0.0030666406
66	0xbcb8ca59	-0.022557424
67	0x3d8c822d	0.068607666
68	0xbc4d52e4	-0.01253197
69	0x3be666d0	0.007031299
70	0x3d68c5d6	0.056829296
71	0x3e5082a3	0.20362334
72	0x3c621325	0.01379851
73	0x3d8383ed	0.06421647
74	0x3d0f7ca0	0.03503096
75	0xbded3923	-0.115831636
76	0x3c7662be	0.01503819
77	0xbad6ac6c	-0.001637829
78	0xbc95250a	-0.018206138
79	0x3de1e04b	0.110291086
80	0x3d227c63	0.039669406
81	0xbda682eb	-0.08130439
82	0x3d644ac7	0.055735376
83	0xbbc91db3	-0.0061375736
84	0x3d4691b4	0.048478797
85	0x3d869306	0.06571011
86	0xbc20b437	-0.009808592
87	0xbd801745	-0.06254438
88	0xbd799395	-0.06093176
89	0x3c8b1a64	0.016980357
90	0x3d5cdbd4	0.053920582
91	0x3c9f84f2	0.019472573
92	0x3d426e36	0.047468387
93	0xbd99fe26	-0.07519178
94	0xbdcf4f61	-0.10122562
95	0xbcc8d1bc	-0.024514072
96	0x3da72fbd	0.08163402
97	0x3d223b26	0.03960719
98	0xbeb45c8f	-0.35226867
99	0xbc262120	-0.010139734
100	0xbdcaba96	-0.0989887
101	0x3db89846	0.09013419
102	0x3dace7f9	0.08442683
103	0x3d438d32	0.047742076
104	0x3d8289e7	0.06373959
105	0xbc030bb2	-0.007998394
106	0x3ce3570e	0.027751472
107	0x3d656cdf	0.05601203
108	0x3b41f30d	0.0029594332
109	0xbd0eb8d2	-0.034844227
110	0xbd2f6976	-0.042825185
111	0x3d2ba2b6	0.04190322
112	0xbca713f5	-0.020395258
113	0x3d7e305c	0.062057838
114	0xbd8daf6d	-0.069182254
115	0x3ce83cc6	0.028349292
116	0xbd15d4f9	-0.03658006
117	0xbd28f6e6	-0.041251086
118	0x3d7fe5bb	0.062474947
119	0x3b2a648e	0.0025999877
120	0xbd606be6	-0.0547904
121	0xbb87c660	-0.004143521
122	0x3ceac1b6	0.028656822
123	0xbcd4d58f	-0.025980739
124	0x3b62032c	0.0034486754
125	0x3d3dc32d	0.046328712
126	0xbd263a3b	-0.040582877
127	0xbded750f	-0.11594593
128	0xbd242be5	-0.040080924
129	0xbc8fe364	-0.017564483
130	0xbd9a88e5	-0.07545642
131	0x3e7b22ee	0.24525043
132	0xbc20405a	-0.009780968
133	0x3d9cc27c	0.076542825
134	0xbda26ddc	-0.0793111
135	0xbc986102	-0.018600944
136	0xbd8ef219	-0.0697977
137	0x3e0c96be	0.13729379
138	0x3df6ad21	0.120447405
139	0xbccd40c9	-0.025055306
140	0x3d7334ed	0.059376646
141	0xbb14d74c	-0.0022711335
142	0x3b787162	0.0037909378
143	0xbb952f16	-0.004552732
144	0xbd24a8fe	-0.040200226
145	0x3cf62367	0.030046178
146	0xbd8f039a	-0.06983109
147	0xbd1e4fb5	-0.038650233
148	0x3d64deca	0.05587653
149	0x3cad0a2c	0.021123014
150	0xbdd7973a	-0.10526891
151	0x3d2ac84d	0.041694928
152	0xbc8104c1	-0.015749337
153	0xbd365c6d	-0.044521738
154	0xbcbd689a	-0.023121167
155	0x3b705a81	0.0036675038
156	0xbcc212ad	-0.023690546
157	0xbd2a4dba	-0.041578032
158	0x3c70cba1	0.014696986
159	0x3d96f590	0.07371056
160	0x3dcac930	0.09901655
161	0xbd647804	-0.05577852
162	0x3c9187f0	0.017765015
163	0x3c6fa640	0.014627039
164	0x3ee1eaed	0.44124547
165	0x3e0c4199	0.13696899
166	0x3e5067aa	0.20352045
167	0x3b993ebe	0.004676669
168	0xbda4aae7	-0.080404095
169	0x3d5c3b71	0.053767625
170	0x3b95d4c5	0.0045724832
171	0xbd5cd4bd	-0.05391382
172	0xbcd7753f	-0.026301024
173	0xbbc3d0f9	-0.005975839
174	0xbc3150b2	-0.010822462
175	0x3db08ae9	0.08620245
176	0x3b212b42	0.0024592434
177	0xbd22fc31	-0.03979129
178	0x3d194633	0.037420463
179	0xbd214982	-0.039376743
180	0x3ccb6c07	0.024831785
181	0xbd552e57	-0.052046146
182	0xbce4bdfc	-0.027922623
183	0x3db1baff	0.08678245
184	0xbcb8b00d	-0.022544885
185	0x3c8978ba	0.0167812
186	0x3cb9c049	0.022674697
187	0x3c78f238	0.015194468
188	0x3db29e12	0.08721556
189	0x3df7a800	0.1209259
190	0xbc736e33	-0.0148578165
191	0xb9d57940	-0.00040716864
192	0x3d8bd3ca	0.06827505
193	0xbcece996	-0.028919976
194	0x3c9f9884	0.019481905
195	0x3d1dd638	0.038534373
196	0x3d420b46	0.047374032
197	0xbe0ae4bb	-0.13563816
198	0xbe264fda	-0.16241398
199	0xbdb0347c	-0.086037606
200	0xbd51406b	-0.051086824
201	0x3ae34491	0.001733916
202	0xbd0d7cf6	-0.034543
203	0x3d7fa423	0.062412392
204	0x3d99d405	0.07511143
205	0x3c80e961	0.015736284
206	0xbcb57b5a	-0.022153545
207	0x3d95a969	0.07307703
208	0xbca56bb7	-0.020192964
209	0xbc2f0cf7	-0.010684243
210	0xbc081226	-0.008305108
211	0x3e2b4735	0.16726382
212	0x3d4d6446	0.050144456
213	0x3ce715ee	0.0282087
214	0x3d2ca08a	0.04214529
215	0xbc4bb5e2	-0.012433501
216	0x3d839ff8	0.06426996
217	0xbc254deb	-0.010089378
218	0x3b0c386c	0.0021395935
219	0x3c83e609	0.0161009
220	0x3afa34bb	0.0019089201
221	0x3d2bd0d4	0.0419472
222	0xbc3a33ec	-0.011364918
223	0xbad8aef2	-0.001653163
224	0xbd83ac2a	-0.06429322
225	0xbdaec43c	-0.085335225
226	0xbbf6a43c	-0.0075269025
227	0xbd003824	-0.03130354
228	0x3b381b8d	0.0028092593
229	0xbcaeb5d4	-0.021326937
230	0x3e639d92	0.22228077
231	0xbd17d823	-0.03707136
232	0x3e3bbb7e	0.18333241
233	0xbc98caab	-0.018651327
234	0xbd94a6ac	-0.07258353
235	0xbcfe935b	-0.031076124
236	0x3dc19d59	0.0945384
237	0x3da3ce40	0.079983234
238	0xbb43f025	-0.0029897776
239	0xbb3d0b3d	-0.002884581
240	0xbdd8c151	-0.10583747
241	0xbad691ee	-0.0016370395
242	0x3d3adb98	0.045619577
243	0xbd288efd	-0.04115199
244	0xbb971f50	-0.004611887
245	0x3e3f50af	0.18683122
246	0x3d6fe6dd	0.058569778
247	0x3d0e546f	0.03474849
248	0xbd3e6ebd	-0.046492327
249	0x3e24d222	0.16095784
250	0xbdb19871	-0.08671654
251	0x3cff457e	0.031161066
252	0xbc6e6978	-0.014551513
253	0xbab96713	-0.0014145098
254	0xbd2a5276	-0.041582547
255	0x3d7e8be8	0.062145144

fc1.bias f4 [128]
0	0xbda9da7a	-0.08293624
1	0xbc7a1ce9	-0.015265682
2	0xbe0bff0b	-0.1367151
3	0x3b73c160	0.0037194118
4	0xbe223a42	-0.15842536
5	0xbe0eec1d	-0.13957258
6	0x3dbf6fe6	0.09347515
7	0xbd46237b	-0.04837368
8	0xbd95d770	-0.07316482
9	0xbcf72851	-0.030170592
10	0xbe2ca223	-0.16858725
11	0x3e23339d	0.15937658
12	0xbba91b81	-0.0051607494
13	0xbcccd259	-0.025002645
14	0xbd986a08	-0.07442099
15	0x3db5589c	0.088547915
16	0xbe0d2721	-0.13784458
17	0x3d893e58	0.06701344
18	0xbdffa41a	-0.12482472
19	0xbd8c17d9	-0.06840486
20	0xbddf7688	-0.1091128
21	0xbddf79ef	-0.10911929
22	0xbcbe8fe9	-0.023261981
23	0xbe00a2e2	-0.12562135
24	0xbdef8e4d	-0.116970636
25	0xbe2c1b1d	-0.16807218
26	0x3d3d05af	0.046148
27	0xbe088282	-0.13331035
28	0xbca7068e	-0.020388868
29	0xbd2d6eec	-0.04234211
30	0xbe107fe4	-0.14111286
31	0xbdeea11a	-0.116518214
32	0xbc7c21e1	-0.015388937
33	0x3e0267e9	0.12734951
34	0xbd3d4fed	-0.0462188
35	0x3e1b78d5	0.15182813
36	0x3d83ba65	0.06432036
37	0xbe05caeb	-0.13065688
38	0x3d57fa6f	0.052729066
39	0xbe2a314d	-0.1662037
40	0xbdcba715	-0.09943978
41	0x3e2c02f5	0.16798003
42	0x3e2daebf	0.16961192
43	0xbdca8b40	-0.09889841
44	0x3caa1d6e	0.020765986
45	0xbe2f81f3	-0.17139415
46	0xbdc21a6a	-0.09477694
47	0x3cf3bb47	0.029752387
48	0xbe249c1f	-0.1607518
49	0xbd75de2f	-0.060026344
50	0xbda811dd	-0.08206532
51	0xbe05abdd	-0.13053842
52	0x3dbdc0e5	0.09265307
53	0xbde8f8a2	-0.11375548
54	0x3e1c7335	0.15278323
55	0x3d0526f5	0.032507855
56	0x3d6d0082	0.057861812
57	0xbe00173f	-0.12508868
58	0x3c1843b4	0.009293485
59	0x3e23b513	0.15987043
60	0xbdb94b10	-0.0904752
61	0xbd8bddf6	-0.06829445
62	0xbd89e233	-0.06732597
63	0xbd153ec8	-0.036436826
64	0x3dd3f752	0.10349907
65	0x3db4d10e	0.088289365
66	0xbd7baced	-0.06144421
67	0x3df6d7bb	0.12052866
68	0xbe23b13a	-0.15985575
69	0xbd56824c	-0.052370355
70	0xbce06e57	-0.027396364
71	0xbbf16606	-0.0073668985
72	0xbc3668e0	-0.011133403
73	0x3d76aac3	0.060221445
74	0x3d6ddd2b	0.05807225
75	0xbe191c1e	-0.14952132
76	0x3d93af66	0.07211189
77	0x3c8f26a4	0.01747448
78	0x3de55606	0.11198048
79	0xbcbde067	-0.023178292
80	0xbe22aa8d	-0.15885372
81	0x3d489707	0.048972156
82	0xbd9222d1	-0.07135547
83	0xbde3b83d	-0.11119125
84	0xbd000660	-0.03125608
85	0x3e0d511e	0.13800475
86	0xbe121650	-0.14266324
87	0xbd8edec9	-0.06976087
88	0xbe299f61	-0.16564704
89	0xbcecb08f	-0.028892783
90	0x3d3ee345	0.04660346
91	0x3db12e9e	0.0865147
92	0xbd5b78bb	-0.053581934
93	0x3e0289be	0.12747857
94	0x3d9e7c0f	0.07738506
95	0x3dcdd000	0.100494385
96	0xbdb5e300	-0.088811874
97	0x3df4b156	0.11947887
98	0xbd35e505	-0.044407863
99	0x3e052062	0.13000634
100	0x3dfed056	0.12442081
101	0xbe1b0da2	-0.1514192
102	0x3ca07f72	0.01959202
103	0x3ca9173b	0.02064096
104	0xbcfe8462	-0.031068984
105	0x3df8ff48	0.12158066
106	0x3d87d9b8	0.066333234
107	0xbe2f98a3	-0.1714807
108	0x3df9e0f6	0.12201111
109	0x3d223444	0.039600626
110	0x3d5e527d	0.054277886
111	0x3d04cb14	0.032420233
112	0x3c1fe433	0.009758997
113	0xbdb8e96b	-0.09028896
114	0x3d03ed6e	0.032208852
115	0x3b7dbf04	0.003871859
116	0x3d8b0431	0.06787909
117	0xbd232a6f	-0.03983539
118	0x3e05648d	0.13026638
119	0xbb9c88a6	-0.004777032
120	0xbcf7e2b9	-0.030259477
121	0xbd80bf47	-0.06286483
122	0x3e1f5ea8	0.15563452
123	0xbbbfc9b3	-0.005852902
124	0xbd876a25	-0.06612042
125	0xbd9c51f5	-0.076328196
126	0x3e2a342c	0.16621464
127	0xbe1e40ab	-0.15454356

fc2.weight f4 [256, 128]
0	0xbd86621e	-0.06561683
1	0xbe58cdf7	-0.2117232
2	0xbd4b060d	-0.049566317
3	0x3d81eded	0.06344209
4	0x3e2a57aa	0.16635004
5	0xbcb9e744	-0.022693284
6	0xbe21d7a9	-0.15804924
7	0x3d871f49	0.06597764
8	0x3d28d093	0.041214537
9	0x3daec033	0.08532753
10	0xbbfc6a29	-0.007703085
11	0xbd8ad8eb	-0.06779655
12	0xbe835daa	-0.25657398
13	0xbd1e6674	-0.038671926
14	0xbcd784aa	-0.026308376
15	0xbcb95fc1	-0.022628667
16	0xbd17b5b3	-0.037038516
17	0xbd8945ce	-0.06702767
18	0xbc912dd7	-0.017722053
19	0x3c30a29f	0.010780959
20	0xbe2a8138	-0.16650856
21	0x3c19868a	0.0093704555
22	0x3cc22f6b	0.023704251
23	0xbd4f8adf	-0.050669547
24	0x3d3e9513	0.046528887
25	0xbd1b3644	-0.03789355
26	0x3d6a3fec	0.057189867
27	0xbd125529	-0.035725746
28	0x3df20dd0	0.11819041
29	0xbe02553e	-0.1272783
30	0xbde8fe34	-0.113766104
31	0x3ca8e9da	0.020619322
32	0x3e5ae5a6	0.21376666
33	0x3d812030	0.063049674
34	0x3cc50a77	0.024052842
35	0x3d718ab9	0.058970187
36	0xbcba40d2	-0.022735987
37	0x3c63a91a	0.013895297
38	0x3dcec0a5	0.10095338
39	0x3d46c1a2	0.048524506
40	0x3c62aeda	0.013835633
41	0xbd6b1560	-0.05739343
42	0xbd7a5f63	-0.061126124
43	0x3c1637f5	0.009168615
44	0x3d54bd8b	0.051938575
45	0x3ccdf9fb	0.025143614
46	0x3ddffce8	0.1093691
47	0x3d34e4fe	0.044163696
48	0xbd4ef455	-0.050525982
49	0x3ce39169	0.027779298
50	0xbde44d15	-0.11147515
51	0xbd5177d9	-0.051139686
52	0xbc961c20	-0.018323958
53	0x3da51836	0.080612585
54	0x3d94b519	0.07261104
55	0x3cc6af76	0.024253588
56	0x3ce1c8da	0.027561594
57	0x3d993e53	0.074825905
58	0xbd02b8ad	-0.0319144
59	0xbc3c1a25	-0.011480843
60	0x3d8f41ef	0.06994998
61	0xbd6d2347	-0.05789497
62	0x3d905e09	0.07049186
63	0xbcb332d9	-0.021874832
64	0x3d86f354	0.0658938
65	0x3d6a9b15	0.057276804
66	0x3bb12411	0.005405911
67	0xbcf11855	-0.029430548
68	0x3e6c7a6d	0.23093577
69	0x3dcb04e4	0.09913042
70	0xbda4f297	-0.08054083
71	0xbb8590d8	-0.0040761046
72	0xbcd2b34b	-0.02572026
73	0x3dc54325	0.096319474
74	0x3c46714b	0.012111972
75	0xbd298ca5	-0.041393895
76	0xbcd2edd5	-0.025748173
77	0x3d0af577	0.0339255
78	0xbd38a535	-0.04507943
79	0x3d508e14	0.050916746
80	0x3d5fab76	0.054606877
81	0x3d5c48f8	0.053780526
82	0x3dae3be8	0.0850752
83	0x3d9616ca	0.073285654
84	0x3c6b278f	0.014352693
85	0xbd07c3ba	-0.033145644
86	0xbe28c98b	-0.16483133
87	0xbd8cb2e9	-0.06870062
88	0x377d924d	1.5114038e-05
89	0x3e15dcf9	0.14635076
90	0xbcc85c87	-0.024458183
91	0x3d9ed003	0.07754519
92	0xbd0aaadd	-0.033854354
93	0x3e0ec0e1	0.13940765
94	0xbd16e10c	-0.036835715
95	0xbdb3de59	-0.08782644
96	0xbdb8d90a	-0.09025772
97	0xbd1f6c13	-0.038921427
98	0xbabd059c	-0.0014421227
99	0x3d4f3eda	0.05059705
100	0x3cbd146c	0.023081027
101	0x3c8cd2b6	0.017190319
102	0xbc401936	-0.011724761
103	0x3c36e69b	0.011163379
104	0x3d630756	0.055426918
105	0x3dc39b0e	0.09551059
106	0xbcbf33f3	-0.023340201
107	0x3d1bcd5f	0.038037654
108	0x3df4dd4c	0.119562715
109	0x3d216357	0.03940138
110	0x3db3a9e4	0.087726384
111	0x3d5b9918	0.0536128
112	0xbdd0b48d	-0.10190687
113	0xbcb6d18f	-0.022316722
114	0xbd1fa069	-0.03897134
115	0xbdd3eda1	-0.103480585
116	0x3dfea587	0.124339156
117	0x3e5764d4	0.21034557
118	0xbdf6aa61	-0.12044216
119	0xbe1634f6	-0.1466864
120	0xbdd021f5	-0.10162727
121	0x3e413ae3	0.1887012
122	0x3dac30ac	0.08407721
123	0x3c9ae842	0.018909577
124	0xbd1b52fe	-0.037920944
125	0xbd61d644	-0.05513598
126	0xbd161626	-0.036642216
127	0xbbefc517	-0.007317196
128	0x3d66668b	0.056250136
129	0xbca378f1	-0.01995513
130	0x3e4dcaa8	0.20096838
131	0x3d757b54	0.059932068
132	0xbe3b9201	-0.18317415
133	0xbde71b58	-0.11284512
134	0x3d5586d0	0.05213052
135	0xbd91280f	-0.07087719
136	0x3d0b1cad	0.033962894
137	0xbd20bd25	-0.039242882
138	0xbd608fda	-0.054824688
139	0x3d657d85	0.056027908
140	0xbe0581dc	-0.13037819
141	0x3dee3301	0.11630822
142	0xbde4bd11	-0.11168874
143	0x3da13651	0.07871688
144	0x3d64206e	0.05569499
145	0x3d6483a9	0.055789623
146	0xbe4c5156	-0.19952902
147	0x3d0f7d71	0.03503174
148	0xbd430510	-0.04761225
149	0x3c094340	0.00837785
150	0xbdbe6eb4	-0.09298459
151	0x3e5dfc39	0.21678247
152	0x3b4ec8fc	0.0031552901
153	0x3e3be606	0.18349466
154	0xbd723a14	-0.05913742
155	0xbdb77178	-0.08957189
156	0x3db4b336	0.08823244
157	0xbc48017d	-0.012207386
158	0xbdb74ee1	-0.08950592
159	0xbd87ff8e	-0.0664054
160	0x3da45a4b	0.080250345
161	0x3dc02687	0.093823485
162	0x3ca4cfce	0.02011862
163	0x3d4860d0	0.048920453
164	0x3d139dcd	0.036039162
165	0xbcd914db	-0.026499202
166	0xbd588646	-0.052862428
167	0x3b5ca851	0.003366966
168	0x3d3ee947	0.04660919
169	0xbd81ca41	-0.06337405
170	0xbd9d8020	-0.076904535
171	0x3d04296d	0.03226607
172	0xbde4270c	-0.1114026
173	0x3d847f43	0.06469586
174	0xbdb649e8	-0.08900815
175	0x3da2718e	0.07931815
176	0xbe44ba24	-0.19211632
177	0x3d946c19	0.072471805
178	0x3d94ea02	0.07271196
179	0x3cbeb66e	0.023280349
180	0x3d3c9e36	0.04604932
181	0x3d2826c8	0.04105261
182	0xbc6edebe	-0.014579473
183	0x3b83eaf8	0.004025813
184	0xbc805051	-0.015663298
185	0x3d934d3a	0.07192464
186	0x3d8bdd91	0.0682937
187	0x3da14365	0.078741826
188	0xbc91a078	-0.017776713
189	0xbd5edf47	-0.054412153
190	0xbdc4befd	-0.096067406
191	0x3d56066b	0.052252214
192	0x3d6242a8	0.05523935
193	0xbda5b7af	-0.080916755
194	0xbe2937cf	-0.16525196
195	0xbac4c901	-0.0015013517
196	0xbc5233cb	-0.012829731
197	0xbd3a711e	-0.045518033
198	0xbcaf2585	-0.021380195
199	0x3ded68f2	0.11592282
200	0xbdfe0814	-0.124038845
201	0xb9ab4254	-0.0003266508
202	0x3d30683a	0.04306815
203	0x3d9387ce	0.07203637
204	0xbd8c4fad	-0.068511344
205	0x3deadeb9	0.11468262
206	0xbe3c999e	-0.18417975
207	0xbd941892	-0.07231249
208	0x3cb91fef	0.022598235
209	0x3da014fe	0.07816504
210	0xbe07d293	-0.13263921
211	0xbdd0d90a	-0.10197647
212	0xbc9e0912	-0.019291434
213	0x3e5443ad	0.20728941
214	0xbc7f5802	-0.015584948
215	0x3e06b8cf	0.13156436
216	0xba22adf0	-0.0006205728
217	0x3c9bdbfc	0.019025795
218	0x3e17a94b	0.14810674
219	0xbe65545a	-0.22395459
220	0x3d5558dd	0.0520867
221	0xbc8e9657	-0.017405672
222	0x3dbdc250	0.09265578
223	0x3d9bfc6d	0.07616506
224	0x3d8e7c25	0.069572724
225	0x3d587ab0	0.05285138
226	0xbdc6ab5c	-0.09700653
227	0xbd9100e5	-0.07080249
228	0xbdd10584	-0.1020613
229	0x3dd4431d	0.10364363
230	0x3dc97757	0.098372154
231	0xbeb74049	-0.35791233
232	0x3c032c34	0.008006144
233	0xbdb9082f	-0.09034764
234	0x3cdfe154	0.027329125
235	0x3d1ed8e4	0.03878106
236	0xbde5b01d	-0.112152316
237	0xbd8320d9	-0.064027496
238	0xbe7808db	-0.24222128
239	0xbc2404da	-0.010010922
240	0x3e354ef2	0.17705896
241	0x3d8de9c3	0.06929352
242	0xbe200cfc	-0.15629953
243	0x3e0477f4	0.12936383
244	0x3e08b2af	0.13349412
245	0xbe1e1cca	-0.1544067
246	0x3e2c374c	0.16817969
247	0xbd093b3a	-0.03350375
248	0xbc9969d8	-0.018727228
249	0xbdbeee01	-0.093227394
250	0xbd64fd94	-0.055905893
251	0x3e0be52f	0.13661645
252	0xbc8999d4	-0.016796984
253	0x3deadf87	0.11468416
254	0x3d46527a	0.0484185
255	0xbb8f87ab	-0.0043801866

fc2.bias f4 [256]
0	0x3c921fea	0.017837483
1	0x3e25c5ab	0.16188686
2	0xbb959648	-0.004565034
3	0x3d8efafa	0.06981464
4	0xbd759694	-0.059958056
5	0xbda866d2	-0.082227364
6	0x3d076e38	0.033064097
7	0xbd787f4b	-0.06066827
8	0xbdc7a42d	-0.09748111
9	0xbd1f7ee6	-0.03893938
10	0x3db04a9d	0.08607981
11	0xbd1b4a2e	-0.03791254
12	0xbde40052	-0.111328736
13	0xbd285ef9	-0.041106198
14	0x3de60377	0.112311296
15	0xbe25da4c	-0.16196555
16	0xbd2bdfde	-0.041961543
17	0x3c7bce56	0.015369019
18	0xbd8b0c3c	-0.06789443
19	0xbd6a815e	-0.05725228
20	0xbc25a8c6	-0.0101110395
21	0xbdc95a8b	-0.09831723
22	0xbe05e16a	-0.1307427
23	0xbd26aee8	-0.040694147
24	0xbdc0f2a9	-0.09421284
25	0xbd8ef0b8	-0.06979507
26	0x3c8659ba	0.016400207
27	0x3d6d8981	0.057992462
28	0x3db5e56e	0.08881651
29	0xbde59606	-0.11210255
30	0x3b88b90d	0.0041724504
31	0xbc4b0b06	-0.012392765
32	0x3d8c1211	0.068393834
33	0x3d813384	0.06308654
34	0xbdd07626	-0.10178785
35	0xbd45ab0f	-0.048258837
36	0xbc6a588d	-0.014303339
37	0x3e1982ae	0.14991257
38	0x3d6249ce	0.055246167
39	0x3d0698e8	0.032860667
40	0x3da183e5	0.07886485
41	0x3c5bcabf	0.013415038
42	0xbd8c2b28	-0.06844169
43	0x3d409ae8	0.04702273
44	0xbd96537c	-0.07340142
45	0x3c1e72ac	0.009670895
46	0x3d2a888f	0.04163414
47	0xbd52031f	-0.051272508
48	0xbe276dce	-0.16350481
49	0x3cd0aef9	0.025474058
50	0xbbf57f77	-0.0074920016
51	0x3b194440	0.0023386627
52	0x3cef2b37	0.029195411
53	0xbc4195ca	-0.011815498
54	0xbe166cda	-0.14689961
55	0xbd7a6a0b	-0.061136287
56	0xbe00a4ae	-0.1256282
57	0xbd102f45	-0.03520133
58	0xbbc1af48	-0.0059107877
59	0xba7d6a0f	-0.0009666988
60	0xbd52b874	-0.05144544
61	0x3ddd6603	0.10810473
62	0x3be09ae9	0.006854404
63	0x3d02688f	0.031837996
64	0xbe0f3d62	-0.1398826
65	0xbd726442	-0.059177645
66	0x3dcc87e6	0.09986858
67	0xbdd5c8cc	-0.104386896
68	0x3c8bd85f	0.017070947
69	0x3e2953c8	0.16535866
70	0x3d693b63	0.0569414
71	0xbd99e039	-0.0751347
72	0xbdf63265	-0.12021331
73	0xbd24a887	-0.040199783
74	0x3dc1267e	0.0943117
75	0x3d559c83	0.052151214
76	0xbc41f560	-0.011838287
77	0x3cf63975	0.030056695
78	0xbe44fbab	-0.19236629
79	0xbde45bda	-0.11150332
80	0xbd62816e	-0.055299215
81	0x3dcfbe19	0.1014368
82	0xbd254e2e	-0.04035776
83	0x3ce85c33	0.028364277
84	0xbe1300c8	-0.14355767
85	0xbdc021b2	-0.09381427
86	0x3c6da235	0.014504005
87	0xbd680564	-0.056645766
88	0xbcf1a353	-0.029496824
89	0xbdff8f01	-0.12478448
90	0x3e1c887f	0.15286444
91	0x3d88e6f5	0.066846766
92	0xbd451fbf	-0.04812598
93	0xbd133fce	-0.03594952
94	0xbd295e97	-0.041349974
95	0x3d8968fe	0.06709479
96	0x3dafea82	0.08589651
97	0xbdb7e40c	-0.08979043
98	0x3aadcd84	0.0013260101
99	0xbe13ce65	-0.14434202
100	0x3cfeaf7f	0.031089542
101	0x3d37cefb	0.044875126
102	0xbcd36355	-0.025804201
103	0x3c42a59d	0.011880306
104	0x3e080caa	0.13286081
105	0xbccddcc8	-0.02512969
106	0xbd14e2b4	-0.036349013
107	0xbb1864c7	-0.0023253427
108	0x3dcb3bc9	0.099235125
109	0x3d885ea0	0.06658673
110	0xbda4c5dd	-0.08045552
111	0xbbbc090b	-0.0057383827
112	0xb671e20c	-3.6043375e-06
113	0x3c8c4faa	0.01712783
114	0x3ad4d4dd	0.0016237755
115	0x3dc433ac	0.09580168
116	0x3e055fca	0.13024822
117	0x3d4ec30f	0.05047899
118	0xbd8ec7ee	-0.06971727
119	0xbcae8e8c	-0.021308206
120	0xbd72298c	-0.059121653
121	0xbe0c8812	-0.13723782
122	0xbb3893f4	-0.0028164359
123	0xbcc1814b	-0.023621222
124	0xbc9ca8f6	-0.019123536
125	0x3d3f459a	0.046697237
126	0x3c860092	0.016357694
127	0xbcccf1c0	-0.02501762
128	0xbd8f5c50	-0.07000029
129	0xbc7c3376	-0.015393129
130	0x3d87db05	0.066335715
131	0x3d7c4c5d	0.061596263
132	0xbd44f221	-0.048082475
133	0x3d7effa8	0.06225553
134	0xbc8c3b71	-0.017118188
135	0xbcead384	-0.028665312
136	0x3d76e070	0.060272634
137	0xbdea1d88	-0.11431414
138	0xbd3145d6	-0.04327949
139	0xbc33ddfb	-0.010978217
140	0x3c57ad42	0.0131638665
141	0x3c681d16	0.014167091
142	0x3cf5d4c6	0.030008685
143	0x3e17fec1	0.14843275
144	0xbe14027b	-0.14454071
145	0xbe1e88cd	-0.15481873
146	0xbb4bcb2d	-0.0031096444
147	0xbd038512	-0.032109328
148	0x3d1eaffc	0.03874205
149	0x3dbda184	0.09259322
150	0x3dc4f71e	0.09617446
151	0x3c03c0b9	0.008041554
152	0x3b758830	0.0037465207
153	0xbd7e9fd1	-0.06216413
154	0x3df649c7	0.12025791
155	0x3dbb39b8	0.09141868
156	0x3c061699	0.008184099
157	0xbcc410ea	-0.023933847
158	0x3db2aaff	0.08724021
159	0x3d791af4	0.06081672
160	0x3d801daf	0.06255662
161	0x3d3f8963	0.04676188
162	0xbc26ca37	-0.010180048
163	0xbd46f59f	-0.048574086
164	0x3da73f3d	0.081663586
165	0xbceb1aa1	-0.028699221
166	0xbd2f6bd9	-0.04282746
167	0xbdc09959	-0.09404249
168	0xbb0f9473	-0.002190855
169	0x3d225b5c	0.03963791
170	0x3daa4ef5	0.08315841
171	0x3e3d898c	0.18509501
172	0x3d1a7960	0.03771341
173	0x3d7a73a8	0.061145455
174	0xbcd90732	-0.026492689
175	0x3c14c629	0.009080448
176	0xbc72dbeb	-0.01482294
177	0x3bd9e21d	0.0066492693
178	0x3dd12265	0.10211638
179	0x3d4dd9bc	0.050256476
180	0xbe104c88	-0.14091694
181	0x3c6c304c	0.014415812
182	0x3cf9318c	0.030419134
183	0x3d5020a3	0.050812375
184	0xbd1669ca	-0.036721982
185	0xbe2e2702	-0.17007068
186	0xbde510ad	-0.11184821
187	0xbd00a9c0	-0.031411886
188	0x3cb95de9	0.022627788
189	0xbe203971	-0.15646912
190	0xbbf4d89e	-0.007472112
191	0xbd0710b8	-0.03297493
192	0x3e25cec6	0.16192159
193	0xbcb30f6d	-0.021857942
194	0x3cb40e7c	0.021979563
195	0x3d46bade	0.048518054
196	0x3d10cfdf	0.03535449
197	0xbd2041b9	-0.039125178
198	0x3cadf3c7	0.021234406
199	0xbd82cb37	-0.063864164
200	0xbcd7af1c	-0.026328616
201	0xbe21959b	-0.15779726
202	0x3cae3484	0.021265276
203	0xbdfcfc58	-0.12352818
204	0xbc8453ed	-0.0161533
205	0xbd3ddc05	-0.046352405
206	0xbb5a537d	-0.0033313923
207	0x3d35f0aa	0.04441897
208	0x3c3969d7	0.011316738
209	0xbcdc4bca	-0.026891608
210	0xbca5ff02	-0.020263199
211	0xbd344581	-0.044011597
212	0x3db8818d	0.09009085
213	0xbcd32ab0	-0.02577719
214	0x3dae440d	0.085090734
215	0xbd79695f	-0.060891505
216	0xbe2aa518	-0.16664541
217	0x3d08be60	0.03338468
218	0xbd253cf8	-0.040341347
219	0xbd99de8f	-0.07513153
220	0x3d53342c	0.051563427
221	0x3ca8108e	0.020515706
222	0x3c067a0c	0.008207809
223	0x3c727a74	0.014799703
224	0x3d62ddf5	0.055387456
225	0xbdb30a8f	-0.08742248
226	0xbcb47ba8	-0.02203162
227	0x3d631c16	0.055446707
228	0xbc44049f	-0.011963992
229	0xbccf4b75	-0.025304535
230	0x3daa5a12	0.08317961
231	0xbd3c2ff7	-0.04594418
232	0x3d9d6a70	0.07686317
233	0xbd863989	-0.06553943
234	0xbe56239f	-0.20912026
235	0x3d83af5d	0.06429932
236	0xbe03792b	-0.1283919
237	0x3d07263d	0.03299545
238	0x3de5ed20	0.11226869
239	0xbc594186	-0.013260251
240	0x3d5ceaf9	0.053935025
241	0xbd96045c	-0.0732505
242	0xbc33a782	-0.01096523
243	0x3d782b77	0.060588326
244	0xbdb6fec4	-0.089353114
245	0x3ccbb082	0.024864439
246	0xbcbdf49e	-0.023187932
247	0x3e00680a	0.12539688
248	0xbd0431c9	-0.03227404
249	0x3de6480f	0.11244213
250	0x3daef3a8	0.085425675
251	0x3d274444	0.040836588
252	0x3d1478ad	0.036247898
253	0xbe098da1	-0.13432933
254	0x3c3bddec	0.0114664845
255	0xbde8a3ad	-0.11359344

fc3.weight f4 [4, 256]
0	0xb9df96a4	-0.0004264611
1	0x3dcaacd6	0.09896247
2	0x3bd63491	0.006537028
3	0xbe5b6916	-0.21426806
4	0x3e55a64b	0.20864217
5	0x3e5834cb	0.21113889
6	0x3dca14ab	0.09867223
7	0x3e426344	0.1898318
8	0x3e3a1211	0.18170954
9	0xbd69763f	-0.056997534
10	0xbe78660a	-0.24257675
11	0x3bf56820	0.0074892193
12	0x3dac2be1	0.08406807
13	0x3e2a3fc7	0.16625892
14	0xbd28d9d0	-0.041223347
15	0x3e3cb5ca	0.18428722
16	0x3d2b844f	0.041874226
17	0xbe658df4	-0.22417432
18	0x3e0ab14d	0.13544197
19	0xbe6dba7b	-0.23215668
20	0x3d88ebad	0.066855766
21	0x3dfbe9e3	0.1230047
22	0x3d48f9f6	0.049066506
23	0x3d212c31	0.039348785
24	0xbd746f25	-0.05967631
25	0xbed2f311	-0.4120107
26	0x3d53b422	0.05168546
27	0x3d5cee00	0.053937912
28	0xbe6c641b	-0.23085062
29	0xbd9444d9	-0.07239694
30	0x3dae5f2a	0.08514245
31	0x3dda8773	0.10670366
32	0xbe685f30	-0.22692561
33	0x3dcdccfa	0.10048862
34	0x3d93474f	0.071913354
35	0x3e0f43e6	0.13990745
36	0xbf0ecaad	-0.5577801
37	0xbe6f548b	-0.23372094
38	0x3de10e66	0.109890744
39	0x3e40c163	0.18823771
40	0x3d7fff79	0.062499497
41	0xbe61953a	-0.22029582
42	0x3d7b94d3	0.061421227
43	0xbdb816df	-0.08988737
44	0xbda06d60	-0.078333616
45	0x3c851d24	0.016249247
46	0x3e949352	0.29018646
47	0xbb24f872	-0.00251725
48	0xbddf32a8	-0.10898334
49	0xbdcdf8d5	-0.100572266
50	0xbe8bbbdb	-0.2729176
51	0x3ec0c259	0.37648275
52	0xbe8e68d2	-0.27814347
53	0x3d776e20	0.060407758
54	0xbeda72fa	-0.42665845
55	0x3e64483c	0.2229318
56	0x3d7616a0	0.06008017
57	0xbc240526	-0.010010993
58	0xbe0b697f	-0.13614462
59	0x3cf815cf	0.030283837
60	0x3ddbe5bf	0.1073718
61	0xbd46c541	-0.04852796
62	0x3e146dbb	0.14494984
63	0xbe05c430	-0.13063121
64	0xbde52902	-0.11189462
65	0xbe5c49a6	-0.2151247
66	0x3c8c37c5	0.017116437
67	0x3e4aff05	0.19823845
68	0x3ef91f09	0.4865649
69	0xbd776ebd	-0.060408343
70	0xbe781472	-0.2422655
71	0x3e8346ee	0.25640053
72	0x3d24c818	0.040229887
73	0x3adb1f48	0.0016717697
74	0xbcc29308	-0.02375175
75	0x3d6bb25d	0.057543147
76	0xbdd91d7e	-0.10601328
77	0x3d93329d	0.07187388
78	0x3e08fdf3	0.13378124
79	0x3dff98bb	0.12480303
80	0xbed5fea4	-0.41795838
81	0xbe14a827	-0.1451727
82	0xbeab7b6f	-0.3349261
83	0xbc97d3e2	-0.01853365
84	0x3dc61304	0.09671596
85	0x3df9d623	0.121990465
86	0x3df46ab8	0.119344175
87	0x3d637a6c	0.055536672
88	0x3ddf46d8	0.10902184
89	0x3d17eb92	0.03708989
90	0xbc561ea5	-0.01306883
91	0xbe175ade	-0.14780757
92	0x3ddacdbd	0.10683773
93	0x3e2fc673	0.17165546
94	0xbcd27e91	-0.025695117
95	0xbe883b9a	-0.26607972
96	0xbd44c048	-0.048034936
97	0xbec0fdf2	-0.37693745
98	0xbccf70b4	-0.025322296
99	0xbf14cc58	-0.58124304
100	0x3d4ca6ef	0.049963888
101	0x3dae93be	0.08524273
102	0xbeecec9f	-0.46274278
103	0x3d83ac6b	0.064293705
104	0xbe2ff819	-0.17184485
105	0x3cafafa6	0.02144606
106	0x3d8470ac	0.06466803
107	0x3d9f8699	0.07789344
108	0xbdf21c6c	-0.11821827
109	0xbe46faee	-0.1943166
110	0xbe9192bd	-0.28432265
111	0x3daacb28	0.0833953
112	0x3e082f05	0.13299187
113	0x3ca412ac	0.020028435
114	0xbd9611fd	-0.0732765
115	0xbc710fd4	-0.014713246
116	0x3cce3662	0.025172416
117	0xbdb2f664	-0.087384015
118	0x3e46af67	0.19402848
119	0x3de16369	0.11005289
120	0xbe4bf4ed	-0.1991765
121	0x3e395221	0.18097736
122	0xbe01cabe	-0.12674996
123	0x3df9bda6	0.12194376
124	0x3eab952a	0.3351224
125	0x3d783ceb	0.06060497
126	0xbd571bb0	-0.05251664
127	0xbf193c6a	-0.5985781
128	0x3eaa75dc	0.33293045
129	0xbd49a183	-0.049226295
130	0xbd9515e9	-0.0727957
131	0x3f1fa66a	0.623633
132	0x3d815c18	0.063163936
133	0x3db755a2	0.0895188
134	0xbf389f94	-0.72118497
135	0xbd77ae36	-0.060468875
136	0x3d2924dd	0.04129492
137	0x3f0a2ffa	0.53979456
138	0xbeeb9cf2	-0.46018177
139	0x3c0af228	0.008480586
140	0x3e315aef	0.17319845
141	0x3ea21496	0.3165633
142	0x3d895e50	0.06707442
143	0xbe4f48e4	-0.2024265
144	0x3dfd44cf	0.1236664
145	0x3e04c1d4	0.12964565
146	0xbe8efc3d	-0.27926818
147	0xbefb5c9e	-0.490941
148	0xbdf6523d	-0.120274045
149	0xbe8c0916	-0.27350682
150	0x3c4f4cab	0.012652556
151	0xbdcfa6de	-0.10139249
152	0xbc7b8bc0	-0.015353143
153	0xbd670444	-0.056400552
154	0xbf08e0ec	-0.53468204
155	0x3e08390e	0.13303015
156	0x3e431e18	0.19054449
157	0xbd2e569a	-0.04256306
158	0x3d51e98e	0.051248126
159	0xbd5fc840	-0.054634333
160	0x3cdd9d7d	0.027052635
161	0xbf37e466	-0.71832883
162	0xbe2daf3b	-0.16961376
163	0xbe685011	-0.22686793
164	0xbce4f36a	-0.0279481
165	0xbebc6190	-0.36793184
166	0x3e3a87a3	0.18215804
167	0x3e025b47	0.12730132
168	0xbea80cdf	-0.3282232
169	0x3c4b6a89	0.012415537
170	0xbe430fe9	-0.19049038
171	0xbdabe64f	-0.08393537
172	0x3e38a977	0.18033396
173	0xbe148121	-0.14502384
174	0x3dc13245	0.09433416
175	0xbd8eea17	-0.06978243
176	0xbe6b4645	-0.22976024
177	0xbd9c6a4b	-0.07637461
178	0xbdad61f8	-0.08465952
179	0xbd57648e	-0.05258613
180	0xbbe6afcc	-0.0070399996
181	0x3be12148	0.0068704225
182	0x3e30c825	0.17263849
183	0xbeb5c392	-0.3550077
184	0x3e4c1b05	0.19932182
185	0xbbed0e41	-0.007234365
186	0x3e45489b	0.19265978
187	0x3e1e7d9c	0.15477604
188	0x3ecd5fcc	0.4011215
189	0xbea546af	-0.3228049
190	0x3e3df39a	0.18549958
191	0x3d9ff02b	0.0780948
192	0x3e098b87	0.13432132
193	0xbd1fb988	-0.038995296
194	0x3c7c1123	0.015384945
195	0xbe3a45a6	-0.18190631
196	0x3d2c1223	0.042009484
197	0x3d905927	0.070482545
198	0x3ddf0509	0.10889632
199	0x3e6e47b2	0.23269537
200	0xbeb9c393	-0.36282024
201	0x3e6bb964	0.2301994
202	0xbd526b21	-0.051371697
203	0x3e622675	0.22084983
204	0x3c7e08fb	0.015505071
205	0xbf3de32d	-0.7417477
206	0x3ec306e1	0.38091186
207	0x3e46b5c1	0.19405271
208	0xbc984c99	-0.018591212
209	0x3dbb31e6	0.09140377
210	0x3d9092f5	0.0705928
211	0x3bc86874	0.0061159674
212	0xbde3c3c0	-0.11121321
213	0x3d61dc80	0.055141926
214	0x3e281e54	0.1641782
215	0xbe42735d	-0.1898932
216	0x3def3acb	0.11681136
217	0xbdb7c156	-0.08972423
218	0xbc2f9ecb	-0.010719012
219	0xbe277782	-0.16354182
220	0x3eace61c	0.3376931
221	0xba8c0066	-0.0010681271
222	0xbe950c45	-0.29110923
223	0xbea0ed1d	-0.31430903
224	0xbe1ed0b2	-0.15509298
225	0x3d8c57f4	0.06852713
226	0xbdf9262b	-0.12165483
227	0xbe927ff9	-0.2861326
228	0xbd1f6768	-0.038916975
229	0xbdefe12d	-0.11712871
230	0x3e332b86	0.17497072
231	0x3e037a7c	0.12839693
232	0xbdd8f358	-0.10593289
233	0xbdbad5f0	-0.091228366
234	0xbd802b79	-0.06258292
235	0x3c99b3b7	0.018762453
236	0xbec2667d	-0.37968817
237	0xbe82369b	-0.25432286
238	0xbd21b873	-0.039482545
239	0xbe3104de	-0.17287013
240	0xbd55eba8	-0.052226692
241	0xbe109aa5	-0.14121492
242	0xbe0fbfc6	-0.14038
243	0xbd67d197	-0.056596365
244	0x3e25e0fa	0.16199103
245	0xbdea43c8	-0.114387095
246	0x3e6870c3	0.22699265
247	0xbe45e53c	-0.19325727
248	0xbed3f04c	-0.4139427
249	0xbde75202	-0.112949386
250	0xbe33cb4b	-0.17558019
251	0x3db5e0df	0.088807814
252	0x3d8ce4e1	0.06879593
253	0x3ecc71d5	0.39930597
254	0x3d2a70e7	0.04161158
255	0xbf645509	-0.89192253

fc3.bias f4 [4]
0	0xbcdab63d	-0.026698226
1	0xbd217d81	-0.03942633
2	0x3d3e98e2	0.04653252
3	0x3c622e66	0.013805008

batchnorm_1.weight f4 [128]
0	0x3f8e4fdf	1.1118125
1	0x3faeebe4	1.3665738
2	0x3f968466	1.1759155
3	0x3fa11ee5	1.2587553
4	0x3fa7653d	1.307777
5	0x3f9c209d	1.2197453
6	0x3f9d8c5c	1.2308459
7	0x3f9654e7	1.174466
8	0x3f9eeb4e	1.2415559
9	0x3f91028f	1.1328906
10	0x3f901ee1	1.1259423
11	0x3f8f83e6	1.1212127
12	0x3fa7dd58	1.3114424
13	0x3f9886b0	1.1916103
14	0x3f91ebb4	1.1400056
15	0x3f9747b0	1.1818752
16	0x3f970296	1.1797664
17	0x3fb43183	1.407761
18	0x3fa0a9f0	1.2551861
19	0x3f97dde1	1.1864587
20	0x3f9d8fe0	1.2309532
21	0x3f9c505c	1.2212024
22	0x3f98aa9c	1.1927066
23	0x3f9c70ed	1.2221962
24	0x3f90a92f	1.1301631
25	0x3fac0e34	1.3441834
26	0x3f9547fd	1.1662594
27	0x3f9ae5e6	1.210141
28	0x3f91684e	1.1359956
29	0x3f9bd266	1.2173584
30	0x3fa0f4ba	1.2574685
31	0x3f8d7cc8	1.1053705
32	0x3f9fed7b	1.2494348
33	0x3fac2b75	1.3450762
34	0x3f90f8c3	1.1325916
35	0x3f86b05c	1.0522571
36	0x3f8e8c35	1.1136538
37	0x3f95a1bf	1.1689986
38	0x3f97bed0	1.1855106
39	0x3f8f1782	1.1179049
40	0x3f8fcd6f	1.1234568
41	0x3fa26916	1.268832
42	0x3fa27f27	1.2695054
43	0x3f8a2de0	1.079525
44	0x3f984916	1.1897304
45	0x3f8bae50	1.0912571
46	0x3f9662e6	1.1748931
47	0x3f9bb012	1.2163107
48	0x3fa1b1b7	1.2632359
49	0x3f8edf3d	1.1161877
50	0x3fa3a35d	1.278423
51	0x3f885f95	1.0654169
52	0x3f9cd953	1.2253822
53	0x3f96085b	1.17213
54	0x3f96e29f	1.1787909
55	0x3f97e082	1.1865389
56	0x3f94afd3	1.1616157
57	0x3f9ae38d	1.2100693
58	0x3f9c43db	1.2208208
59	0x3f903dd2	1.1268866
60	0x3f8dfd8e	1.1093004
61	0x3f94586b	1.1589483
62	0x3fad4ec0	1.3539658
63	0x3f8a049c	1.0782657
64	0x3fa1da78	1.2644796
65	0x3fa19718	1.2624235
66	0x3f9b1279	1.2115012
67	0x3f8c755d	1.0973316
68	0x3fa58575	1.2931353
69	0x3f9efa30	1.2420101
70	0x3fbde0fb	1.4834284
71	0x3f90a3d0	1.1299992
72	0x3faf787e	1.3708646
73	0x3f99cb19	1.2015105
74	0x3f8eb17e	1.1147916
75	0x3f903aa1	1.1267892
76	0x3f8e2879	1.1106101
77	0x3f982e3a	1.1889107
78	0x3f9e65e2	1.2374842
79	0x3f999a7b	1.2000269
80	0x3f893888	1.0720377
81	0x3f8c5e5c	1.0966296
82	0x3f91748c	1.1363692
83	0x3f907d5f	1.128826
84	0x3fabb937	1.3415898
85	0x3fa6f747	1.3044213
86	0x3fa8a2d4	1.3174691
87	0x3f973ad2	1.1814826
88	0x3f90e746	1.1320579
89	0x3f944da8	1.1586199
90	0x3fab12cc	1.3365111
91	0x3fa4936d	1.2857491
92	0x3f8888b4	1.0666718
93	0x3fa7ebce	1.3118837
94	0x3f9bb5f3	1.2164901
95	0x3f8872a4	1.0659986
96	0x3f9d02b7	1.2266454
97	0x3f8ee9c9	1.1165096
98	0x3f97ef91	1.1869985
99	0x3fa11b0d	1.258638
100	0x3f9baa39	1.2161323
101	0x3f8d2b13	1.102877
102	0x3f9939ac	1.1970725
103	0x3fa8860a	1.3165905
104	0x3f958980	1.1682587
105	0x3f95e455	1.1710306
106	0x3faefa1b	1.3670076
107	0x3fbaf040	1.4604568
108	0x3f95bc57	1.1698102
109	0x3f9c9ec0	1.2235947
110	0x3fa576d4	1.2926888
111	0x3f9f22cb	1.2432493
112	0x3f92475e	1.142803
113	0x3f96f110	1.1792316
114	0x3f948104	1.1601872
115	0x3f8d1923	1.1023296
116	0x3fa92bf1	1.3216535
117	0x3fb3fd93	1.406176
118	0x3f9e8f10	1.2387409
119	0x3f9cd88a	1.2253582
120	0x3fa83181	1.3140107
121	0x3fb03792	1.3766959
122	0x3f96d7bf	1.178459
123	0x3f9a9952	1.207804
124	0x3f97d9c4	1.1863332
125	0x3fa44d4d	1.283609
126	0x3f93639e	1.1514776
127	0x3f8d5ca3	1.1043895

batchnorm_1.bias f4 [128]
0	0x3d9006cb	0.07032546
1	0x3d3a6235	0.045503814
2	0xbd067255	-0.03282388
3	0x3d8a5731	0.06754912
4	0x3d8b8519	0.06812496
5	0xbe84dc03	-0.25949106
6	0x3da75a20	0.08171487
7	0xbe6ef503	-0.23335652
8	0xbb17d0b0	-0.002316516
9	0xbdd01be4	-0.1016157
10	0x3cb924f7	0.022600634
11	0x3ce1c77f	0.027560947
12	0xbe83a06a	-0.25708324
13	0x3cb2a6b3	0.021808004
14	0x3dce9ade	0.10088132
15	0xbd16f828	-0.036857754
16	0x3b2d4fb8	0.002644522
17	0xbe88ea82	-0.26741415
18	0xbd4eec43	-0.050518285
19	0xbcdd39d3	-0.027005112
20	0xbe0182d2	-0.1264756
21	0x3d87a9eb	0.06624206
22	0x3d979722	0.07401873
23	0x3d455010	0.048172057
24	0xbd11ba0e	-0.035577826
25	0x3df5daaf	0.12004601
26	0x3d388ac6	0.04505422
27	0xbddbb4e6	-0.10727863
28	0xbcf2e1a5	-0.029648611
29	0x3db50430	0.08838689
30	0xbd655fc1	-0.05599952
31	0x3d68da07	0.056848552
32	0x3dd0b941	0.101915844
33	0xbe55f406	-0.20893869
34	0x3d09be2e	0.033628635
35	0x3e0bf119	0.1366619
36	0x3db3777f	0.087630264
37	0x3d337173	0.043809365
38	0x3d7a314c	0.06108217
39	0x3ce3ad04	0.027792461
40	0xbd70a673	-0.05875249
41	0xbd3f1f9a	-0.046660997
42	0xbdb67624	-0.08909252
43	0x3c567f0c	0.013091814
44	0x3de0faf7	0.10985368
45	0x3daaac4c	0.08333644
46	0x3e3389fc	0.17533106
47	0x3d9e78c7	0.0773788
48	0xbdbf1d21	-0.09331728
49	0xbc9ea9f4	-0.01936815
50	0xbd136f51	-0.03599483
51	0x3dba8bd6	0.09108703
52	0x3c6afc1c	0.014342334
53	0x3e007587	0.12544833
54	0x3dd20d83	0.102564834
55	0x3d64ca69	0.055857096
56	0x3dcde654	0.10053697
57	0x3bb2851d	0.0054479972
58	0xbda3d7e3	-0.080001615
59	0x3dd6dc7a	0.10491271
60	0x3e29a109	0.16565336
61	0xbe361859	-0.17782725
62	0xbe7a177b	-0.2442302
63	0x3d8cb96c	0.06871304
64	0x3d8aa0ed	0.067689754
65	0xbe5d509e	-0.21612784
66	0xbe4e49f9	-0.20145406
67	0x3db6256f	0.08893859
68	0xbd61fa4d	-0.055170346
69	0x3db9af09	0.090665884
70	0xbe4e6d18	-0.20158803
71	0x3a327bf1	0.000680863
72	0xbe2b8fba	-0.16754046
73	0x3dc9ad6f	0.09847533
74	0x3ca50d22	0.020147864
75	0x3d082621	0.033239488
76	0x3d5daf83	0.05412246
77	0x3d95ad7c	0.0730848
78	0xbe8e4485	-0.2778665
79	0xbdbc292b	-0.0918754
80	0x3d659177	0.05604693
81	0x3d8532b3	0.06503811
82	0xbcb25810	-0.021770507
83	0x3dc9bc89	0.09850413
84	0xbd9f1092	-0.077668324
85	0xbc9d588d	-0.019207263
86	0xbe2f566d	-0.17122813
87	0x3ccade00	0.024764061
88	0xbd9a9428	-0.0754779
89	0x3d1f5b5a	0.03890548
90	0x3c3567bc	0.0110720955
91	0xbd60b05e	-0.054855697
92	0xbbeaadd7	-0.0071618366
93	0xbd41d62d	-0.047323395
94	0xbe4a2bcc	-0.1974327
95	0x3d0f4590	0.03497845
96	0xbc17a75a	-0.009256208
97	0x3df413b0	0.119178176
98	0xbcdb56a2	-0.026774708
99	0x3e3b2956	0.18277487
100	0x3d6f1432	0.05836887
101	0x3d61ab52	0.055095024
102	0xbd67dc75	-0.05660673
103	0xbe89536e	-0.26821464
104	0x3dabef07	0.083952
105	0x3e327b53	0.17429857
106	0xbd0eef48	-0.034896165
107	0xbd861506	-0.06546979
108	0x3e218613	0.15773802
109	0x3dc1d0d7	0.09463661
110	0xbdfa343a	-0.12216993
111	0x3d80986a	0.06279071
112	0x3ba43b14	0.0050119255
113	0xbd80d6de	-0.06290983
114	0x3cf1ff6c	0.02954074
115	0x3de5df11	0.11224187
116	0x3db8a379	0.09015555
117	0xbdcb6c6a	-0.09932788
118	0x3db776e0	0.089582205
119	0xbe71c01f	-0.23608445
120	0xbdeb62fb	-0.114934884
121	0xbd0772cb	-0.03306846
122	0x3db73793	0.08946147
123	0xbd96cd53	-0.07363381
124	0xbdde03ea	-0.1084059
125	0xbe020d30	-0.12700343
126	0x3dc0f294	0.09421268
127	0x3dba2fd8	0.09091157

batchnorm_1.running_mean f4 [128]
0	0x3ed91f06	0.42406482
1	0xbdbdfce7	-0.09276753
2	0xbed1b764	-0.40960228
3	0x3e007013	0.12542753
4	0xbe6e10ab	-0.23248546
5	0xbf307216	-0.6892408
6	0x3da075e5	0.078349866
7	0xbf8d242e	-1.1026666
8	0xbea71587	-0.32633612
9	0xbe445a7b	-0.1917514
10	0xbea94136	-0.33057564
11	0xbeff690e	-0.49884838
12	0xbd63b1eb	-0.055589598
13	0xbe5be333	-0.21473388
14	0xbed04963	-0.4068099
15	0x3d88049e	0.06641506
16	0xbde1b120	-0.11020112
17	0xbe02e793	-0.12783651
18	0x3e1a9fe6	0.15100059
19	0xbd569e62	-0.05239714
20	0xbe4f148c	-0.20222682
21	0x3ec4e566	0.38456267
22	0x3ebabf26	0.3647396
23	0x3d823ed3	0.06359639
24	0xbf3c65e7	-0.7359299
25	0xbe221c65	-0.15831144
26	0xbf0c6ddc	-0.5485513
27	0xbe0c367c	-0.13692659
28	0xbeeaf12c	-0.45887125
29	0xbe92725f	-0.28602883
30	0xbee55d08	-0.4479754
31	0x3e4c4508	0.19948208
32	0x3b6a4690	0.0035747625
33	0x3c7433d8	0.014904939
34	0xbea9b611	-0.33146718
35	0x3f2dd516	0.6790327
36	0x3cbb35f7	0.02285288
37	0xbe957923	-0.29193982
38	0xbe9d98f4	-0.30780756
39	0xbe505333	-0.20344238
40	0xbe63522e	-0.22199318
41	0x3f1d8a9f	0.61539644
42	0x3d6392e3	0.055560004
43	0xbdd3c672	-0.10340585
44	0x3aa60e43	0.0012669045
45	0xbef72204	-0.4826814
46	0x3efca1a9	0.49342087
47	0xbe032918	-0.12808645
48	0xbe6980c1	-0.22803022
49	0xbe89788d	-0.26849785
50	0xbeb9a11a	-0.36255723
51	0x3ee65267	0.44984743
52	0x3d7dd7ec	0.061973497
53	0x3efa719c	0.48914802
54	0x3e9e9244	0.30970967
55	0xbd1aa909	-0.03775886
56	0xbe4091ee	-0.18805668
57	0xbf030144	-0.51173806
58	0x3e0140d8	0.12622392
59	0x3f1a9a8e	0.6039208
60	0x3dd5a109	0.10431106
61	0xbcea9b15	-0.028638402
62	0x3d277bc1	0.040889505
63	0x3d388677	0.04505011
64	0x3e03f7e5	0.12887533
65	0xbe073cf2	-0.13206843
66	0x3e553876	0.2082232
67	0x3ea97f4f	0.3310494
68	0xbe554fda	-0.20831242
69	0xbf0bad2c	-0.54561114
70	0xbe8a4585	-0.27006164
71	0xbe86681f	-0.26251313
72	0x3d27ebb6	0.040996276
73	0x3ead4737	0.33843395
74	0xbe182b02	-0.14860156
75	0x3e99140e	0.29898113
76	0xbe39d21d	-0.18146558
77	0x3e0400e0	0.12890959
78	0x3e660a40	0.22464848
79	0xbf4cf859	-0.8006645
80	0xbe96ed70	-0.29478025
81	0xbd09a414	-0.033603743
82	0x3e887191	0.26649144
83	0x3f16eb34	0.5895264
84	0xbf2b3a88	-0.66886187
85	0x3dff728d	0.12473021
86	0x3d5c9d53	0.053860974
87	0x3ec87aea	0.39156276
88	0xbedcf777	-0.4315755
89	0x3e90fde3	0.283187
90	0x3db43419	0.08798999
91	0x3e2ff50d	0.17183323
92	0xbe931af0	-0.2873149
93	0x3e1e2f31	0.1544769
94	0xbdd11a10	-0.10210049
95	0x3cbecebd	0.02329194
96	0xbf436c75	-0.7633737
97	0x3f49b4af	0.78791326
98	0xbe864c67	-0.26230165
99	0x3e537bbd	0.20652671
100	0x3ec47872	0.38373142
101	0xbc75a5d1	-0.014993147
102	0x3e8b41fa	0.27198774
103	0xbe4caa43	-0.19986825
104	0x3d1c691a	0.03818617
105	0x3efe7920	0.49701786
106	0xbd3aaa79	-0.04557273
107	0xbebb8bfc	-0.36630237
108	0x3e9a7402	0.30166632
109	0xbea39bbe	-0.3195476
110	0xbf181d72	-0.5941993
111	0xbca38f5b	-0.019965818
112	0xbe0b5912	-0.13608196
113	0xbe5cdc59	-0.21568431
114	0x3e1b66e9	0.15175976
115	0x3f376a48	0.7164655
116	0x3eaa1248	0.33217072
117	0xbd43e966	-0.047830008
118	0x3e061900	0.13095474
119	0xbf3b2dbc	-0.7311666
120	0x3f14a5b4	0.5806534
121	0xbdb2c9f8	-0.08729929
122	0x3e8b480c	0.27203405
123	0xbe7960ba	-0.24353305
124	0x3e98c7c0	0.29839897
125	0xbd95662a	-0.07294877
126	0x3d04d5d1	0.032430474
127	0xbe4a628c	-0.19764155

batchnorm_1.running_var f4 [128]
0	0x3f072bb7	0.5280108
1	0x3e0f77b5	0.14010508
2	0x3f9f71e4	1.2456632
3	0x3f2db74e	0.67857826
4	0x3e9e3f64	0.30907738
5	0x3f28b29e	0.6589755
6	0x3e4506a2	0.19240811
7	0x3f83c2da	1.0293839
8	0x3ef05b04	0.4694444
9	0x3fbe274c	1.4855742
10	0x3ecbffd5	0.39843622
11	0x3f36e0c2	0.71436703
12	0x3ee75c07	0.451874
13	0x3e6d5c0c	0.23179644
14	0x3ec35e1c	0.38157737
15	0x3f5141a2	0.8174077
16	0x3f08dc23	0.534609
17	0x3e8e23bd	0.2776164
18	0x3f0535a3	0.5203497
19	0x3e82ff94	0.25585616
20	0x3e64cc22	0.22343495
21	0x3fcdde2b	1.6083425
22	0x3f9073aa	1.1285298
23	0x3f07060f	0.5274362
24	0x3f3160e3	0.6928846
25	0x3e7e1f5c	0.2481665
26	0x3f1f16a2	0.6214391
27	0x3f5096a8	0.81479883
28	0x3ef9d969	0.48798683
29	0x3e9c4b6e	0.30526298
30	0x3f162a61	0.58658415
31	0x3f1f597c	0.6224592
32	0x3f2ecdf5	0.68283015
33	0x3e339146	0.17535886
34	0x3e921236	0.2852952
35	0x3f90a170	1.1299267
36	0x3e74ec7e	0.2391834
37	0x3d5efbb2	0.054439254
38	0x3f42e3b8	0.7612872
39	0x3e694e53	0.22783785
40	0x3f0e7315	0.5564435
41	0x3f4fb173	0.8113014
42	0x3f831214	1.0239892
43	0x3f5cf241	0.8630715
44	0x3e703ac2	0.23459914
45	0x3f06b269	0.5261598
46	0x3fb6e1e7	1.428769
47	0x3f1f5751	0.6224261
48	0x3ebee95f	0.37287423
49	0x3f04f388	0.519341
50	0x3e15165d	0.14559312
51	0x3f2b1ad9	0.6683784
52	0x3e820fc7	0.25402662
53	0x3f2c5f9e	0.673334
54	0x3f3e428a	0.7432028
55	0x3f75d850	0.9603319
56	0x3f811495	1.0084406
57	0x3f924d21	1.1429788
58	0x3f9bede8	1.2181978
59	0x3e865918	0.26239848
60	0x3f1b7259	0.60721356
61	0x3f2e1a8c	0.6800926
62	0x3e7168a3	0.23575072
63	0x3f01f3ac	0.5076244
64	0x3f471acd	0.7777527
65	0x3e430d23	0.1904798
66	0x3f4b0c01	0.7931519
67	0x3f2131ee	0.6296681
68	0x3f024c38	0.5089755
69	0x3f1bade3	0.60812205
70	0x3ecd36b5	0.400808
71	0x3fd60abb	1.6722025
72	0x3eadaa87	0.33919165
73	0x3ed1b056	0.40954846
74	0x3f8840f3	1.0644821
75	0x3f48eaaa	0.7848307
76	0x3f2dcc73	0.6789009
77	0x3ebf8261	0.3740416
78	0x3ea59b75	0.32345167
79	0x3f644931	0.8917418
80	0x3f26677a	0.6500164
81	0x3f4590f1	0.7717429
82	0x3f3b9e74	0.73288655
83	0x3f4701e2	0.7773725
84	0x3f98a2fe	1.1924741
85	0x3e95f3d2	0.29287583
86	0x3eba9882	0.3644448
87	0x3fcdb31a	1.6070282
88	0x3f289daf	0.65865606
89	0x3f9f16f7	1.2428883
90	0x3f0d77b9	0.5526081
91	0x3e941031	0.28918603
92	0x3f48ea47	0.7848248
93	0x3e579f31	0.2105682
94	0x3f4a278e	0.78966606
95	0x3ef37d4c	0.4755653
96	0x3eca0a16	0.3946082
97	0x3f4bc0bf	0.7959098
98	0x3f2e721e	0.6814288
99	0x3e863020	0.2620859
100	0x3f2195b0	0.6311903
101	0x3e957454	0.29190314
102	0x3f04511c	0.51686263
103	0x3e0ccfcc	0.13751143
104	0x3f680f00	0.9064789
105	0x3e42779c	0.1899094
106	0x3e598109	0.2124063
107	0x3e42f48e	0.19038603
108	0x3e913004	0.28356946
109	0x3ecd7a2a	0.40132266
110	0x3fa01131	1.2505246
111	0x3e397ea8	0.18114722
112	0x4002196b	2.0328014
113	0x3e961870	0.2931552
114	0x3f0d0466	0.55084836
115	0x3f306d2d	0.6891659
116	0x3e818009	0.25292996
117	0x3ed22a88	0.41048074
118	0x3eb54b92	0.35409218
119	0x3f644f9a	0.8918396
120	0x3f03c920	0.5147877
121	0x3e4253cf	0.18977283
122	0x3e8b0689	0.27153423
123	0x3fb5a7d5	1.4191843
124	0x3f045b7d	0.517021
125	0x3ef7b282	0.48378378
126	0x3fbe0940	1.4846573
127	0x3ed9d11b	0.42542347
