ddpg_single_3/checkpoint_critic.pth (torch_old, 158476 bytes, 9 tensors)

fcs1.weight f4 [128, 33]
0.106632866 -1.0313387 0.39365247 -0.1481056 -0.6351361 -0.670376 -0.70980513 -0.47489575
1.1156209 -0.39850712 0.20847122 -0.42293614 0.5891614 0.57629085 1.0550075 0.8351087
0.22837974 -0.03240713 1.1545358 -0.5542904 -0.15042575 -0.35958534 0.49947095 -0.63676226
-0.04451636 -0.11050605 -0.20107494 0.07254799 -0.509166 0.039048426 0.07934831 0.08201129
-1.7369165 -1.4579256 0.55815214 0.4030453 0.073977515 0.3062673 -0.5342911 -0.23314108
-0.65420514 -1.468542 1.3941408 -0.5280224 0.45240322 -0.57141346 0.38337797 -0.09662233
-0.5416464 -0.4585986 0.045258146 -0.16454956 0.13300127 0.29299858 0.6631635 -0.5895199
-0.8943263 -0.24282831 0.13040546 0.09991449 0.0025904565 -0.33604214 0.057211347 0.028107107
0.067647345 0.7589613 -0.12797637 1.2307527 0.96281254 -0.53512126 -0.9389282 -0.34573382
-0.46355334 -0.02893075 0.7654302 0.7777851 0.40763184 -0.5405869 0.21522863 0.34424785
-0.85866815 -0.9545145 0.23658709 -0.5464937 -0.39042756 1.3511049 0.13695365 -0.8706906
-1.0509632 -0.060216915 0.30625013 -0.27709046 -0.19724624 -0.0400131 -0.36924493 -0.07300113
0.022007482 0.046732612 0.42140582 0.8605296 0.87356675 -0.2320377 -0.8426846 1.4282876
0.06606423 -0.08658322 0.28229237 0.5369113 -0.05176089 0.19907963 -0.029405637 -0.087266445
-1.2218007 -0.9896388 -0.07259179 1.0246006 -0.09539043 -0.5460693 0.027520686 -0.03984073
-0.05668474 -0.071328014 -0.07133004 -0.52086395 0.1472516 0.6709883 -0.06367762 0.22690266
0.073866434 -0.00022138513 -0.052664235 0.45595524 -0.24891438 0.30452088 -0.39121494 -0.44384104
-0.056767717 -0.2143822 1.2377416 0.3863935 -1.8362488 0.91622597 -0.19074929 -0.5875547
0.38924748 0.5005941 -0.7771394 0.6660971 0.579999 -0.7777921 -0.7339607 0.9408976
0.7274511 -0.39822432 -0.03614194 0.34716555 0.71096694 0.39820412 -0.36760518 -0.057675954
0.13527921 0.072357886 0.022228595 0.049915202 1.6496452 -0.8221109 0.38586685 0.11545449
-0.034822263 -0.64816666 0.34058076 0.07594966 -0.057216242 -0.21501769 0.091285564 -0.19390543
0.20873754 -0.06124124 1.294522 -0.3588839 0.3792531 0.4615659 0.06194939 -0.05669677
-0.26809487 -0.040293787 0.118584245 0.036769453 0.42880055 0.079556346 0.20841503 -0.43820235
-0.030916998 -0.44404128 -0.085937425 -0.062718384 0.06374816 -3.384445 -0.6942838 1.2725629
-0.5668163 0.05165449 0.70486575 -0.26436403 0.19379538 -0.2833306 -0.5764474 -0.526611
-0.20078872 0.06276857 -0.01752456 0.48750827 -1.3358077 0.93619734 0.29018325 0.06497196
0.320411 -0.34336013 -0.056266088 -0.007153587 0.015453777 -0.13485129 -0.59035844 0.021944625
0.010636183 0.025954844 -0.5689952 -0.0038461536 -0.06022155 0.0768057 1.1242445 0.25786287
0.2835423 -0.6670879 0.70722824 -0.28901356 1.1124818 -0.3602683 -0.5139042 -1.1177486
-0.9090447 0.6010523 0.5182173 -1.2784791 -0.24630308 -0.38808084 -0.24031246 0.27382958
-0.1536824 0.3894049 -0.24479145 -1.3202603 0.90721464 0.054753263 -0.09294025 -0.013307259
00000000: 5562 da3d e802 84bf d18c c93e ffa8 17be
00000010: 4898 22bf c39d 2bbf cab5 35bf 8925 f3be
00000020: aacc 8e3f 2009 ccbe 7b79 553e 168b d8be
00000030: 48d3 163f cc87 133f 7c0a 873f afc9 553f
00000040: 61dc 693e 57bd 04bd d4c7 933f fae5 0dbf
00000050: 3509 1abe 921b b8be a8ba ff3e da02 23bf
00000060: c956 36bd ff50 e2bd 97e6 4dbe 0a94 943d
00000070: b458 02bf 3ef1 1f3d 5e81 a23d 89f5 a73d
00000080: 4853 debf 4e9d babf 0fe3 0e3f f45b ce3e
00000090: 8681 973d 11cf 9c3e 4dc7 08bf 89bc 6ebe
000000a0: fd79 27bf 2ff9 bbbf 3573 b23f 7a2c 07bf
000000b0: 65a1 e73e 2748 12bf 1e4a c43e eee1 c5bd
000000c0: 57a9 0abf 70cd eabe 9b60 393d ae7f 28be
000000d0: 7c31 083e e903 963e 15c5 293f c7ea 16bf
000000e0: 92f2 64bf fca7 78be 0289 053e f89f cc3d
000000f0: a6c4 293b b70d acbe 7256 6a3d e040 e63c
00000100: b18a 8a3d 4a4b 423f 3d0c 03be 4e89 9d3f
00000110: e27a 763f b5fd 08bf 995d 70bf 0604 b1be
00000120: dd56 edbe 2e00 edbc 3cf3 433f ed1c 473f
00000130: 1fb5 d03e e763 0abf e564 5c3e 4141 b03e
00000140: add1 5bbf 105b 74bf e343 723e 03e7 0bbf
00000150: 1fe6 c7be 01f1 ac3f 943d 0c3e 94e5 5ebf
00000160: f685 86bf 03a6 76bd d1cc 9c3e cdde 8dbe
00000170: ebfa 49be c7e4 23bd ac0d bdbe 9e81 95bd
00000180: 0949 b43c b26a 3f3d 81c2 d73e ab4b 5c3f
00000190: 12a2 5f3f 4a9b 6dbe 2eba 57bf 21d2 b63f
000001a0: af4c 873d 8b52 b1bd a088 903e 0573 093f
000001b0: 3a03 54bd 88db 4b3e 17e4 f0bc c0b8 b2bd
000001c0: f763 9cbf f858 7dbf 01ab 94bd 1d26 833f
000001d0: 0f5c c3bd 33cb 0bbf 1073 e13c 0930 23bd
000001e0: 422e 68bd 6c14 92bd 7c15 92bd 5757 05bf
000001f0: 20c9 163e e4c5 2b3f 6969 82bd 2c59 683e
00000200: 4947 973d 9e23 68b9 74b6 57bd f772 e93e
00000210: 69e3 7ebe 29ea 9b3e 534d c8be 223f e3be
00000220: 4485 68bd 0287 5bbe 516e 9e3f 5ed5 c53e
00000230: 330a ebbf c98d 6a3f c853 43be fc69 16bf
00000240: 724b c73e ef26 003f 9cf2 46bf 5785 2a3f
00000250: d17a 143f 621d 47bf d9e4 3bbf aade 703f
00000260: 3c3a 3a3f 0fe4 cbbe 9209 14bd afbf b13e
00000270: ee01 363f 69e1 cb3e bf36 bcbe 9f3d 6cbd
00000280: a286 0a3e 5f30 943d be18 b63c e273 4c3d
00000290: 9327 d33f dc75 52bf 5790 c53e 6773 ec3d
000002a0: caa1 0ebd 40ee 25bf 9a60 ae3e 7f8b 9b3d
000002b0: 945b 6abd 992d 5cbe edf3 ba3d 258f 46be
000002c0: 4bbf 553e 18d8 7abd e6b2 a53f a1bf b7be
000002d0: 762d c23e 5e52 ec3e a5be 7d3d df3a 68bd
000002e0: bb43 89be 190b 25bd 4cdc f23d 919b 163d
000002f0: bf8b db3e 70ee a23d c06a 553e 0f5c e0be
00000300: a545 fdbc 6159 e3be f6ff afbd 7f72 80bd
00000310: 658e 823d bf9a 58c0 95bc 31bf 57e3 a23f
00000320: df1a 11bf a993 533d 1572 343f b95a 87be
00000330: 4c72 463e b510 91be 0f92 13bf facf 06bf
00000340: 8f9b 4dbe cf8c 803d ab8f 8fbc af9a f93e
00000350: bffb aabf a1aa 6f3f e692 943e 0510 853d
00000360: e90c a43e e6cc afbe 4577 66bd a368 eabb
00000370: d731 7d3c 7516 0abe bb21 17bf 37c5 b33c
00000380: 6343 2e3c 419f d43c aba9 11bf c00f 7cbb
00000390: dfaa 76bd 4f4c 9d3d 3ee7 8f3f 9a06 843e
000003a0: 752c 913e 46c6 2abf e90c 353f 96f9 93be
000003b0: ce65 8e3f 1675 b8be 3a8f 03bf 6312 8fbf
000003c0: 27b7 68bf 90de 193f e4a9 043f 34a5 a3bf
000003d0: e036 7cbe 88b2 c6be 7814 76be 6433 8c3e
000003e0: eb5e 1dbe 1460 c73e 9caa 7abe 4afe a8bf
000003f0: 383f 683f f544 603d 7557 bebd b106 5abc

fcs1.bias f4 [128]
-0.082860515 -0.015320915 -0.13684875 0.0034691563 -0.15845855 -0.1394401 0.09308954 -0.048288196
-0.073219456 -0.03007653 -0.16854133 0.1595448 -0.0053323447 -0.024993211 -0.0742897 0.08856779
-0.13800742 0.06697009 -0.12488805 -0.06790934 -0.10896115 -0.10905731 -0.023356985 -0.12571022
-0.11672192 -0.16944543 0.045910288 -0.13367125 -0.020502063 -0.041980796 -0.14125147 -0.11647834
-0.0153817665 0.12730995 -0.046214614 0.15188861 0.064206004 -0.13060181 0.05285802 -0.1661234
-0.09963522 0.16761146 0.16967966 -0.098993525 0.021005722 -0.17136656 -0.09491888 0.029714221
-0.16067933 -0.060103334 -0.08199235 -0.1305857 0.09262745 -0.113865174 0.15256433 0.032572158
0.057761718 -0.1251912 0.008995181 0.16018464 -0.09043188 -0.068170264 -0.06698481 -0.036225975
0.10340539 0.08817435 -0.061539806 0.12047929 -0.15978694 -0.05234257 -0.027434926 -0.0073390454
-0.011221161 0.0603415 0.058126315 -0.14968748 0.07195652 0.017191013 0.11192093 -0.023105059
-0.15899383 0.04912893 -0.071290314 -0.110992245 -0.031408172 0.13816655 -0.14269727 -0.0698275
-0.1657484 -0.028562987 0.046688333 0.08650671 -0.053745013 0.12716602 0.0774316 0.099436626
-0.08908731 0.11962111 -0.04458181 0.13018169 0.12437486 -0.15146461 0.01952744 0.021221604
-0.030841708 0.121210515 0.06615938 -0.1717743 0.12206155 0.039809354 0.054287158 0.03263567
0.009692906 -0.0900053 0.03220938 0.0037383344 0.0672681 -0.03954689 0.13050382 -0.005000539
-0.030169774 -0.062590644 0.15560722 -0.0056273937 -0.06617087 -0.07679153 0.16637675 -0.15448527
00000000: c6b2 a9bd 9304 7bbc 1422 0cbe c95a 633b
00000010: f542 22be 63c9 0ebe bba5 be3d d8c9 45bd
00000020: 15f4 95bd 0e63 f6bc 1996 2cbe b65f 233e
00000030: f3ba aebb 90be ccbc 3325 98bd 0863 b53d
00000040: d151 0dbe 9d27 893d 4ec5 ffbd 0d14 8bbd
00000050: 0627 dfbd 7059 dfbd 2657 bfbc 2eba 00be
00000060: e70b efbd 1a83 2dbe 6d0c 3c3d 1ee1 08be
00000070: f1f3 a7bc 0ef4 2bbd 3aa4 10be 328c eebd
00000080: ce03 7cbc 8a5d 023e 894b 3dbd b088 1b3e
00000090: 707e 833d 7bbc 05be a781 583d 411c 2abe
000000a0: 8d0d ccbd 57a2 2b3e 81c0 2d3e 1ebd cabd
000000b0: 3114 ac3c b77a 2fbe d464 c2bd 3d6b f33c
000000c0: 1f89 24be ea2e 76bd 9beb a7bd 42b8 05be
000000d0: 76b3 bd3d 2532 e9bd d339 1c3e 626a 053d
000000e0: 8d97 6c3d 1f32 00be 8660 133c 7107 243e
000000f0: 5934 b9bd da9c 8bbd 552f 89bd b061 14bd
00000100: 35c6 d33d c194 b43d 2a11 7cbd d9bd f63d
00000110: 309f 23be 2a65 56bd 36bf e0bc 607c f0bb
00000120: f6d8 37bc a628 773d dc15 6e3d ad47 19be
00000130: f15d 933d 2bd4 8c3c cd36 e53d d246 bdbc
00000140: 47cf 22be 6b3b 493d a800 92bd e74f e3bd
00000150: dba5 00bd 887b 0d3e 3c1f 12be b801 8fbd
00000160: f3b9 29be edfc e9bc 443c 3f3d 6e2a b13d
00000170: bb23 5cbd cf37 023e 7594 9e3d 6ea5 cb3d
00000180: 6873 b6bd eafb f43d 6a9b 36bd 594e 053e
00000190: 3fb8 fe3d 8a19 1bbe 03f8 9f3c eed8 ad3c
000001a0: c0a7 fcbc 383d f83d 927e 873d 9ae5 2fbe
000001b0: 68fb f93d 220f 233d 365c 5e3d fbac 053d
000001c0: ffce 1e3c b354 b8bd fced 033d d8fe 743b
000001d0: dcc3 893d ebfb 21bd cba2 053e 90db a3bb
000001e0: 9a26 f7bc 862f 80bd 8057 1f3e 0066 b8bb
000001f0: 9884 87bd e144 9dbd ab5e 2a3e 6331 1ebe

fc2.weight f4 [256, 132]
-0.09277382 -0.22257616 0.050133858 0.039440487 -0.05301917 -0.032269046 -0.12831569 -0.10748309
-0.19251211 -0.05822605 -0.2359293 -0.13057466 -0.18538326 -0.021505032 -0.1422382 -0.074659415
-0.05492369 -0.09454477 -0.11566878 -0.10477431 -0.004429962 -0.18876545 -0.15808353 0.023515867
0.022481656 -0.081624515 0.034241617 -0.2514547 -0.056826897 -0.13780884 -0.21895605 -0.06962265
0.07502352 -0.061593253 -0.028968312 -0.23355256 -0.1310833 -0.14975326 -0.20762944 -0.18978891
-0.08956559 -0.2595831 -0.05046007 -0.052009314 -0.14046875 0.023852715 -0.062026482 -0.00018194261
-0.12847257 0.024309052 -0.04706162 0.015460801 -0.11398505 -0.012196469 -0.037452914 -0.048475176
-0.25494847 -0.052897364 -0.08049993 -0.20371808 -0.12300172 -0.08710344 -0.08103041 -0.042984042
-0.01738407 0.04356841 -0.07849279 -0.046168506 -0.082538575 -0.21037307 0.085044675 -0.18994054
-0.09343604 0.05377655 -0.11935325 -0.13154763 -0.2511162 -0.16210575 -0.06010012 -0.07635428
-0.16537133 -0.13128582 -0.0988362 -0.028382381 -0.13146572 -0.2245606 -0.03818816 -0.15824893
-0.103397064 -0.16678661 -0.07566686 0.003943824 -0.15770692 0.020007998 -0.07860952 -0.09123673
0.013456792 -0.24470028 -0.031246873 -0.06871483 -0.04718425 -0.26147476 -0.004108159 -0.21035558
-0.30321386 -0.17658128 -0.23668662 0.027453788 -0.06909241 -0.13627017 0.03584979 -0.04054464
-0.1630812 0.058161963 0.017628001 -0.10126926 -0.2072803 -0.02687925 -0.01525194 -0.2615444
-0.049233295 -0.20168743 -0.21608807 -0.1897073 -0.12622996 0.031717226 -0.08572148 -0.032361683
0.024162991 -0.069265276 -0.017764231 -0.20754066 -0.035348825 0.012150292 0.008439706 -0.024899984
0.04549732 -0.07396242 -0.055412028 -0.008806788 -0.024510315 -0.038388874 -0.03444578 -0.050074592
-0.13380416 -0.0031773045 -0.07238029 0.034507297 -5.8495578e-05 0.02908312 -0.059383035 -0.045016337
0.008151405 -0.073113196 -0.0037404639 -0.043769095 -0.009329915 -0.06358155 -0.004843052 -0.05916532
-0.0081941085 -0.06897263 -0.05038755 -0.06566003 0.027708774 0.0022314193 -0.019224456 -0.026959293
-0.009786517 -0.08608552 -0.038713377 0.008106434 0.03998837 -0.064841665 -0.000796015 -0.052187078
-0.090689406 0.03170889 -0.052211203 -0.076717526 -0.03188584 0.03011695 -0.02698714 -0.04535958
-0.04562025 -0.046116352 -0.05677237 0.0072180573 0.006266672 -0.057130557 0.0035421934 -0.07801428
-0.05301973 -0.09212245 -0.05540893 -0.06607217 -0.07141909 -0.026150499 0.0047270013 0.013411596
-0.075757265 -0.022585118 -0.06919791 -0.0056893164 -0.02277479 -0.09592119 -0.011111848 -0.022061938
-0.06309092 0.014108956 -0.022350194 0.009825086 -0.09309807 -0.021854438 -0.08083798 0.012592135
-0.08353695 -0.029021995 -0.03357398 0.022911003 -0.046697427 0.010427144 -0.0081292465 -0.011981128
0.044507198 0.045360707 -0.02985973 -0.0034626196 -0.02711584 -0.102791786 -0.036260042 -0.07860407
-0.02824835 0.035691362 -0.064103566 -0.031116722 -0.053537972 -0.09907586 0.039647046 -0.046846755
-0.04876197 -0.062141385 -0.080281086 -0.07115757 -0.0030926906 -0.04107042 0.018780096 -0.05835661
-0.026499799 -0.06034603 0.0063904263 0.054306794 -0.06306967 -0.04306786 -0.06506668 -0.030373462
00000000: 3300 bebd 01eb 63be 2959 4d3d 598c 213d
00000010: a12a 59bd 8c2c 04bd 3065 03be 1820 dcbd
00000020: e521 45be 707e 6ebd 7397 71be 5db5 05be
00000030: 1cd5 3dbe 522b b0bc e4a6 11be 09e7 98bd
00000040: aaf7 60bd b0a0 c1bd c1e3 ecbd ea93 d6bd
00000050: 3729 91bb bb4b 41be a6e0 21be 59a4 c03c
00000060: 732b b83c c12a a7bd f040 0c3d acbe 80be
00000070: 52c3 68bd c31d 0dbe 0436 60be 5296 8ebd
00000080: eea5 993d 3549 7cbd f44e edbc 6728 6fbe
00000090: b33a 06be eb58 19be d09c 54be 0658 42be
000000a0: 2a6e b7bd 13e8 84be 38af 4ebd b807 55bd
000000b0: 0ad7 0fbe c566 c33c 7b0f 7ebd d9c7 3eb9
000000c0: 508e 03be c723 c73c afc3 40bd 4d4f 7d3c
000000d0: fe70 e9bd b3d3 47bc 3a68 19bd e88d 46bd
000000e0: 9b88 82be e8aa 58bd 26dd a4bd 799b 50be
000000f0: 53e8 fbbd 4a63 b2bd 46f3 a5bd 0910 30bd
00000100: 0a69 8ebc ca74 323d d4c0 a0bd 301b 3dbd
00000110: fc09 a9bd 0a6c 57be e72b ae3d c67f 42be
00000120: 655b bfbd cd44 5c3d 7a6f f4bd 6cb4 06be
00000130: 4d92 80be 0dff 25be 8b2b 76bd a25f 9cbd
00000140: 1a57 29be ca6f 06be a26a cabd 2b82 e8bc
00000150: f39e 06be 37f3 65be 306b 1cbd 020c 22be
00000160: d7c1 d3bd 1cca 2abe 3af7 9abd 323b 813b
00000170: ec7d 21be d0e7 a33c 07fe a0bd 53da babd
00000180: e079 5c3c b692 7abe 71f9 ffbc 5cba 8cbd
00000190: 4644 41bd 05e0 85be bc9d 86bb 7467 57be
000001a0: d93e 9bbe b9d1 34be fa5d 72be c4e6 e03c
000001b0: 5280 8dbd 688a 0bbe 3bd7 123d 2312 26bd
000001c0: c2fe 26be 3d3b 6e3d 9968 903c 4266 cfbd
000001d0: 4941 54be df31 dcbc 46e3 79bc 26e9 85be
000001e0: daa8 49bd 2687 4ebe 3146 5dbe a142 42be
000001f0: 6d42 01be ece9 013d be8e afbd af8d 04bd
00000200: 77f1 c53c f4da 8dbd 4b86 91bc 8a85 54be
00000210: eec9 10bd 0512 473c b146 0a3c 0dfb cbbc
00000220: 665b 3a3d 9c79 97bd b9f7 62bd 594a 10bc
00000230: dbc9 c8bc a73d 1dbd 0517 0dbd 041b 4dbd
00000240: f503 09be 533a 50bb 1e3c 94bd 8657 0d3d
00000250: 2659 75b8 b93f ee3c a03b 73bd 0d63 38bd
00000260: 788d 053c 5fbc 95bd 9222 75bb 3947 33bd
00000270: 80dc 18bc 0b37 82bd 77b2 9ebb 5657 72bd
00000280: 9540 06bc 8641 8dbd 2d63 4ebd c478 86bd
00000290: 83fd e23c 013d 123b 9b7c 9dbc bcd9 dcbc
000002a0: a157 20bc 9b4d b0bd eb91 1ebd d9d0 043c
000002b0: d8ca 233d b5cb 84bd aaab 50ba 1ec2 55bd
000002c0: 5ebb b9bd 2ee1 013d 6adb 55bd 141e 9dbd
000002d0: ba9a 02bd d2b7 f63c 2214 ddbc f8ca 39bd
000002e0: 4ddc 3abd 80e4 3cbd 258a 68bd 7485 ec3b
000002f0: a858 cd3b bb01 6abd 2524 683b f3c5 9fbd
00000300: 372b 59bd b2aa bcbd 79f4 62bd d950 87bd
00000310: 2c44 92bd 9239 d6bc f6e4 9a3b 50bc 5b3c
00000320: a026 9bbd 6d04 b9bc a2b7 8dbd 726d babb
00000330: 3292 babc 5472 c4bd 780e 36bc 3dbb b4bc
00000340: d035 81bd 4029 673c c117 b7bc 66f9 203c
00000350: 33aa bebd 1408 b3bc 628e a5bd 3e4f 4e3c
00000360: 6c15 abbd 89bf edbc df84 09bd dbaf bb3c
00000370: cd45 3fbd 9dd6 2a3c 8830 05bc 7e4c 44bc
00000380: 2e4d 363d 26cc 393d 649c f4bc 1eed 62bb
00000390: 0a22 debc 8084 d2bd 6985 14bd 2cfb a0bd
000003a0: 1569 e7bc 1b31 123d bb48 83bd 7fe8 febc
000003b0: a24a 5bbd 49e8 cabd f164 223d 62e2 3fbd
000003c0: a2ba 47bd f787 7ebd 696a a4bd 0fbb 91bd
000003d0: bdae 4abb 7539 28bd b7d8 993c 5707 6fbd
000003e0: 1b16 d9bc 662d 77bd c866 d13b cd70 5e3d
000003f0: ac2a 81bd ed67 30bd ae41 85bd c4d1 f8bc

fc2.bias f4 [256]
-0.11494993 -0.10040751 0.36257836 -0.11770507 -0.13097422 -0.10141322 -0.1297382 -0.037812363
-0.50136256 -0.11182994 -0.060061768 -0.11879626 1.1031003 -0.02811643 0.6662489 -0.04992709
-0.098349154 -0.07913612 -0.15036303 0.6573965 -0.11769193 -0.11259797 -0.12544295 -0.102660485
-0.132857 -0.053280648 0.81257886 -0.12436869 -0.12264996 -0.1033829 -0.10317796 0.08931193
0.29229325 -0.11951109 1.1991612 -0.103192806 -0.09694151 -0.03527245 -0.050350703 -0.02058088
-0.04216506 0.6533708 0.23281829 -0.0574132 1.251989 -0.09026207 -0.09592696 -0.059295237
1.3192918 -0.13427874 -0.112597466 -0.14089687 -0.018428091 -0.06719995 -0.030524386 -0.061747167
-0.15274869 -0.13950036 -0.2798092 -0.03489213 -0.035279125 -0.087677404 -0.13490476 -0.045848384
-0.11458368 -0.088289626 -0.057941396 -0.12351477 -0.09510064 -0.16182888 -0.008018591 1.0621965
-0.035651147 -0.10041479 -0.40153497 -0.09386915 0.18478096 -0.092921905 -0.033391885 -0.1055194
-0.12626253 -0.15961207 -0.13191035 -0.079101786 0.07071699 -0.13887478 -0.12463496 -0.11888718
-0.08034921 -0.05406502 -0.13605644 -0.15946494 -0.08687953 -0.1509506 -0.08693052 -0.060494535
-0.08302643 -0.20423484 -0.07232454 -0.04600877 -0.13105166 1.0096154 -0.020278363 -0.03114519
-0.09645424 -0.15089 1.1358572 0.29039595 0.76957923 -0.10263143 -0.06711218 0.30509126
1.2353417 -0.061002225 0.62336254 -0.07027882 -0.114923835 -0.13080356 0.6139765 0.091317244
-0.09746743 -0.1199282 -0.07499508 0.026934141 -0.07242608 -0.0642893 -0.047735434 -0.13834894
0.15993121 0.5003763 0.7580227 -0.13081144 -0.04108711 -0.02300125 -0.04753587 -0.12076747
-0.08939803 -0.10010519 -0.06838551 -0.13472278 0.039193954 -0.13503453 -0.056841396 -0.01518874
-0.08252425 -0.14639843 -0.046259288 -0.048138633 -0.16933034 -0.04507168 -0.0101817055 -0.121078506
1.2378968 -0.06837619 0.4250508 -0.0005008784 -0.12270555 0.15850613 -0.10574581 -0.12018463
-0.7811311 -0.088188 -0.041377805 -0.14068986 -0.3265876 -0.11698442 0.55369 0.0068081603
-0.0797119 0.19473244 -0.13042572 0.030319408 -0.11301006 -0.016425313 0.37458348 -0.3801502
0.015060263 0.4882742 -0.06783947 -0.017460445 -0.01488137 -0.04293642 -0.057832498 -0.110878095
0.011957424 -0.16968669 0.58068156 -0.067910105 0.35545248 -0.09126542 -0.118667215 0.22919594
0.52882355 -0.14731914 -0.045793984 -0.086881794 -0.11682466 -0.12330534 -0.13341767 -0.11146311
0.44773078 -0.39905837 -0.1258565 -0.025921209 -0.508169 -0.11606609 0.7637725 -0.061146434
-0.1638471 -0.099494375 0.073202 -0.123113215 -0.090378456 -0.05074408 0.9283386 -0.08897836
-0.112976804 -0.016465921 0.020704098 -0.027320027 -0.032130513 -0.107799985 0.5272432 -0.12535207
0.036803786 -0.08731158 -0.015292672 0.09442841 -0.09794247 -0.019923203 0.48252395 -0.16739167
0.028187279 -0.105017126 -0.3266935 -0.080864206 -0.052977495 -0.06767048 -0.121122055 0.43387252
-0.076534204 -0.10954105 0.4156731 -0.08626267 -0.048930332 -0.0058250786 -0.06636287 -0.14081688
-0.065838434 0.44402182 -0.04909575 -0.16855653 -0.011616136 1.026788 -0.14500546 0.19724129
00000000: de6a ebbd 74a2 cdbd dfa3 b93e 5b0f f1bd
00000010: 1b1e 06be bcb1 cfbd 17da 04be 23e1 1abd
00000020: 4c59 00bf 1807 e5bd 5403 76bd 744b f3bd
00000030: 6432 8d3f 6d54 e6bc 4a8f 2a3f 5980 4cbd
00000040: 486b c9bd 1e12 a2bd c4f8 19be 234b 283f
00000050: 7708 f1bd c499 e6bd 1e74 00be a93f d2bd
00000060: aa0b 08be cf3c 5abd 2b05 503f 03b5 febd
00000070: e72f fbbd 6aba d3bd f74e d3bd 2ce9 b63d
00000080: 76a7 953e 3bc2 f4bd 1d7e 993f c056 d3bd
00000090: 4589 c6bd d879 10bd 8a3c 4ebd 3c99 a8bc
000000a0: 45b5 2cbd 4f43 273f eb67 6e3e 1b2a 6bbd
000000b0: 2d41 a03f 52db b8bd 5b75 c4bd 90df 72bd
000000c0: 8ede a83f 5e80 09be 8099 e6bd 4547 10be
000000d0: 82f6 96bc 21a0 89bd 470e fabc 99ea 7cbd
000000e0: 276a 1cbe 2fd9 0ebe 2743 8fbe 0deb 0ebd
000000f0: d880 10bd 3690 b3bd 7924 0abe 84cb 3bbd
00000100: d9aa eabd 31d1 b4bd f553 6dbd 50f5 fcbd
00000110: 20c4 c2bd 78b6 25be 6960 03bc 0ef6 873f
00000120: f006 12bd 45a6 cdbd fe95 cdbe 783e c0bd
00000130: 3837 3d3e d74d bebd eec5 08bd 8e1a d8bd
00000140: f74a 01be 5971 23be 8213 07be 1e00 a2bd
00000150: 12d4 903d 3135 0ebe 9d40 ffbd 1f7b f3bd
00000160: 208e a4bd 4873 5dbd 6152 0bbe c74a 23be
00000170: e5ed b1bd cb92 1abe a108 b2bd 1ec9 77bd
00000180: c309 aabd f022 51be e31e 94bd b173 3cbd
00000190: 6832 06be 143b 813f cf1e a6bc 3324 ffbc
000001a0: cd89 c5bd e882 1abe c563 913f c7ae 943e
000001b0: 2503 453f 6d30 d2bd 1c72 89bd ec34 9c3e
000001c0: ad1f 9e3f 78dd 79bd b094 1f3f 58ee 8fbd
000001d0: 305d ebbd 5ef1 05be 902d 1d3f 8904 bb3d
000001e0: 019d c7bd eb9c f5bd 0597 99bd fda4 dc3c
000001f0: 2054 94bd 1caa 83bd 3b86 43bd 58ab 0dbe
00000200: 02c5 233e a918 003f c70d 423f 6ff3 05be
00000210: f54a 28bd 1e6d bcbc f9b4 42bd ef54 f7bd
00000220: 5016 b7bd f303 cdbd b40d 8cbd c5f4 09be
00000230: d789 203d 7e46 0abe 86d2 68bd 31da 78bc
00000240: 7902 a9bd 78e9 15be 617a 3dbd 042d 45bd
00000250: ef64 2dbe 159d 38bd 2bd1 26bc 02f8 f7bd
00000260: 6773 9e3f d108 8cbd 42a0 d93e 614d 03ba
00000270: 0c4d fbbd 6e4f 223e 4291 d8bd 5c23 f6bd
00000280: 35f8 47bf e99b b4bd c67b 29bd 0111 10be
00000290: 7d36 a7be 8795 efbd a1be 0d3f fd16 df3b
000002a0: fe3f a3bd f167 473e 528e 05be 6860 f83c
000002b0: d171 e7bd 618e 86bc 68c9 bf3e 0ca3 c2be
000002c0: 52bf 763c 13ff f93e 6cef 8abd 3509 8fbc
000002d0: fdd0 73bc 19de 2fbd c5e1 6cbd 0e14 e3bd
000002e0: 12e9 433c 59c2 2dbe 8ca7 143f 7414 8bbd
000002f0: defd b53e 5de9 babd cc07 f3bd 57b2 6a3e
00000300: fb60 073f d4da 16be 7992 3bbd 15ef b1bd
00000310: c441 efbd 8387 fcbd a49e 08be c546 e4bd
00000320: f83c e53e 6151 ccbe 87e0 00be b758 d4bc
00000330: 5d17 02bf 0fb4 edbd 9886 433f af74 7abd
00000340: 89c7 27be b5c3 cbbd eeea 953d c822 fcbd
00000350: 5718 b9bd 06d9 4fbd 99a7 6d3f 493a b6bd
00000360: 6260 e7bd 8ae3 86bc a49b a93c 40ce dfbc
00000370: 499b 03bd 3dc6 dcbd 69f9 063f 4b5c 00be
00000380: 91bf 163d 6ad0 b2bd 1e8e 7abc af63 c13d
00000390: 1096 c8bd fc35 a3bc 610d f73e b968 2bbe
000003a0: 02e9 e63c 3813 d7bd 5f44 a7be 229c a5bd
000003b0: eefe 58bd d296 8abd d70e f8bd 8a24 de3e
000003c0: f7bd 9cbd 0f57 e0bd 1bd3 d43e 7caa b0bd
000003d0: 2c6b 48bd 4de0 bebb 42e9 87bd 4d32 10be
000003e0: 4dd6 86bd d456 e33e a018 49bd 159a 2cbe
000003f0: 9b51 3ebc ca6d 833f 507c 14be 9ff9 493e

fc3.weight f4 [1, 256]
0.005136727 -0.017375784 0.024246337 0.0031923887 0.002157245 -0.0032220127 0.035235893 0.0047519654
0.041838244 0.0035112123 0.0148765575 -0.009478369 0.054141022 -0.007872308 0.026775077 -0.020656556
-0.015287883 0.016118526 0.00074548426 0.03547638 -0.044883713 0.0014214743 0.015605298 -0.001220034
-0.00262742 0.0038312941 0.029830687 0.020637482 0.011033493 -0.015933177 -0.012558752 -0.040023223
0.044832066 0.022849575 0.045613695 0.0039312053 -0.011125257 -0.013010446 0.00786628 0.054821555
0.008674708 0.037663754 0.020026859 -0.024225118 0.04252122 0.013287913 -0.023960233 -0.024047215
0.035620213 -0.005766778 -0.01222343 -0.0018391133 0.0040766513 -0.029446179 0.022998022 -0.0044626556
0.0035600998 -0.034476347 0.0076339613 0.003631075 0.013202707 0.0160682 -0.024301244 0.003986181
-0.021164268 -0.024208596 0.007957119 -0.017976891 0.0008595022 -0.026764484 -0.003216058 0.045951676
-0.00064106163 -0.0035149602 -0.043572146 0.0021031355 0.032257095 -0.020038152 0.015420295 0.006541216
0.019104924 -0.0139152575 -0.016223185 0.008310476 0.05867518 -0.02224903 0.0030275867 0.05133646
-0.0012358903 -0.03656076 0.0076834555 -0.07297435 -0.008878595 -0.022406671 -0.003333267 0.0018315193
0.009794744 -0.03391778 -0.022791516 -0.033258315 0.033514947 0.036720376 -0.015725235 0.021133937
-0.010933063 -0.0036177295 0.045055237 0.029128727 0.0383118 0.026073359 -0.020993413 0.026126413
0.059491277 0.02498273 0.037145894 -0.023658834 0.0001393585 0.015975568 0.014847818 0.044286273
0.03054172 0.02288938 -0.016857803 0.000850451 -0.0042328895 -0.010004228 0.0013688653 0.021275856
0.036786597 0.07510752 0.048318256 0.04887147 -0.020755319 0.008958231 -0.0010323972 0.019144027
-0.023735555 -0.018563097 0.024219189 -0.024518471 0.011466414 0.023911068 -0.0027975691 0.0067357277
-0.010869793 0.0028447327 -0.012504272 -0.00010041778 0.02295387 -0.026216827 0.00510562 -0.021749863
0.034303654 -0.0060694967 0.035448484 -0.019079397 -0.00032373756 0.048067737 -0.03419493 0.014377325
-0.021850152 -0.007023436 -0.027184008 -0.024505766 -0.040018752 0.027562266 0.05310317 0.034392122
-0.006718144 0.03841567 -0.030455008 -0.09037574 0.024070997 0.052185394 0.02951404 -0.09379731
0.06728026 0.023152284 0.008960891 -0.0071673975 0.028860768 -0.019141482 0.021949738 -0.0077965898
0.02108838 0.025914466 0.03355624 0.0163242 0.0630735 0.008534791 0.011578458 0.06981594
0.051889308 -0.03740404 0.00530744 0.007176966 -0.016476525 -0.024532538 -0.012892998 -0.032652322
-0.046108752 -0.050513726 -0.029074749 0.0029264968 -0.035219435 -0.02865849 0.04427626 -0.0028443378
0.0030891632 0.014605099 -0.035069216 0.021202052 -0.0040000067 -0.02883345 0.059367977 0.004792032
-0.00019320336 -0.011137118 -0.05642038 0.024957893 -0.00032257318 -0.009240743 0.032819748 -0.03136338
-0.068103775 -0.0025218814 -0.020469338 0.07547061 -0.013775953 0.0041413503 0.02752072 -0.07557446
0.026909402 0.0067712544 -0.061360374 0.018526133 -0.010963249 -0.039840326 -0.02411567 0.025093205
0.004236386 -0.01843288 0.040951584 0.0013855643 -0.023074728 0.014297022 -0.010541486 -0.021635333
-0.015933536 -0.034416005 0.017910535 -0.018984418 0.02259916 0.039153647 0.012759193 0.022058388
00000000: fd51 a83b a957 8ebc 41a0 c63c 6537 513b
00000010: 9160 0d3b 6728 53bb 8353 103d 60b6 9b3b
00000020: 945e 2b3d 5e1c 663b cebc 733c 294b 1bbc
00000030: fac2 5d3d dafa 00bc 6857 db3c f037 a9bc
00000040: 077a 7abc 000b 843c 9a6c 433a ae4f 113d
00000050: fcd7 37bd c350 ba3a 5dad 7f3c 8ce9 9fba
00000060: cb30 2cbb 7316 7b3b 7c5f f43c f00f a93c
00000070: d3c5 343c 4b86 82bc 39c3 4dbc 64ef 23bd
00000080: d4a1 373d 082f bb3c 6dd5 3a3d 57d1 803b
00000090: b646 36bc c429 55bc 92e1 003c 918c 603d
000000a0: 5d20 0e3c 4f45 1a3d 5e0f a43c c173 c6bc
000000b0: bb2a 2e3d 8cb5 593c 4048 c4bc aafe c4bc
000000c0: 80e6 113d 3df7 bcbb c844 48bc 670e f1ba
000000d0: 6e95 853b 1d39 f1bc 5966 bc3c 783b 92bb
000000e0: 9050 693b 1237 0dbd 4f26 fa3b 54f7 6d3b
000000f0: 2b50 583c 75a1 833c 6713 c7bc 839e 823b
00000100: b060 adbc 1b51 c6bc 935e 023c 4644 93bc
00000110: 3750 613a 3141 dbbc 80c4 52bb d337 3c3d
00000120: eb0c 28ba 3f5b 66bb b578 32bd c2d4 093b
00000130: 0420 043d 0d27 a4bc 68a5 7c3c b257 d63b
00000140: ee81 9c3c d2fc 63bc 7ce6 84bc aa28 083c
00000150: 6355 703d 9943 b6bc 7a6a 463b 2e46 523d
00000160: 99fd a1ba bcc0 15bd 7fc5 fb3b 9373 95bd
00000170: 8777 11bc 328e b7bc f172 5abb 970f f03a
00000180: 227a 203c 5fed 0abd 46b5 babc df39 08bd
00000190: f846 093d 1b68 163d 35d2 80bc 1421 ad3c
000001a0: 9720 33bc 6e17 6dbb d78b 383d 5e9f ee3c
000001b0: d6ec 1c3d cc97 d53c 61fa abbc 0f07 d63c
000001c0: 20ad 733d 95a8 cc3c 4b26 183d 2cd0 c1bc
000001d0: c320 1239 32df 823c 4344 733c 8665 353d
000001e0: a132 fa3c 8282 bb3c 6019 8abc cdf0 5e3a
000001f0: 0db4 8abb c6e8 23bc 7f6b b33a b44a ae3c
00000200: 8bad 163d f9d1 993d 5de9 453d 732d 483d
00000210: 0f07 aabc 8bc5 123c 8051 87ba efd3 9c3c
00000220: 1171 c2bc a311 98bc 5267 c63c f6da c8bc
00000230: a0dd 3b3c 25e1 c33c 6c57 37bb 61b7 dc3b
00000240: 3717 32bc b26e 3a3b b8de 4cbc 6397 d2b8
00000250: c109 bc3c acc4 d6bc 0b4d a73b c52c b2bc
00000260: fd81 0c3d a1e2 c6bb 6e32 113d 654c 9cbc
00000270: 52bb a9b9 ade2 443d fc0f 0cbd df8e 6b3c
00000280: 17ff b2bc da24 e6bb ffb0 debc 51c0 c8bc
00000290: b4ea 23bd 43ca e13c b682 593d c1de 0c3d
000002a0: e023 dcbb c059 1d3d c87c f9bc ea16 b9bd
000002b0: 8a30 c53c 5ac0 553d 6ec7 f13c ce18 c0bd
000002c0: 3cca 893d dca9 bd3c b3d0 123c 7ddc eabb
000002d0: 6b6d ec3c 99ce 9cbc f0cf b33c 897a ffbb
000002e0: 8ac1 ac3c 934a d43c 4572 093d 54ba 853c
000002f0: ae2c 813d 82d5 0b3c 93b3 3d3c a9fb 8e3d
00000300: e289 543d fb34 19bd 09ea ad3b c12c eb3b
00000310: c7f9 86bc 76f8 c8bc 273d 53bc 71be 05bd
00000320: 88dc 3cbd 7be7 4ebd 2b2e eebc 78ca 3f3b
00000330: 4142 10bd 36c5 eabc 065b 353d 1268 3abb
00000340: 8f73 4a3b 3a4a 6f3c bda4 0fbd edaf ad3c
00000350: 7d12 83bb 2134 ecbc d62b 733d 7a06 9d3b
00000360: a296 4ab9 7578 36bc 0e19 67bd 7f74 cc3c
00000370: 0a1f a9b9 7c66 17bc 006e 063d e376 00bd
00000380: fe79 8bbd 2646 25bb 50af a7bc 5690 9a3d
00000390: 89b4 61bc 2ab4 873b 2273 e13c c8c6 9abd
000003a0: 1b71 dc3c 66e1 dd3b 0455 7bbd 1ec4 973c
000003b0: 339f 33bc 9c2f 23bd 3a8e c5bc 4490 cd3c
000003c0: 62d1 8a3b 8d00 97bc d9bc 273d d39b b53a
000003d0: 3607 bdbc 0e3e 6a3c 32b6 2cbc 953c b1bc
000003e0: 0c87 82bc ccf7 0cbd 1db9 923c 3685 9bbc
000003f0: e021 b93c 935f 203d ef0b 513c cbb3 b43c

batchnorm_1.weight f4 [128]
0.5251121 0.58017415 0.38895753 0.4065567 0.3810083 0.5341222 0.5281337 0.3756874
0.6137066 0.37849927 0.4349836 0.75146544 0.6554335 0.41710916 0.7072554 0.44509044
0.8471577 0.41782823 0.6056796 0.9262219 0.45033944 0.8588766 0.66745245 0.6298513
0.40169975 0.9173128 0.7462916 0.88298464 0.38793397 0.7443301 0.88114953 0.7548166
0.7413609 0.7524427 0.5514285 0.43222857 0.61857617 0.34708148 0.26984525 0.7221747
0.6729171 0.64874595 0.5033074 1.022058 0.61181486 0.45218804 0.6232823 0.5808899
0.6328426 0.47122547 0.51297915 0.71428496 0.3422111 0.4765993 0.6034373 0.52299637
0.45166755 0.49092355 0.67550576 0.35121268 0.45513546 0.45857286 0.5443583 1.1553646
0.7274719 0.7801179 0.5739559 0.83178973 0.55064833 0.4765823 0.46510845 0.7183831
0.8420776 0.46738943 0.5456881 0.6106626 0.48555344 0.61020535 0.5370608 0.7772613
0.52544826 0.60496336 0.4432073 0.5884084 0.6459817 0.56348133 0.40900496 0.6353973
0.3901964 0.6736902 0.48558143 0.36319762 0.43064478 0.7593165 0.7572878 0.9338597
0.63422424 0.4219343 0.63869786 0.5531176 0.73049897 0.5353041 0.54564613 0.9447791
0.5161635 0.76563346 0.73664814 0.958136 0.8639322 0.66020584 0.30425528 0.7699816
0.33886075 0.49315926 0.78036296 0.45883816 0.74454474 0.5054966 0.49845976 0.48072243
0.27376717 0.6400102 0.43261176 0.83063686 0.90298194 1.0508869 0.6506483 0.5196242
00000000: bf6d 063f 4b86 143f 7125 c73e 3328 d03e
00000010: 8513 c33e 3cbc 083f c533 073f 195a c03e
00000020: e01b 1d3f a8ca c13e 2cb6 de3e 0a60 403f
00000030: 7dca 273f 558f d53e b10e 353f e5e2 e33e
00000040: 54df 583f 95ed d53e d10d 1b3f e11c 6d3f
00000050: e492 e63e 56df 5b3f 2ade 2a3f ef3d 213f
00000060: 97ab cd3e 03d5 6a3f f70c 3f3f 480b 623f
00000070: 489f c63e 6b8c 3e3f 0493 613f a93b 413f
00000080: d4c9 3d3f 16a0 403f 6b2a 0d3f 104d dd3e
00000090: 025b 1e3f aab4 b13e 2829 8a3e 71e0 383f
000000a0: 4c44 2c3f 3714 263f c1d8 003f ccd2 823f
000000b0: e69f 1c3f 3185 e73e 6e8f 1f3f 33b5 143f
000000c0: f901 223f 7744 f13e 9a52 033f 61db 363f
000000d0: 4b36 af3e d304 f43e de7a 1a3f 17e3 053f
000000e0: f840 e73e 555a fb3e f2ed 2c3f 26d2 b33e
000000f0: 8407 e93e 10ca ea3e 115b 0b3f fde2 933f
00000100: 993b 3a3f cfb5 473f c6ee 123f 2cf0 543f
00000110: 4af7 0c3f 9802 f43e b222 ee3e f4e7 373f
00000120: 6692 573f ab4d ef3e 37b2 0b3f 6254 1c3f
00000130: 769a f83e 6b36 1c3f d17c 093f 99fa 463f
00000140: c783 063f e1de 1a3f 11ec e23e efa1 163f
00000150: 0f5f 253f 5040 103f 1969 d13e 66a9 223f
00000160: d3c7 c73e f676 2c3f 219e f83e 0af5 b93e
00000170: 797d dc3e 9162 423f 9ddd 413f 6e11 6f3f
00000180: 855c 223f c607 d83e b481 233f 1d99 0d3f
00000190: fb01 3b3f b109 093f 77af 0b3f 0bdd 713f
000001a0: 4b23 043f 8e00 443f f994 3c3f 6748 753f
000001b0: a92a 5d3f 4003 293f 59c7 9b3e 841d 453f
000001c0: 287f ad3e 5f7f fc3e dec5 473f d6ec ea3e
000001d0: 7c9a 3e3f 3a68 013f 1e36 ff3e 4021 f63e
000001e0: 362b 8c3e b5d7 233f 4a7f dd3e 9ea4 543f
000001f0: d329 673f 7683 863f e390 263f 1706 053f

batchnorm_1.bias f4 [128]
-0.37786373 -0.50797784 -0.24563274 0.049660183 -0.07481377 -0.043626804 -0.14865534 0.0008038811
-0.44410297 0.018032901 -0.06776093 -0.43888667 -0.6619543 -0.08771249 -0.50258636 -0.22128248
-0.67967266 -0.28640437 -0.6007124 -0.2366828 -0.061305106 -0.76471287 -0.45164266 -0.622631
-0.25569287 -0.25979203 -0.34316903 -0.41994318 0.10913111 -0.84661716 -0.5279422 -0.63203037
-1.002772 -0.6180625 -0.46061012 -0.031178769 -0.23788194 0.019948263 -0.11351301 -0.7263427
-0.60536903 0.15114188 -0.22089083 -0.74793684 -0.5540686 -0.18678744 -0.4781129 -0.21040401
-0.46144938 -0.30656177 -0.11714767 -0.5243525 -0.15165927 -0.038446862 -0.3572032 -0.14962308
-0.1330691 -0.30317795 0.040113166 -0.17577921 -0.15604809 -0.2351477 -0.54937583 -0.6886
-0.6582767 -0.2308217 -0.5323515 -0.5771088 -0.6139868 -0.18152685 -0.19308273 -0.5024113
-0.41268334 -0.26260605 -0.48290938 -0.23522192 0.15493806 -0.5727318 -0.039648052 -0.8030166
-0.2281932 -0.40788043 -0.24418333 -0.656479 -0.47831777 -0.32442474 -0.20414501 -0.552517
-0.0944761 -0.42061064 -0.09785079 -0.11274559 -0.007370126 -0.7043127 -0.2356575 -0.50459564
-0.38249385 -0.13454764 -0.24993329 -0.29352984 -0.6836229 -0.27634904 -0.43153694 -0.35550532
0.020069571 -0.4946099 -0.83045614 -0.5244479 0.24433997 -0.092423245 -0.009424847 -0.16382535
-0.19376099 -0.0726598 -0.7102831 0.00073776906 -0.5918646 -0.14175887 -0.03648087 0.01507372
-0.050132994 -0.7650748 -0.06805648 -0.5467317 -0.5598202 -0.012805987 -0.4503573 -0.15045393
00000000: 5b77 c1be d60a 02bf 2687 7bbe 7a68 4b3d
00000010: f637 99bd 05b2 32bd 1b39 18be 8cbb 523a
00000020: 7761 e3be bcb9 933c 3ec6 8abd c1b5 e0be
00000030: d675 29bf 9ba2 b3bd 80a9 00bf e097 62be
00000040: 07ff 2dbf 98a3 92be 4ac8 19bf fa5c 72be
00000050: 101b 7bbd 39c4 43bf b53d e7be bf64 1fbf
00000060: 2dea 82be 7603 85be dab3 afbe cb02 d7be
00000070: 2280 df3d e7bb 58bf 3827 07bf becc 21bf
00000080: d55a 80bf 5839 1ebf 17d5 ebbe 9e6a ffbc
00000090: 5397 73be 8a6a a33c 8279 e8bd 98f1 39bf
000000a0: 77f9 1abf f0c4 1a3e 3531 62be ca78 3fbf
000000b0: 71d7 0dbf 3545 3fbe 37cb f4be 2674 57be
000000c0: 1843 ecbe aaf5 9cbe 1eeb efbd f73b 06bf
000000d0: 914c 1bbe 757a 1dbd 56e3 b6be cb36 19be
000000e0: 4443 08be 243a 9bbe b44d 243d 77ff 33be
000000f0: 12cb 1fbe 8fca 70be e5a3 0cbf 1748 30bf
00000100: d284 28bf 865c 6cbe 3048 08bf 67bd 13bf
00000110: 3d2e 1dbf 2de2 39be 7bb7 45be 079e 00bf
00000120: 3b4b d3be 4d74 86be e63f f7be 04de 70be
00000130: 15a8 1e3e 8d9e 12bf ff65 22bd 7f92 4dbf
00000140: 7aab 69be b4d5 d0be 320b 7abe 020f 28bf
00000150: 11e6 f4be 001b a6be 640b 51be c171 0dbf
00000160: af7c c1bd 475a d7be ff65 c8bd 29e7 e6bd
00000170: 1981 f1bb d64d 34bf 3350 71be 2e2d 01bf
00000180: 3cd6 c3be dbc6 09be 83ee 7fbe 8b49 96be
00000190: e901 2fbf 9f7d 8dbe 69f2 dcbe cb04 b6be
000001a0: f168 a43c 823d fdbe c698 54bf 3842 06bf
000001b0: 4234 7a3e 6648 bdbd ac6a 1abc d5c1 27be
000001c0: 4869 46be a9ce 94bd 1dd5 35bf d866 413a
000001d0: 7084 17bf 3d29 11be f76c 15bd c4f7 763c
000001e0: 4158 4dbd f1db 43bf 3261 8bbd 9cf6 0bbf
000001f0: 6050 0fbf 34d0 51bc 3b95 e6be 9810 1abe

batchnorm_1.running_mean f4 [128]
-1.0426676 -0.9912054 -0.80155414 1.4996701 0.94347453 -0.3671325 1.0542104 0.837327
1.3344201 3.7196002 -0.6650165 -3.0629268 -0.32692972 -0.9892854 -0.7763289 1.3134402
-0.41918027 1.0448992 -1.3017768 -0.85540074 -0.9040739 1.0144414 1.8403784 -1.9645661
0.3865322 0.40147558 -0.7652573 -0.5331976 0.32448274 0.31783685 -0.5094404 1.6411116
-0.3236949 -1.008387 -1.8807716 -1.7011666 -0.40457115 0.8587545 0.48215854 -1.6785617
0.15772308 2.0421596 0.35594973 0.7565858 -2.4505043 -0.01307219 -1.3638833 1.2832211
-1.5308738 2.3692477 -0.57196975 -0.63130176 0.69192684 1.7718366 -0.49658024 -0.08583257
-2.6079967 -0.71676636 0.76868653 0.43285936 -3.367008 1.7225527 -0.09392964 -0.009212103
-1.9504768 0.267905 1.3531708 0.66468126 -0.93360215 -4.6746035 -3.6406856 0.06907387
0.27356896 -0.5983224 -2.937346 0.19693357 0.42311484 -0.32215396 -0.49402982 -0.17202061
-1.5210562 -0.43401334 0.5773158 -0.033749465 1.0183502 -2.6403952 -1.0834718 -0.4763894
-2.0601192 1.6632899 -0.25404143 -3.0940042 1.5481948 -1.4163778 2.0650666 -0.032925103
1.0807979 1.4708344 0.76879495 -0.6527064 4.197294 0.8520372 0.39311868 -1.3316368
2.044845 0.0690404 -0.66282594 -0.007229006 -0.9391767 -0.8146527 0.5293922 0.52556497
-0.7716827 0.11186888 -0.8525963 -1.7742225 -0.0744957 -0.049027145 0.21077935 0.93448687
0.8948229 3.5107152 0.0947288 -0.20028575 0.14058696 -0.41381353 0.013918399 -1.0528275
00000000: 2276 85bf a3bf 7dbf a732 4dbf 31f5 bf3f
00000010: 8c87 713f cbf8 bbbe 5ef0 863f 105b 563f
00000020: 47ce aa3f ee0d 6e40 853e 2abf fe06 44c0
00000030: 5563 a7be cf41 7dbf 7ebd 46bf cf1e a83f
00000040: cc9e d6be 42bf 853f 9fa0 a6bf 8bfb 5abf
00000050: 6371 67bf 37d9 813f 8591 eb3f e776 fbbf
00000060: 8ce7 c53e 358e cd3e e7e7 43bf a37f 08bf
00000070: 9a22 a63e 83bb a23e b06a 02bf f20f d23f
00000080: 57bb a5be d312 81bf 20bd f0bf d4bf d9bf
00000090: f323 cfbe 56d7 5b3f 7cdd f63e 1cdb d6bf
000000a0: 2982 213e beb2 0240 0b3f b63e 9baf 413f
000000b0: 10d5 1cc0 bd2c 56bc ba93 aebf 9740 a43f
000000c0: acf3 c3bf c1a1 1740 9c6c 12bf fe9c 21bf
000000d0: 1e22 313f 8bcb e23f c43f febe fdc8 afbd
000000e0: 6be9 26c0 007e 37bf a4c8 443f be9f dd3e
000000f0: 0f7d 57c0 9b7c dc3f 2f5e c0bd 5cee 16bc
00000100: 39a9 f9bf d82a 893e b334 ad3f 8d28 2a3f
00000110: 8d00 6fbf 5a96 95c0 fe00 69c0 9a76 8d3d
00000120: 3b11 8c3e a82b 19bf 7afd 3bc0 f4a8 493e
00000130: 82a2 d83e 5df1 a4be 7af1 fcbe 2c26 30be
00000140: f8b1 c2bf ff36 debe f8ca 133f e13c 0abd
00000150: 4d59 823f 3cfc 28c0 34af 8abf 50e9 f3be
00000160: fed8 03c0 afe6 d43f b811 82be 2a04 46c0
00000170: 3f2b c63f de4b b5bf 0d2a 0440 79dc 06bd
00000180: 9657 8a3f 4d44 bc3f bfcf 443f c417 27bf
00000190: 3c50 8640 1c1f 5a3f da46 c93e 1373 aabf
000001a0: bede 0240 0e65 8d3d f6ae 29bf 4ce1 ecbb
000001b0: e26d 70bf 148d 50bf 3f86 073f 6d8b 063f
000001c0: ff8c 45bf 831b e53d c043 5abf b919 e3bf
000001d0: 3491 98bd b0d0 48bd 8bd6 573e 883a 6f3f
000001e0: 1d13 653f 8faf 6040 2c01 c23d b517 4dbe
000001f0: 07f6 0f3e 5edf d3be ff09 643c 0dc3 86bf

batchnorm_1.running_var f4 [128]
33.15369 49.8257 34.116096 25.690947 43.66603 20.324745 26.008356 36.912804
24.893244 56.5529 21.96994 29.882402 38.958862 26.315155 68.76385 45.959244
30.601065 27.452549 29.496927 24.401907 20.985937 171.91954 41.757378 129.00423
35.717876 18.16772 31.117016 17.124657 18.72464 151.92387 23.743563 86.13878
126.47754 93.415764 43.677597 85.50063 30.004272 17.01228 30.512444 74.85402
40.572514 20.751257 27.666481 26.447048 62.738873 38.81381 11.367721 72.40464
60.885143 52.021896 73.485565 29.240501 25.920755 25.275629 65.23811 32.365467
92.16401 19.57806 14.199346 24.852083 74.64794 57.30933 76.71504 28.139296
26.196598 26.643229 50.833344 31.969301 74.993355 63.478134 75.59383 49.360176
19.363178 29.288439 79.065636 24.210781 78.740685 29.446972 45.770836 25.987593
29.780859 21.659006 45.629116 41.6586 51.20544 55.433666 59.67211 61.265522
51.347668 58.323357 41.525208 46.896374 19.077782 33.808308 79.25867 17.522453
30.874392 30.961021 69.98173 52.619312 50.475796 35.26181 44.34939 25.296402
39.63404 30.621181 39.80731 23.463392 21.375034 32.578186 36.994633 17.805908
30.108328 32.528713 134.38031 93.881386 30.002394 94.34261 24.801878 61.651108
50.205097 80.15635 42.379627 16.153883 25.656437 17.588581 29.86881 63.140976
00000000: 619d 0442 844d 4742 e276 0842 0f87 cd41
00000010: 04aa 2e42 1499 a241 1d11 d041 b6a6 1342
00000020: 5d25 c741 2b36 6242 70c2 af41 290f ef41
00000030: e0d5 1b42 7085 d241 1787 8942 44d6 3742
00000040: fbce f441 d29e db41 b5f9 eb41 1b37 c341
00000050: 33e3 a741 67eb 2b43 8e07 2742 1501 0143
00000060: 1bdf 0e42 7e57 9141 a6ef f841 4cff 8841
00000070: 10cc 9541 83ec 1743 d1f2 bd41 0e47 ac42
00000080: 80f4 fc42 dfd4 ba42 dcb5 2e42 5300 ab42
00000090: c008 f041 2619 8841 7c19 f441 42b5 9542
000000a0: 414a 2242 9302 a641 f454 dd41 8e93 d341
000000b0: 9bf4 7a42 5741 1b42 2fe2 3541 2dcf 9042
000000c0: 638a 7342 6c16 5042 9cf8 9242 8cec e941
000000d0: b55d cf41 7d34 ca41 ea79 8242 3d76 0142
000000e0: f953 b842 de9f 9c41 8530 6341 11d1 c641
000000f0: bf4b 9542 c13c 6542 1a6e 9942 471d e141
00000100: a292 d141 5525 d541 5855 4b42 21c1 ff41
00000110: 99fc 9542 9ce9 7d42 0a30 9742 d270 4542
00000120: cae7 9a41 b94e ea41 9b21 9e42 aeaf c141
00000130: 3b7b 9d42 6693 eb41 5615 3742 97e6 cf41
00000140: 333f ee41 a545 ad41 3784 3642 68a2 2642
00000150: 5fd2 4c42 13bc 5d42 3eb0 6e42 e50f 7542
00000160: 0364 4d42 1e4b 6942 d019 2642 e395 3b42
00000170: 4c9f 9841 b53b 0742 7084 9e42 fc2d 8c41
00000180: c1fe f641 2cb0 f741 a5f6 8b42 2d7a 5242
00000190: 37e7 4942 180c 0d42 c665 3142 085f ca41
000001a0: 4289 1e42 2ef8 f441 af3a 1f42 07b5 bb41
000001b0: 1200 ab41 1050 0242 81fa 1342 8072 8e41
000001c0: dbdd f041 671d 0242 5c61 0643 45c3 bb42
000001d0: e704 f041 6baf bc42 3f6a c641 bc9a 7642
000001e0: 05d2 4842 0d50 a042 bd84 2942 273b 8141
000001f0: 6240 cd41 6ab5 8c41 53f3 ee41 5c90 7c42
