ddpg_single_3/checkpoint_actor.pth (torch_old, 157461 bytes, 10 tensors)

fc1.weight f4 [128, 33]
-0.1253157 -0.19478327 0.12569821 0.06092047 -0.10713045 -0.018497957 0.09021353 -0.051426236
-0.1168501 -0.071080275 -0.05053163 -0.038140547 -0.0641043 -0.06007928 0.07493201 -0.09363854
-0.066540934 -0.05826713 0.14618081 0.060786575 -0.009268867 0.014638713 0.0283388 0.005234524
0.041763805 0.008236313 0.111369245 0.08688089 -0.06585748 0.04742626 0.02966086 0.06812362
0.33010647 0.077998266 -0.07363006 -0.09322058 -0.04025431 -0.015737394 0.11115908 0.06970564
-0.10800207 0.1683347 0.16576393 0.032822672 -0.0107294265 0.012811257 -0.06294522 -0.019668056
-0.020640478 0.112652995 0.008653633 0.06646402 -0.119015396 -0.0764213 0.07502373 0.046135467
0.008061088 -0.071109705 -0.05586558 -0.12247382 -0.0131049035 0.07158374 0.020753942 -0.072146714
-0.059025533 0.24519165 0.10412047 0.09131627 0.122939475 -0.045685653 0.09973921 0.044652667
-0.09756799 0.018024217 0.15081568 0.083944924 0.07698459 0.06889838 0.01255335 0.056757208
-0.010931228 0.01022894 -0.012637663 0.019270249 -0.003290516 0.086750045 0.03642826 -0.030625949
0.048511025 0.04209539 0.025115725 0.016317185 -0.15223324 -0.07514567 -0.12639512 -0.024514072
0.08158791 0.03960719 0.43314755 -0.12607934 0.036998503 0.16237465 -0.036205307 -0.058053214
-0.05362475 -0.014994098 0.055666488 0.096159436 -0.043028392 -0.042746734 0.01914513 0.04242593
0.0053302213 -0.07247099 -0.1024633 -0.015069983 -0.046582006 0.021740971 0.017168682 -0.007906141
-0.008310227 0.016726859 -0.015428885 -0.027766006 -0.036010347 0.08438798 -0.040794875 -0.015995495
-0.040080924 -0.017350644 -0.07545642 -0.40952513 -0.024358187 0.045749802 0.0020751709 0.003324157
-0.0672126 -0.00439102 0.017141012 0.016603692 0.047502313 0.019627888 0.0064742393 0.050119624
0.0030332927 0.010149234 -0.022139212 0.0023605183 0.0012598658 -0.030501807 -0.07294414 0.010969628
0.019429047 0.0044476627 -0.014533303 -0.021154266 -0.02091145 -0.014463089 0.083630145 0.07402236
0.010307237 -0.05577852 0.017452598 0.014627039 -0.78440493 -0.10645151 0.033246525 0.04914414
0.027942458 0.091292106 -0.13138445 0.013022314 -0.049970448 -0.05770565 -0.04789826 0.025870621
-0.02403952 -0.04283431 -0.006861213 -0.16789584 -0.09207606 0.005733321 -0.102918796 -0.025873642
0.03162591 0.017450625 -0.031926285 0.068301775 -0.0055131624 -0.0047564968 -0.021567369 -0.0027942753
0.068170354 -0.1535193 0.019481905 0.038639966 0.047374032 -0.3284849 -0.050551325 -0.39369252
-0.12696964 0.020608705 -0.0471819 -0.0105329845 -0.0017067601 -0.01153534 -0.057740133 -0.052552015
-0.028502993 -0.0016963185 -0.011711063 -0.0017499166 0.19573028 0.060431212 -0.018222598 0.0039630323
0.012259212 0.00035970213 0.009131658 -0.009340837 0.0014579081 0.041325748 0.008475568 0.012818896
0.0060528996 -0.08492413 0.009697066 -0.03130354 0.0023998981 -0.021326937 0.093567535 -0.090945356
-0.2637768 -0.11616591 0.09464276 -0.058551952 -0.052285455 -0.042069174 -0.033797543 -0.18016747
0.09713391 -0.0108160265 -0.119325906 -0.009668388 0.00073937717 0.17295215 0.037999753 0.060887486
0.005907988 0.004743222 -0.026161531 0.010893554 -0.0858335 0.07711993 -0.10151215 0.03815733
00000000: c252 00be 4475 47be 08b7 003e be87 793d
00000010: 3667 dbbd 0789 97bc dfc1 b83d 51a4 52bd
00000020: 1b4f efbd 8992 91bd 41fa 4ebd 4339 1cbd
00000030: 1e49 83bd b115 76bd f475 993d 90c5 bfbd
00000040: 9d46 88bd 84a9 6ebd 6cb0 153e 58fb 783d
00000050: 72dc 17bc 36d7 6f3c c526 e83c 5f86 ab3b
00000060: 8610 2b3d 9af1 063c 8f15 e43d 9cee b13d
00000070: 49e0 86bd 0a42 423d 55fb f23c 6584 8b3d
00000080: b703 a93e 8ebd 9f3d 5bcb 96bd 6eea bebd
00000090: b4e1 24bd b5eb 80bc 5fa7 e33d d5c1 8e3d
000000a0: 3030 ddbd ee5f 2c3e 05be 293e 1171 063d
000000b0: 7aca 2fbc 4ee6 513c 6ce9 80bd e71e a1bc
000000c0: 3816 a9bc 9db6 e63d f8c7 0d3c 4a1e 883d
000000d0: 58be f3bd c582 9cbd 0ba6 993d 8bf8 3c3d
000000e0: a712 043c f7a1 91bd 4ed3 64bd 8ed3 fabd
000000f0: f3b5 56bc 7f9a 923d 2c04 aa3c a8c1 93bd
00000100: c2c4 71bd 8513 7b3e 1d3d d53d 0604 bb3d
00000110: b1c7 fb3d e120 3bbd 1244 cc3d b7e5 363d
00000120: bad1 c7bd 86a7 933c 6d6f 1a3e 51eb ab3d
00000130: 19aa 9d3d 981a 8d3d 91ac 4d3c 3f7a 683d
00000140: e518 33bc 4997 273c 330e 4fbc a4dc 9d3c
00000150: b3a5 57bb 02aa b13d cd35 153d 45e3 fabc
00000160: 7fb3 463d 376c 2c3d 7ebf cd3c 9eab 853c
00000170: 08e3 1bbe f9e5 99bd b96d 01be bcd1 c8bc
00000180: 9017 a73d 263b 223d 84c5 dd3e f11a 01be
00000190: be8b 173d 8a45 263e 044c 14bd 35c9 6dbd
000001a0: a0a5 5bbd cea9 75bc 8b02 643d 3def c43d
000001b0: 8a3e 30bd 3317 2fbd 3fd6 9c3c d0c6 2d3d
000001c0: 23a9 ae3b ac6b 94bd 47d8 d1bd 17e8 76bc
000001d0: c6cc 3ebd 1f1a b23c 56a5 8c3c c288 01bc
000001e0: 9e27 08bc c406 893c 6fc9 7cbc 8975 e3bc
000001f0: 967f 13bd 9bd3 ac3d 8718 27bd fc08 83bc
00000200: e52b 24bd f022 8ebc e588 9abd 47ad d1be
00000210: d28a c7bc 2564 3b3d 97ff 073b 1ada 593b
00000220: c2a6 89bd 8ce2 8fbb 4f6b 8c3c 7704 883c
00000230: c991 423d aaca a03c db25 d43b 3c4a 4d3d
00000240: 35ca 463b f948 263c 4b5d b5bc edb2 1a3b
00000250: 1522 a53a edde f9bc bd63 95bd f4b9 333c
00000260: aa29 9f3c b3bd 913b 171d 6ebc b64b adbc
00000270: 7d4e abbc 98f6 6cbc 4846 ab3d 0999 973d
00000280: afdf 283c 0478 64bd c0f8 8e3c 40a6 6f3c
00000290: c3ce 48bf 4003 dabd 822d 083d 5e4b 493d
000002a0: 95e7 e43c 5bf7 ba3d a589 06be 8b5b 553c
000002b0: d0ad 4cbd c25c 6cbd f730 44bd a0ee d33c
000002c0: 87ee c4bc 0873 2fbd 07d4 e0bb e3ec 2bbe
000002d0: 6092 bcbd 95de bb3b 17c7 d2bd f6f4 d3bc
000002e0: 2c8a 013d 9df4 8e3c 23c5 02bd cde1 8b3d
000002f0: c2a7 b4bb 63dc 9bbb 0dae b0bc 2920 37bb
00000300: e69c 8b3d 2a34 1dbe 8498 9f3c f144 1e3d
00000310: 460b 423d 2c2f a8be e80e 4fbd 1192 c9be
00000320: 5404 02be 96d3 a83c cf41 41bd 8a92 2cbc
00000330: 5eb5 dfba b9fe 3cbc eb80 6cbd c840 57bd
00000340: 1c7f e9bc 0157 deba c2df 3fbc 755d e5ba
00000350: 856d 483e b886 773d 8f47 95bc 53dc 813b
00000360: ddda 483c 6796 bc39 f39c 153c 4f0a 19bc
00000370: 4717 bf3a 3045 293d 1cdd 0a3c 5906 523c
00000380: 6757 c63b b4ec adbd 71e0 1e3c 2438 00bd
00000390: 9c47 1d3b d4b5 aebc 56a0 bf3d 8f41 babd
000003a0: c10d 87be 65e8 edbd 10d4 c13d 2cd4 6fbd
000003b0: 4629 56bd ba50 2cbd 4b6f 0abd d27d 38be
000003c0: 25ee c63d b435 31bc 2461 f4bd 2968 1ebc
000003d0: c3d2 413a 5e1a 313e a1a5 1b3d 2865 793d
000003e0: cc97 c13b 086d 9b3b b550 d6bc e17a 323c
000003f0: 79c9 afbd 0ef1 9d3d 9ae5 cfbd dc4a 1c3d

fc1.bias f4 [128]
-0.08290372 -0.01526623 -0.13668786 0.0038476365 -0.15855455 -0.13966167 0.09277854 -0.048371043
-0.07320433 -0.03013022 -0.1684637 0.15916921 -0.005422241 -0.025075663 -0.074452996 0.088529706
-0.137852 0.06684005 -0.12487693 -0.068452135 -0.10893988 -0.10909476 -0.023344856 -0.12562099
-0.11675097 -0.16880576 0.04582587 -0.13328719 -0.020323519 -0.041211627 -0.14115551 -0.11657068
-0.015336004 0.12734681 -0.046034534 0.15175447 0.064375885 -0.13063674 0.0527946 -0.16602652
-0.09957766 0.16792737 0.16974518 -0.09886912 0.021159582 -0.17124483 -0.09456917 0.029749623
-0.16069593 -0.060171988 -0.0819243 -0.13051406 0.09267155 -0.11341182 0.15265913 0.032370605
0.057759877 -0.12522972 0.009330298 0.16002914 -0.09032602 -0.06829484 -0.06699424 -0.03644362
0.10365305 0.08820624 -0.061366405 0.12058798 -0.16005734 -0.05218606 -0.027370779 -0.0073403614
-0.011015736 0.06026336 0.05813123 -0.1495601 0.072094664 0.017389461 0.111972414 -0.023080131
-0.1587988 0.04896121 -0.07137228 -0.11108444 -0.031556398 0.13799883 -0.14263594 -0.06988194
-0.16571705 -0.028729046 0.046784014 0.08633362 -0.053678256 0.12740636 0.0773422 0.100488864
-0.08912564 0.11939266 -0.044606555 0.13001457 0.12446805 -0.1514839 0.019633155 0.020333324
-0.03093967 0.12144394 0.0663426 -0.17168231 0.122054845 0.039399084 0.054222487 0.03248772
0.009783375 -0.089983486 0.03218637 0.0038308008 0.067886375 -0.039762452 0.1305809 -0.004870492
-0.030472709 -0.062465053 0.1555098 -0.0058105174 -0.066165134 -0.07650665 0.16615094 -0.15451023
00000000: 6dc9 a9bd 361f 7abc e7f7 0bbe a128 7c3b
00000010: 205c 22be 7803 0fbe ad02 be3d b720 46bd
00000020: 27ec 95bd a7d3 f6bc c081 2cbe 41fd 223e
00000030: 0ead b1bb 7a6b cdbc d07a 98bd 104f b53d
00000040: 1329 0dbe 70e3 883d 7abf ffbd a230 8cbd
00000050: df1b dfbd 136d dfbd b63d bfbc caa2 00be
00000060: 221b efbd 6bdb 2cbe e8b3 3b3d 707c 08be
00000070: 827d a6bc 86cd 28bd 128b 10be 9cbc eebd
00000080: dd43 7bbc 3467 023e b58e 3cbd 8665 1b3e
00000090: 81d7 833d a3c5 05be 273f 583d db02 2abe
000000a0: 5fef cbbd 27f5 2b3e aed1 2d3e e57b cabd
000000b0: dc56 ad3c ce5a 2fbe 7bad c1bd 7bb5 f33c
000000c0: 798d 24be e776 76bd edc7 a7bd 7aa5 05be
000000d0: 95ca bd3d 7544 e8bd ad52 1c3e 0a97 043d
000000e0: 9f95 6c3d 383c 00be 1bde 183c aede 233e
000000f0: d9fc b8bd 2ade 8bbd 4734 89bd e845 15bd
00000100: 0d48 d43d 79a5 b43d 575b 7bbd d5f6 f63d
00000110: 12e6 23be 0dc1 55bd af38 e0bc 6a87 f0bb
00000120: 587b 34bc b7d6 763d 031b 6e3d 4826 19be
00000130: 5ea6 933d 5874 8e3c cb51 e53d 8b12 bdbc
00000140: 279c 22be 8d8b 483d a12b 92bd 3d80 e3bd
00000150: 4841 01bd 914f 0d3e 280f 12be 431e 8fbd
00000160: bbb1 29be 2d59 ebbc 98a0 3f3d aecf b03d
00000170: bbdd 5bbd d076 023e 9665 9e3d 1bcd cd3d
00000180: 8187 b6bd 2484 f43d 5db5 36bd 8a22 053e
00000190: 1be9 fe3d 981e 1bbe b6d5 a03c 1292 a63c
000001a0: 3175 fdbc 9ab7 f83d a1de 873d 7dcd 2fbe
000001b0: e4f7 f93d ef60 213d 6618 5e3d d811 053d
000001c0: 734a 203c 4349 b8bd dbd5 033d 2c0e 7b3b
000001d0: 0308 8b3d f4dd 22bd 00b7 053e a698 9fbb
000001e0: e7a1 f9bc 5bdb 7fbd f63d 1f3e 2766 bebb
000001f0: 9681 87bd 85af 9cbd 7923 2a3e ee37 1ebe

fc2.weight f4 [256, 128]
-0.13056862 0.23442905 -0.16564876 -0.29571882 0.1424694 -0.30217704 -0.14664328 0.007471784
0.030980835 -0.020832472 0.051119965 0.06675364 -0.20269907 -0.21634342 0.10972455 0.10910385
-0.20164844 0.3032758 0.037906952 0.24532212 0.035318676 0.23524992 0.16245674 0.067283645
0.21311407 -0.047431752 0.18442304 -0.1930074 0.0653383 0.19401051 0.119858496 0.0051087057
0.0028744908 0.008730696 0.2549241 -0.20479466 0.04821282 -0.11631421 -0.25871223 -0.23086749
-0.25911883 0.236433 0.05607695 0.43628588 0.37869886 -0.1435374 0.25351 -0.28915936
-0.09248398 -0.12188079 0.07021766 -0.097354546 -0.33269688 0.101524755 0.15623611 -0.07380672
0.08627989 -0.14510776 -0.09165891 -0.055410534 0.069673896 -0.064240456 -0.15104888 -0.27728936
0.08581553 0.16297276 -0.070087545 0.12956236 0.29217917 -0.13561696 -0.23914056 0.07079173
-0.41034928 0.06714039 -0.24298817 -0.19062646 -0.13761635 -0.16809918 -0.34815505 -0.1504408
0.19033386 -0.188601 0.06535599 -0.09792031 0.19025713 -0.0427837 -0.15801488 -0.294139
-0.07583682 0.009066209 -0.08227345 -0.17894723 0.029468881 -0.3537704 0.23245765 -0.26844338
-0.024094075 -0.2683733 0.024892747 -0.0097165285 -0.06933399 -0.18525559 -0.19592509 -0.004574214
-0.03277991 -0.32093266 -0.25691846 0.14836787 -0.0018961013 -0.33005473 0.090199605 -0.1658854
-0.1279858 0.053474147 0.1655538 0.039561693 0.31914163 -0.00013964938 0.10424985 0.033114847
-0.29388058 0.025587238 0.12808982 0.06924566 0.053445105 -0.09797242 0.15281706 -0.016575594
-0.21006975 0.07918216 0.02451807 -0.24116069 -0.41774955 -0.02913843 -0.055543456 0.08580106
0.16592605 -0.0925242 -0.086334586 -0.2637787 -0.16501376 0.15445818 -0.050419822 0.10941556
-0.070594735 -0.0603497 -0.10088791 -0.03557109 0.0421842 -0.061730526 0.08833168 -0.20160939
-0.06510378 0.06014342 0.2543743 0.029371925 -0.18803391 0.0860973 -0.017910048 -0.31067294
-0.04019846 -0.096265554 0.00950851 -0.007935835 -0.16078685 -0.034940273 -0.11992821 0.07264067
0.14503007 0.1399396 0.12890263 -0.04100113 0.092786305 0.009804377 -0.08574873 -0.13408248
-0.32330987 -0.029953433 -0.092276916 0.073519394 0.048537757 0.29788193 0.16064788 0.30339453
-0.22887136 -0.11874131 0.09399941 0.081546925 0.036393825 -0.029950874 0.03895992 0.21789363
0.12064293 -0.083237566 0.047676366 -0.038348682 0.36118624 -0.4959012 -0.058517747 0.06686635
-0.37378493 -0.34796038 0.08833651 0.17484418 -0.22478224 0.10394576 0.005105878 0.17558493
0.27321956 0.066170275 -0.26607066 -0.10181489 -0.17140624 0.039508753 -0.14922409 -0.07923274
0.05474547 -0.22625807 0.1143196 0.021400029 -0.086701676 0.13213207 0.17956965 0.11853163
0.11968926 0.15990394 0.024236681 -0.13927124 0.03155218 -0.046603628 0.042017993 -0.16475882
0.030921971 -0.014634123 -0.077070385 -0.2943487 -0.17705473 0.07665977 0.24843755 0.033570293
0.062534995 -0.009865849 -0.056194764 0.106907755 0.010363649 0.05829554 0.35251167 -0.06989583
0.2458997 0.22208445 -0.054103423 0.06260961 0.08823505 -0.16462623 -0.0136327315 -0.013155738
00000000: c8b3 05be 2b0e 703e d49f 29be 7568 97be
00000010: 80e3 113e f3b6 9abe a829 16be ded5 f43b
00000020: 85cb fd3c dca8 aabc 2b63 513d 22b6 883d
00000030: 5890 4fbe 2189 5dbe 44b7 e03d d771 df3d
00000040: ee7c 4ebe f746 9b3e 5244 1b3d b935 7b3e
00000050: 51aa 103d 5be5 703e 0f5b 263e 02cc 893d
00000060: 933a 5a3e cc47 42bd 65d9 3c3e bba3 45be
00000070: 16d0 853d b1aa 463e 5f78 f53d ee66 a73b
00000080: f461 3c3b 310b 0f3c 6985 823e b1b5 51be
00000090: ce7a 453d 2536 eebd ee75 84be 8768 6cbe
000000a0: 39ab 84be 7e1b 723e f2b0 653d dd60 df3e
000000b0: d1e4 c13e 78fb 12be 10cc 813e b20c 94be
000000c0: 3e68 bdbd a39c f9bd 47ce 8f3d d261 c7bd
000000d0: 3f57 aabe 36ec cf3d 5cfc 1f3e fa27 97bd
000000e0: 83b3 b03d 2197 14be abb7 bbbd 28f6 62bd
000000f0: 30b1 8e3d 8090 83bd 8fac 1abe dff8 8dbe
00000100: 0dc0 af3d 55e2 263e 0f8a 8fbd ffab 043e
00000110: 8298 953e 2cdf 0abe 43e1 74be 41fb 903d
00000120: 4d19 d2be e780 893d e4d1 78be 9533 43be
00000130: 4deb 0cbe 3122 2cbe 6141 b2be 270d 1abe
00000140: e1e6 423e 9f20 41be 5cd9 853d 728a c8bd
00000150: c4d2 423e f63d 2fbd a7ce 21be 6399 96be
00000160: 5650 9bbd 708a 143c fc7e a8bd f13d 37be
00000170: b968 f13c 6521 b5be 6109 6e3e 6971 89be
00000180: f060 c5bc 3a68 89be e0eb cb3c 1332 1fbc
00000190: fbfe 8dbd a4b3 3dbe 96a0 48be 4ae3 95bb
000001a0: 3a44 06bd 4951 a4be d18a 83be bfed 173e
000001b0: 9a86 f8ba effc a8be 92ba b83d dddd 29be
000001c0: b60e 03be b507 5b3d ef86 293e 710b 223d
000001d0: 8866 a33e d86e 12b9 f280 d53d 6fa3 073d
000001e0: 8477 96be 549c d13c fa29 033e abd0 8d3d
000001f0: 41e9 5a3d c4a5 c8bd 137c 1c3e 8ac9 87bc
00000200: 861c 57be 422a a23d 1fda c83c d4f2 76be
00000210: 45e3 d5be b7b3 eebc 8981 63bd 77b8 af3d
00000220: 85e8 293e 547d bdbd 30d0 b0bd 000e 87be
00000230: 5ef9 28be 492a 1e3e 0485 4ebd 4415 e03d
00000240: f993 90bd 3f31 77bd 529e cebd feb2 11bd
00000250: 57c9 2c3d 26d9 7cbd 3de7 b43d b172 4ebe
00000260: 2155 85bd f258 763d 593d 823e 649d f03c
00000270: f68b 40be c853 b03d 18b8 92bc 8610 9fbe
00000280: 24a7 24bd e026 c5bd 95c9 1b3c 4e05 02bc
00000290: 4fa5 24be 881d 0fbd ec9c f5bd a2c4 943d
000002a0: c382 143e 544c 0f3e 0dff 033e cdf0 27bd
000002b0: bf06 be3d 8aa2 203c 089d afbd eb4c 09be
000002c0: df88 a5be e760 f5bc aefb bcbd 5691 963d
000002d0: 87cf 463d fb83 983e e180 243e 8756 9b3e
000002e0: 415d 6abe a52e f3bd c382 c03d 1302 a73d
000002f0: b111 153d 895b f5bc 7094 1f3d 821f 5f3e
00000300: a413 f73d 7578 aabd 4b48 433d 8213 1dbd
00000310: 67ed b83e c3e6 fdbe 4eb0 6fbd 3af1 883d
00000320: bd60 bfbe dd27 b2be c6e9 b43d 5a0a 333e
00000330: 512d 66be 84e1 d43d 364f a73b 89cc 333e
00000340: 6fe3 8b3e 4884 873d 6a3a 88be 5384 d0bd
00000350: 1e85 2fbe eed3 213d 33ce 18be c644 a2bd
00000360: c93c 603d 32b0 67be 6520 ea3d 1d4f af3c
00000370: a690 b1bd a14d 073e 1be1 373e b6c0 f23d
00000380: a51f f53d dcbd 233e 018c c63c 1f9d 0ebe
00000390: dc3c 013d 72e3 3ebd 0f1b 2c3d 89b6 28be
000003a0: 1350 fd3c f6c3 6fbc 14d7 9dbd dfb4 96be
000003b0: d64d 35be ccff 9c3d 6a66 7e3e 0181 093d
000003c0: 5912 803d 5fa4 21bc 7b2c 66bd 74f2 da3d
000003d0: 4bcc 293c 4ec7 6e3d 697c b43e 8b25 8fbd
000003e0: 22cd 7b3e 1b6a 633e 8d9b 5dbd 7839 803d
000003f0: 94b4 b43d c793 28be d25b 5fbc 2a8b 57bc

fc2.bias f4 [256]
-0.14637169 -0.02646504 -0.0043579633 -0.026960375 0.0021589622 -0.022548031 -0.01925554 0.074615076
-0.119606845 -0.24188705 -0.008440023 -0.13386108 -0.17458037 -0.038847275 -0.10659085 -0.05406569
0.10650067 -0.08960269 -0.07075613 -0.17718819 0.12316019 0.08801702 -0.054348547 -0.06489511
-0.026277741 -0.2558202 0.0114611555 0.18318686 0.12110851 -0.06562274 -0.14499876 0.009549318
-0.0629834 0.011603691 -0.12093369 0.05131531 -0.009882825 0.030665757 0.002055167 -0.010481342
-0.15458299 -0.06268398 -0.052064206 -0.19793469 -0.21902452 -0.16765794 0.061325748 -0.14763136
-0.11352904 -0.008624755 0.07887521 -0.0747762 -0.0867089 -0.059848618 -0.1351865 0.060700975
-0.08924062 -0.032627497 0.11637048 -0.23554093 -0.09165976 -0.14586851 -0.1816248 -0.22161275
-0.19111018 -0.24955079 0.02285187 -0.14500232 -0.069756985 -0.04162854 0.09640007 0.034679104
-0.023393365 -0.10401651 0.12670204 -0.15991168 -0.13016494 -0.10743387 -0.12336394 -0.11259446
-0.16635805 -0.081557184 -0.1136942 -0.14019288 -0.14183177 -0.10172 0.06498588 -0.07880497
-0.11268463 -0.069340885 0.0070232768 0.018949343 -0.043682713 -0.060574215 -0.12634824 0.04005607
0.061400324 -0.091045514 -0.08982027 -0.08546683 -0.022186112 0.0645814 0.017404376 0.014115211
-0.16071247 -0.13236117 -0.0054232627 -0.08820761 0.08332668 -0.021235453 0.0065372717 -0.030571064
0.025135519 0.08302382 0.020330051 0.051297262 0.105055764 0.05545376 -0.017191403 0.06664818
-0.085298136 -0.08412399 -0.20049268 -0.1289681 0.041553836 -0.18826838 -0.021689307 -0.040766206
0.14482161 0.105678864 0.01648374 -0.005306434 -0.2270864 -0.22923136 -0.18754338 -0.09211458
-0.108274214 -0.065627314 0.09307656 0.029008169 0.0066421293 0.0053373287 -0.07831843 -0.10628909
-0.16776197 -0.107619256 -0.071199164 0.037209917 -0.13144676 0.003825984 0.18602219 0.1280164
-0.111737534 -0.06332563 -0.11183139 0.027732523 0.058836 -0.06782036 -0.13094169 -0.3326831
-0.061204083 0.00048287422 -0.043949135 0.06305571 -0.09629577 -0.0274723 -0.047202833 0.08560057
0.07769649 -0.046610516 -0.0767904 -0.011309954 -0.1842955 -0.013839387 -0.19224583 -0.04888333
-0.03261478 -0.10663179 -0.17368267 -0.06584407 -0.04152936 0.04266169 -0.093361676 0.037778664
0.14830641 -0.092516 -0.1691597 -0.061156813 0.12833288 -0.089168474 0.06395425 0.045522496
-0.109919615 -0.037494004 0.05361584 -0.07605635 0.16285065 -0.21528661 -0.007740219 0.1337206
-0.17820852 -0.114455044 -0.1325023 -0.12348403 -0.1839293 -0.13601805 0.02172386 0.02377619
-0.028814957 -0.023150435 -0.0288074 -0.07607487 0.039573826 -0.18322703 -0.01696349 0.079020806
-0.08164378 -0.07337658 -0.06717513 -0.048806984 -0.01924896 -0.044043407 -0.17932075 -0.035443086
-0.015368504 -0.1152817 -0.18339439 0.1689501 -0.04868771 -0.11072723 0.14552836 -0.0477067
0.09608454 -0.2547715 -0.1360765 0.06538266 0.20273776 -0.065479316 0.1138006 -0.027601123
-0.08070909 -0.13530032 -0.08775399 -0.1516061 -0.14238763 -0.06618825 -0.06111404 -0.031759467
-0.20099957 0.18358795 0.062986776 0.02126449 0.05195659 -0.11076781 0.05617519 -0.074964665
00000000: 76e2 15be 36cd d8bc 3fcd 8ebb 01dc dcbc
00000010: 607d 0d3b a6b6 b8bc cbbd 9dbc cacf 983d
00000020: 6ff4 f4bd 3db1 77be 0648 0abc e112 09be
00000030: 32c5 32be 521e 1fbd 4e4c dabd fc73 5dbd
00000040: 061d da3d 9d81 b7bd 97e8 90bd d270 35be
00000050: 693b fc3d 4442 b43d 959c 5ebd bae7 84bd
00000060: 6b44 d7bc defa 82be 92c7 3b3c 5695 3b3e
00000070: bd07 f83d 3765 86bd 8e7a 14be be74 1c3c
00000080: 71fd 80bd 681d 3e3c 15ac f7bd 0130 523d
00000090: 93eb 21bc c136 fb3c fbaf 063b efb9 2bbc
000000a0: 014b 1ebe 7560 80bd 4741 55bd 64af 4abe
000000b0: f747 60be 86ae 2bbe b530 7b3d ad2c 17be
000000c0: ea81 e8bd d84e 0dbc 5389 a13d 4424 99bd
000000d0: 7094 b1bd d323 75bd 546e 0abe 96a1 783d
000000e0: c9c3 b6bd 69a4 05bd a553 ee3d a431 71be
000000f0: 1db8 bbbd 8e5e 15be dafb 39be 74ee 62be
00000100: 63b2 43be 3e8a 7fbe d833 bb3c 7d7b 14be
00000110: c0dc 8ebd b082 2abd 666d c53d ad0b 0e3d
00000120: 71a3 bfbc 9c06 d5bd 2ebe 013e e3bf 23be
00000130: f549 05be 4a06 dcbd 3ca6 fcbd ed97 e6bd
00000140: c459 2abe 7407 a7bd 81d8 e8bd b98e 0fbe
00000150: 593c 11be 9352 d0bd 5117 853d 8064 a1bd
00000160: 33c7 e6bd 9802 8ebd 8423 e63b a73b 9b3c
00000170: a5ec 32bd ab1c 78bd 6f61 01be d511 243d
00000180: e87e 7b3d 1276 babd b1f3 b7bd 3c09 afbd
00000190: a6bf b5bc 4143 843d 9f93 8e3c 7c43 673c
000001a0: cf91 24be b089 07be a0b5 b1bb 31a6 b4bd
000001b0: 2ea7 aa3d f9f5 adbc 9c36 d63b 2b70 fabc
000001c0: 01e9 cd3c 6408 aa3d 358b a63c 141d 523d
000001d0: 7a27 d73d 7b23 633d fcd4 8cbc d77e 883d
000001e0: cab0 aebd 3349 acbd f44d 4dbe 3710 04be
000001f0: 5b34 2a3d 6dc9 40be c6ad b1bc 77fa 26bd
00000200: 1e4c 143e 296e d83d e908 873c 98e1 adbb
00000210: 5689 68be a0bb 6abe 5f0b 40be 92a6 bcbd
00000220: dfbe ddbd 9d67 86bd ec9e be3d 8aa2 ed3c
00000230: 38a6 d93b c2e4 ae3b 6a65 a0bd 18ae d9bd
00000240: cbc9 2bbe 7c67 dcbd ded0 91bd 6d69 183d
00000250: fb99 06be 5cbd 7a3b 9a7c 3e3e bb16 033e
00000260: a6d6 e4bd deb0 81bd db07 e5bd 512f e33c
00000270: 04fe 703d 67e5 8abd 9415 06be 7055 aabe
00000280: 22b1 7abd 482a fd39 0204 34bd 5a23 813d
00000290: b736 c5bd 970d e1bc c257 41bd 5a4f af3d
000002a0: 561f 9f3d abea 3ebd 4944 9dbd 634d 39bc
000002b0: f6b7 3cbe 99be 62bc 17dc 44be e339 48bd
000002c0: 1397 05bd c561 dabd dfd9 31be 41d9 86bd
000002d0: b11a 2abd 06be 2e3d 6834 bfbd cdbd 1a3d
000002e0: a3dd 173e 0779 bdbd 3338 2dbe 917f 7abd
000002f0: b269 033e f69d b6bd 72fa 823d cc75 3a3d
00000300: 891d e1bd 5093 19bd 489c 5b3d 6ec3 9bbd
00000310: 52c2 263e 1874 5cbe aaa1 fdbb 0eee 083e
00000320: 4b7c 36be 6867 eabd afae 07be 32e5 fcbd
00000330: f657 3cbe 5148 0bbe 3df6 b13c 49c6 c23c
00000340: 580d ecbc fba5 bdbc 7ffd ebbc 24cd 9bbd
00000350: 2a18 223d de9f 3bbe 04f7 8abc a9d5 a13d
00000360: db34 a7bd 7646 96bd 1d93 89bd d5e9 47bd
00000370: ffaf 9dbc dc66 34bd dc9f 37be c52c 11bd
00000380: 2ecc 7bbc d018 ecbd bdcb 3bbe 4101 2d3e
00000390: c46c 47bd f5c4 e2bd 6305 153e 1a68 43bd
000003a0: f9c7 c43d 6971 82be a357 0bbe 58e7 853d
000003b0: 7d9a 4f3e 051a 86bd 4a10 e93d c01b e2bc
000003c0: cf4a a5bd 2b8c 0abe 5db8 b3bd a13e 1bbe
000003d0: 10ce 11be b58d 87bd b752 7abd 3716 02bd
000003e0: d5d2 4dbe 7bfe 3b3e 36ff 803d de32 ae3c
000003f0: 6fd0 543d 3cda e2bd f517 663d 1387 99bd

fc3.weight f4 [4, 256]
-0.33018664 0.91185564 0.048432868 0.3294007 -0.19317648 -0.15590785 0.46168682 -0.5291882
0.56254137 -0.76782376 0.25907803 -0.46907082 -0.82433563 -0.36904883 -0.49322367 0.4802993
0.01897008 -0.6827708 0.7526972 0.049458966 0.17156312 0.10663254 0.53836584 -0.18811233
0.35901374 0.24083027 0.4852918 -0.19669539 0.19167838 1.2257664 0.20997131 0.59439254
-0.07541847 0.22161153 -0.02106656 -0.3412577 -0.31096604 -0.02868634 0.3890609 -0.3032196
-0.24100003 0.022921888 0.21905707 0.2801968 0.7641084 -0.08591468 0.5573698 -0.25560713
0.06569174 0.7505216 0.35229725 -0.27838683 0.4573669 -0.3310173 -0.20952651 0.17736353
0.50298154 -0.04542805 -0.05416983 -0.59418905 0.12900148 -0.4227702 -0.027729142 -0.8758365
-0.20700856 0.035535447 -0.13863721 -0.8704207 -0.12791856 0.36106715 -0.38465384 -0.0018793823
-0.04155493 -0.20608257 0.31839406 -0.26821065 0.82532823 -0.7503298 -0.66442853 0.7790987
-0.031777944 1.1130512 -0.6670204 -0.037394017 0.8669416 0.75032 -0.07140282 0.43552363
-0.1002397 0.19663695 0.4554 0.05983576 -0.36591095 0.6141426 -0.51029634 0.53115344
-0.52084064 -0.215926 -0.1534766 0.4994375 -0.27585772 -0.40298414 0.56228536 0.65243137
0.2905972 -0.08962655 -0.03773022 0.4371261 0.049015418 0.437411 -0.17963877 -0.11521206
-0.21907325 -0.31424272 -0.028941216 -0.27525502 -0.35077435 1.0088305 -0.12246765 -0.29156595
-0.085278824 -0.43625242 0.8020162 -0.5240518 -0.015917052 0.58930445 0.087251045 0.28241038
-0.12275372 0.36649466 -0.12963742 0.17291944 0.54788667 0.073832706 0.30564463 -0.36810842
-0.45845318 0.0858184 -0.043789543 0.12623017 0.44998917 0.092656456 -0.4323992 0.638608
-0.25415003 -0.32073018 0.010809775 -0.27512962 0.010320566 -0.21654573 -0.34003899 0.09309151
-0.23162612 0.44663796 -0.17600925 0.14563982 0.09185599 -0.09877104 0.31405807 0.2690597
-0.05388766 -0.8578057 -0.8294097 0.009972511 0.0203771 -0.1203765 0.45262542 0.19281636
0.038442228 0.07405137 -0.12126836 0.6771399 0.047727276 -0.41134053 -0.16665556 -0.14906973
0.12175829 0.04236962 -0.12050474 -0.29637754 -0.75854474 -0.040254444 0.0053544287 0.5388951
0.021114819 -0.05234489 -0.19346055 0.12538126 0.7862462 0.022555556 -0.07704144 0.77446747
0.64344543 0.12642236 -0.01690847 -0.11019566 0.73712736 -0.25872895 0.5884251 -0.5543907
0.58768433 -0.07947918 -0.09819004 -0.16507956 0.2566506 -0.1085018 -0.10007341 0.28791338
-0.5487229 0.5052169 -0.04203613 -0.1548339 -0.2330417 0.23658948 0.34920338 -0.28376004
0.012689214 0.079975784 -0.13054806 -0.44213143 -0.20547195 0.0023406895 0.6099464 -0.22604021
0.26788956 -0.008102416 -0.46009883 -0.02093245 -0.13211656 -0.055638414 -0.2782765 0.4451726
0.6731922 0.8753318 0.65316814 -0.04958999 -0.09758153 -0.15270923 0.61349386 -0.06473646
-0.3630788 -0.50667036 0.32271388 -0.45563075 -0.08431359 -0.038972154 -0.38233012 -0.15788372
-0.05749857 -0.08916728 0.5431869 -0.0020575323 -0.26601258 0.684108 0.22533566 0.08255315
00000000: 390e a9be 5f6f 693f 8b61 463d 35a7 a83e
00000010: 0ed0 45be 4fa6 1fbe 3762 ec3e e178 07bf
00000020: b602 103f 1990 44bf e0a5 843e 0d2a f0be
00000030: a907 53bf f8f3 bcbe d087 fcbe cae9 f53e
00000040: 2467 9b3c 11ca 2ebf c4b0 403f 7c95 4a3d
00000050: 3eae 2f3e 2962 da3d 58d2 093f 85a0 40be
00000060: a6d0 b73e 369c 763e 2b78 f83e 846a 49be
00000070: 5647 443e eae5 9c3f b802 573e 1c2a 183f
00000080: 0075 9abd 22ee 623e c793 acbc 54b9 aebe
00000090: f136 9fbe 9eff eabc fe32 c73e 993f 9bbe
000000a0: b6c8 76be afc6 bb3c 7f50 603e f475 8f3e
000000b0: 9c9c 433f 09f4 afbd caaf 0e3f f0de 82be
000000c0: 6489 863d 2f22 403f 4e60 b43e b888 8ebe
000000d0: ff2b ea3e 197b a9be 1e8e 56be c99e 353e
000000e0: 66c3 003f c312 3abd 2fe1 5dbd c61c 18bf
000000f0: f718 043e 5675 d8be 3a28 e3bc d236 60bf
00000100: 0dfa 53be 9e8d 113d eaf6 0dbe e4d3 5ebf
00000110: 15fd 02be cbdd b83e 59f1 c4be 9b55 f6ba
00000120: 8135 2abd 4f07 53be 8c04 a33e e852 89be
00000130: b648 533f 9d15 40bf fd17 2abf 0373 473f
00000140: 9729 02bd 7678 8e3f d9c1 2abf 782a 19bd
00000150: e2ef 5d3f f914 403f a43b 92bd f4fc de3e
00000160: 794a cdbd 325b 493e 302a e93e 5816 753d
00000170: ae58 bbbe 7338 1d3f c8a2 02bf acf9 073f
00000180: d055 05bf b51b 5dbe f828 1dbe 46b6 ff3e
00000190: 393d 8dbe f053 cebe eff1 0f3f be05 273f
000001a0: 28c9 943e 208e b7bd 018b 1abd fece df3e
000001b0: 64c4 483d 56f4 df3e 3af3 37be 4df4 ebbd
000001c0: bd54 60be 6ce4 a0be 2116 edbc 3aee 8cbe
000001d0: b298 b3be 5c21 813f 52d0 fabd 2248 95be
000001e0: aaa6 aebd 7a5c dfbe ef50 4d3f 4228 06bf
000001f0: 7a64 82bc a8dc 163f adb0 b23d 1898 903e
00000200: 4d66 fbbd 30a5 bb3e acbf 04be cb11 313e
00000210: 4d42 0c3f 9a35 973d 747d 9c3e b578 bcbe
00000220: 60ba eabe 8fc1 af3d aa5c 33bd 7b42 013e
00000230: fb64 e63e abc2 bd3d 6e63 ddbe d07b 233f
00000240: f41f 82be bf36 a4be 7c1b 313c cadd 8cbe
00000250: 9717 293c 2abe 5dbe 9719 aebe c3a6 be3d
00000260: 662f 6dbe bbad e43e c53b 34be 9b22 153e
00000270: fe1e bc3d 7948 cabd 38cc a03e 31c2 893e
00000280: 4fb9 5cbd 2899 5bbf 3254 54bf be63 233c
00000290: e0ed a63c f487 f6bd 85be e73e a771 453e
000002a0: 9975 1d3d 3fa8 973d 8c5b f8bd 0a59 2d3f
000002b0: ad7d 433d 3a9b d2be c1a7 2abe bca5 18be
000002c0: 695c f93d c48b 2d3d 30cb f6bd ccbe 97be
000002d0: fd2f 42bf d8e1 24bd 3474 af3b 07f5 093f
000002e0: fcf8 ac3c 9867 56bd 861a 46be f263 003e
000002f0: 6e47 493f 6ec6 b83c e7c7 9dbd 8043 463f
00000300: d7b8 243f dd74 013e a283 8abc 43ae e1bd
00000310: 61b4 3c3f 1f78 84be 07a3 163f 8dec 0dbf
00000320: 7b72 163f fbc5 a2bd dc17 c9bd 9e0a 29be
00000330: b567 833e 3136 debd 4af3 ccbd 6269 933e
00000340: 1b79 0cbf e555 013f 142e 2cbd c78c 1ebe
00000350: 7ca2 6ebe 8344 723e c9ca b23e ff48 91be
00000360: 6ce6 4f3c 58ca a33d 64ae 05be 0d5f e2be
00000370: 3d67 52be 4166 193b 7325 1c3f 1677 67be
00000380: d228 893e ffbf 04bc 1392 ebbe 887a abbc
00000390: 9049 07be 1be5 63bd 427a 8ebe aaed e33e
000003a0: 5356 2c3f bf15 603f 0736 273f e01e 4bbd
000003b0: d3d8 c7bd cf5f 1cbe ef0d 1d3f 8d94 84bd
000003c0: 77e5 b9be 26b5 01bf c13a a53e 6f48 e9be
000003d0: 9aac acbd 44a1 1fbd c6c0 c3be 45ac 21be
000003e0: 9f83 6bbd 569d b6bd 4c0e 0b3f aad7 06bb
000003f0: cd32 88be b421 2f3f 64be 663e a011 a93d

fc3.bias f4 [4]
-0.045307174 -0.048193146 0.07581423 -0.036308423
00000000: 0494 39bd 2d66 45bd 7e44 9b3d 24b8 14bd

batchnorm_1.weight f4 [128]
1.4574783 1.0740899 1.1516773 1.4040434 1.4321645 1.1700851 1.1832011 1.2619823
1.4350637 1.3482741 1.4248507 1.2474041 1.2471511 1.46885 1.2778924 1.1316091
1.2380382 1.4320066 1.2768173 1.4138309 1.3253158 1.3519293 1.4162254 1.2270323
1.2936908 1.4463167 1.8070905 1.1226596 1.3349974 1.4286675 1.4690683 1.2582368
1.2715068 1.2136422 1.5029924 1.3262519 1.3647314 1.2364924 1.3039594 1.4418024
1.1454216 1.2516924 1.2786478 1.2189369 1.2954328 1.2620764 1.5084027 1.2658883
1.1629825 1.2850355 1.220553 1.1552176 1.1789716 1.4715334 1.254584 1.206301
1.1806073 1.0660132 1.1810988 1.195179 1.4682797 1.3087666 1.1198701 1.1919909
1.1716233 1.3393812 1.2302802 1.3092672 1.2545338 1.4829034 1.3430014 1.1790074
1.261341 1.1630332 1.2203348 1.1710378 1.2488558 1.184164 1.4756093 1.2080576
1.5182197 1.2887957 1.2471607 1.1886547 1.2444363 1.2527637 1.0780607 1.2788333
1.265632 1.1987875 1.2201855 1.2471716 1.2305009 1.0757006 1.1722597 1.1035511
1.2719945 1.1490906 1.2245516 1.2299995 1.1826504 1.2229823 1.184588 1.2718773
1.1901432 1.1162698 1.2412503 1.2986983 1.2471918 1.4687002 1.2929798 1.204917
1.227917 1.174857 1.242794 1.3410865 1.2880763 1.2729748 1.3497372 1.5658875
1.3525414 1.3217045 1.1510143 1.2353729 1.2911761 1.1895393 1.3089678 1.151306
00000000: a68e ba3f c77b 893f 296a 933f b2b7 b33f
00000010: 2b51 b73f 59c5 953f 2273 973f a388 a13f
00000020: 2bb0 b73f 3f94 ac3f 8261 b63f f0aa 9f3f
00000030: a6a2 9f3f 4703 bc3f fa91 a33f 91d8 903f
00000040: 0978 9e3f fe4b b73f c06e a33f 69f8 b43f
00000050: f3a3 a93f 050c ad3f e046 b53f 650f 9d3f
00000060: a997 a53f e820 b93f be4e e73f 4fb3 8f3f
00000070: 32e1 aa3f 94de b63f 6e0a bc3f e70d a13f
00000080: bcc0 a23f a158 9b3f 0e62 c03f 9fc2 a93f
00000090: 85af ae3f 6245 9e3f 24e8 a63f fb8c b83f
000000a0: 2d9d 923f 7537 a03f bbaa a33f 2006 9c3f
000000b0: bed0 a53f b88b a13f 5713 c13f a108 a23f
000000c0: 9cdc 943f 0b7c a43f 153b 9c3f 2cde 933f
000000d0: 8be8 963f 355b bc3f 3596 a03f 1268 9a3f
000000e0: 241e 973f 1f73 883f 3f2e 973f a0fb 983f
000000f0: 97f0 bb3f aa85 a73f e757 8f3f 2893 983f
00000100: c1f7 953f d870 ab3f d279 9d3f 1196 a73f
00000110: 9094 a03f c7cf bd3f 78e7 ab3f b7e9 963f
00000120: 9f73 a13f 46de 943f ee33 9c3f 91e4 953f
00000130: 82da 9f3f b092 973f c4e0 bc3f a2a1 9a3f
00000140: 0655 c23f 42f7 a43f f6a2 9f3f d625 983f
00000150: b049 9f3f 905a a03f e5fd 893f cfb0 a33f
00000160: 3b00 a23f de71 993f 0a2f 9c3f 52a3 9f3f
00000170: 0e81 9d3f 8fb0 893f 9b0c 963f 2a41 8d3f
00000180: b7d0 a23f 6715 933f 1bbe 9c3f a070 9d3f
00000190: 1761 973f af8a 9c3f 94a0 973f e0cc a23f
000001a0: 9d56 983f eee1 8e3f 4ae1 9e3f bf3b a63f
000001b0: fba3 9f3f 5efe bb3f 5d80 a53f b83a 9a3f
000001c0: 622c 9d3f b761 963f e013 9f3f b9a8 ab3f
000001d0: afdf a43f d7f0 a23f 30c4 ac3f 006f c83f
000001e0: 1420 ad3f 9d2d a93f 7054 933f b320 9e3f
000001f0: 4245 a53f d342 983f 428c a73f ff5d 933f

batchnorm_1.bias f4 [128]
0.097137846 0.18663314 0.31435412 -0.00017351969 -0.37755835 0.1813181 0.22655144 0.0942561
-0.3315469 0.23593168 0.07839904 0.09195544 -0.15327711 0.047813404 -0.112954065 0.09508438
0.2572898 -0.08257511 -0.13177165 -0.055147473 -0.012407006 -0.1866863 -0.07387155 -0.09211767
-0.014328077 -0.30393362 0.10439965 0.0657195 0.25095704 0.24607319 -0.14967263 0.24551071
-0.2914738 0.21637826 -0.35893664 0.43098372 0.22013511 0.023372844 0.49913016 -0.045461584
-0.024254743 -0.18483557 -0.14833646 -0.24602988 -0.2875979 -0.061983038 -0.18134624 -0.005068138
-0.04344204 0.1440471 0.08339756 0.20930775 0.29783162 0.012726961 -0.3101958 0.008499565
0.13299583 0.1336763 -0.00036595395 -0.02718817 -0.36571786 -0.13279 0.47376963 -0.03153493
-0.0914773 -0.29548725 0.048598617 -0.08144609 -0.07933427 -0.07738225 -0.2621799 0.008808062
-0.20624271 0.03789565 -0.3124149 -0.18697007 0.15310946 -0.16678634 0.34758878 -0.06349033
-0.042053178 -0.0145912515 -0.11373482 0.12031758 -0.118061505 0.04286183 0.05192247 0.08582535
-0.11481317 0.030964019 0.1377295 -0.07966283 -0.013747952 0.14554943 -0.045054268 -0.023255117
-0.022707183 0.2708114 0.008218534 0.04205243 -0.11296896 0.18284187 0.026846897 -0.15676087
-0.0032661727 0.05653775 -0.11426438 -0.05356734 -0.008568637 0.16044489 0.016960528 0.031398192
-0.04773754 0.031832106 -0.193802 0.100072406 -0.07224742 0.4130543 -0.22008792 0.0011757332
0.05090092 0.13552716 0.14715773 0.070174746 -0.066040196 0.00880854 0.075734034 -0.047245458
00000000: 35f0 c63d c21c 3f3e 06f3 a03e d6f2 35b9
00000010: 544f c1be 74ab 393e 1afd 673e 5809 c13d
00000020: 84c0 a9be 1398 713e ad8f a03d 2253 bc3d
00000030: adf4 1cbe fdd7 433d 7654 e7bd 99bb c23d
00000040: 7dbb 833e 241d a9bd 26ef 06be 51e2 61bd
00000050: c146 4bbc b22a 3fbe f849 97bd 30a8 bcbd
00000060: 50c0 6abc 309d 9bbe 7ccf d53d f297 863d
00000070: 717d 803e 9cfa 7b3e c843 19be 2967 7b3e
00000080: 0e3c 95be 4392 5d3e 8bc6 b7be e6a9 dc3e
00000090: 196b 613e 6878 bf3c fd8d ff3e ed35 3abd
000000a0: e2b1 c6bc 8945 3dbe 83e5 17be 42ef 7bbe
000000b0: 0840 93be ede1 7dbd d4b2 39be 9f12 a6bb
000000c0: 48f0 31bd 1581 133e 57cc aa3d c554 563e
000000d0: 637d 983e be84 503c fcd1 9ebe c241 0b3c
000000e0: 0f30 083e 71e2 083e 82dd bfb9 bab9 debc
000000f0: 5f3f bbbe 1afa 07be ef91 f23e c52a 01bd
00000100: 7358 bbbd 1b4a 97be 580f 473d 35cd a6bd
00000110: 017a a2bd 967a 9ebd 723c 86be b14f 103c
00000120: 4a31 53be 7838 1b3d d9f4 9fbe 1575 3fbe
00000130: bac8 1c3e 0aca 2abe 28f7 b13e 3807 82bd
00000140: f43f 2cbd 2510 6fbc cded e8bd 1069 f63d
00000150: 3bca f1bd e38f 2f3d a8ac 543d 33c5 af3d
00000160: 2b23 ebbd 41a8 fd3c f608 0d3e 4426 a3bd
00000170: 173f 61bc e90a 153e d38a 38bd 8481 bebc
00000180: 6a04 babc cba7 8a3e 08a7 063c 2b3f 2c3d
00000190: 455c e7bd e63a 3b3e 06ee db3c ec85 20be
000001a0: 490d 56bb 2194 673d 7103 eabd 6d69 5bbd
000001b0: 7863 0cbc aa4b 243e cef0 8a3c 649b 003d
000001c0: 7088 43bd 6262 023d 0874 46be c3f2 cc3d
000001d0: 75f6 93bd da7b d33e ba5e 61be 0f1b 9a3a
000001e0: 7c7d 503d a2c7 0a3e 84b0 163e c7b7 8f3d
000001f0: 1540 87bd b251 103c 721a 9b3d 7484 41bd

batchnorm_1.running_mean f4 [128]
0.06669144 0.12882437 -0.12298401 0.17714804 -0.22446124 0.23371688 0.32969967 0.0014979687
-0.37497956 0.021819701 -0.36014864 0.0014050616 -0.63058954 -0.0011298552 -0.2082662 0.41879767
-0.59707147 -0.04342966 -0.39407977 -0.5906266 -0.027104085 -0.37720796 -0.15713188 -0.20857494
-0.20387118 -0.44222224 0.08236331 0.08051253 0.13143398 -0.2990705 -0.12448225 -0.20805581
0.07300581 -0.15990047 -0.15079372 0.5119549 -0.030107835 -0.29109925 0.33193216 -0.34911972
-0.36907163 0.5637581 0.1075058 -0.17528829 -0.063533075 0.1659913 0.07919711 -0.43990102
-0.10408906 -0.022672277 -0.47618252 -0.16924861 0.4898248 -0.24980663 -0.1988261 -0.23145753
0.14306603 0.06401416 -0.30370924 0.221723 -0.032124955 -0.42030203 -0.07919315 -0.20054004
0.43909875 -0.25123146 -0.009517997 0.2289065 -0.4778377 -0.22183195 -0.08753034 0.09930015
-0.0946042 0.02298842 -0.16826235 -0.13752274 0.05670931 -0.22968116 0.15521586 0.13057855
-0.14104247 0.08211861 0.03574768 0.1419662 0.06415745 0.45151505 -0.7536053 0.24794404
-0.16632058 0.06133659 0.2420547 0.3193317 -0.23481527 0.5462083 -0.19223349 0.07732176
-0.103091225 0.87054557 -0.13525519 -0.010901981 0.12960275 -0.08689422 0.33002323 -0.28061822
-0.2054599 0.21619432 0.27149013 -0.22225076 0.4127769 -0.07259434 -0.014175222 0.10673674
0.034449667 -0.58114105 -0.13213381 -0.18873943 0.094206125 -0.035079632 0.2048524 -0.24854931
0.22023648 0.1199762 0.17676431 0.07281925 -0.038288217 -0.24787086 -0.041537825 0.08799234
00000000: 8695 883d 89ea 033e 0adf fbbd 4c66 353e
00000010: 2bd9 65be 7a53 6f3e 65ce a83e 7d57 c43a
00000020: 52fd bfbe 3bbf b23c 6765 b8be 0b2a b83a
00000030: 516e 21bf a617 94ba bc43 55be a66c d63e
00000040: add9 18bf 4de3 31bd d3c4 c9be 4e33 17bf
00000050: 6309 debc 6721 c1be 2ee7 20be ab94 55be
00000060: 9bc3 50be f46a e2be 18ae a83d c1e3 a43d
00000070: a196 063e c51f 99be 8df0 febd 950c 55be
00000080: 1284 953d f3bc 23be ab69 1abe 7a0f 033f
00000090: b5a4 f6bc f60a 95be 03f3 a93e d2bf b2be
000000a0: f5f6 bcbe 7352 103f 002c dc3d c67e 33be
000000b0: a11d 82bd a0f9 293e 1832 a23d b53a e1be
000000c0: a52c d5bd 36bb b9bc 32ce f3be 824f 2dbe
000000d0: 51ca fa3e 4fcd 7fbe 1299 4bbe 3403 6dbe
000000e0: e77f 123e db19 833d c77f 9bbe 5b0b 633e
000000f0: 7595 03bd d431 d7be 0530 a2bd 5e5a 4dbe
00000100: 8dd1 e03e 69a1 80be 5ff1 1bbc 7766 6a3e
00000110: 25a7 f4be ea27 63be 1b43 b3bd e15d cb3d
00000120: d9bf c1bd 3652 bc3c f74c 2cbe c3d2 0cbe
00000130: 0548 683d 8a31 6bbe e8f0 1e3e 62b6 053e
00000140: 706d 10be cd2d a83d 296c 123d 965f 113e
00000150: fb64 833d fb2c e73e 47ec 40bf 0be5 7d3e
00000160: f14f 2abe 143c 7b3d 30dd 773e 727f a33e
00000170: 6a73 70be 4fd4 0b3f dbd8 44be df5a 9e3d
00000180: 7e21 d3bd 13dc 5e3f 5680 0abe 399e 32bc
00000190: 95b6 043e 99f5 b1bd cef8 a83e 31ad 8fbe
000001a0: 1464 52be 0b62 5d3e c100 8b3e b495 63be
000001b0: 7e57 d33e 57ac 94bd 313f 68bc cb98 da3d
000001c0: 181b 0d3d a9c5 14bf 164e 07be e944 41be
000001d0: 24ef c03d a9af 0fbd d4c4 513e b683 7ebe
000001e0: ac85 613e 15b6 f53d b401 353e 4222 953d
000001f0: 1bd4 1cbd dcd1 7dbe 9123 2abd 5435 b43d

batchnorm_1.running_var f4 [128]
0.73509175 1.2184132 1.0400298 0.4025471 0.46551204 1.769025 0.13977265 0.58966404
0.75019205 1.1051065 0.31383255 1.5904636 1.5359483 0.53989536 2.044247 1.242286
1.319753 0.6217019 1.0499847 1.4530425 0.780743 1.0688845 0.51506764 1.7570628
1.5369662 0.22958598 0.33465165 0.88947505 1.4196931 0.46357137 0.5217954 2.7984517
1.0845091 1.2311884 0.47916582 0.48150322 0.40920407 0.46877313 0.29945144 0.32865757
2.0616572 1.6596117 1.3405296 2.1697996 0.60206234 0.5795855 0.3995446 1.3717967
0.7745818 0.7985378 0.6461006 0.86568844 1.4279941 0.23028551 2.3293908 0.9317761
0.70245624 1.02533 1.3451713 1.202403 0.77630335 0.69581527 1.3318549 1.0699166
1.593318 2.054133 0.26265642 0.8932784 1.0305539 0.48670763 0.3832311 2.196079
1.1878316 1.0890868 1.5993228 1.3230922 1.3043905 2.2264192 0.49485934 1.4160042
0.49723005 0.58271056 2.348332 0.5531126 0.6573018 1.0245508 1.5917947 0.8644572
0.91895664 0.86591834 0.50242525 0.77522093 0.5944422 1.6532729 1.5710586 1.3230315
0.77520424 1.830568 0.6097471 0.9462924 2.034543 1.2501386 0.6638111 1.0964009
0.9086873 0.5885131 0.97314346 1.4873456 0.3518227 0.30837956 2.291911 0.9207347
1.5797294 1.3746065 1.3077208 0.8369589 0.5199557 1.0968678 0.89834166 1.2656956
2.1002264 0.39048216 1.5351977 0.5584003 0.6891194 0.8539211 1.4311463 0.6814521
00000000: f92e 3c3f f7f4 9b3f b21f 853f a71a ce3e
00000010: 9857 ee3e 696f e23f 9020 0f3e 39f4 163f
00000020: 960c 403f 2174 8d3f a9ae a03e 5094 cb3f
00000030: f499 c43f 9536 0a3f f1d4 0240 3a03 9f3f
00000040: abed a83f db27 1f3f e665 863f 4cfd b93f
00000050: c6de 473f 35d1 883f 79db 033f 6fe7 e03f
00000060: 4fbb c43f 9618 6b3e 7657 ab3e a3b4 633f
00000070: 81b8 b53f 3a59 ed3e 6294 053f d519 3340
00000080: 32d1 8a3f 9597 9d3f 3955 f53e 9787 f63e
00000090: 3283 d13e 0803 f03e b351 993e ce45 a83e
000000a0: 31f2 0340 286e d43f 7996 ab3f ffdd 0a40
000000b0: c220 1a3f b75f 143f 1c91 cc3e 0997 af3f
000000c0: fe4a 463f f96c 4c3f d966 253f c29d 5d3f
000000d0: 83c8 b63f f7cf 6b3e bd14 1540 e188 6e3f
000000e0: 2cd4 333f 033e 833f 932e ac3f 57e8 993f
000000f0: d1bb 463f f320 323f 397a aa3f 07f3 883f
00000100: d8f1 cb3f ea76 0340 e77a 863e e5ad 643f
00000110: 31e9 833f be31 f93e de36 c43e 8f8c 0c40
00000120: de0a 983f 3267 8b3f 9cb6 cc3f 165b a93f
00000130: 45f6 a63f a77d 0e40 345e fd3e a03f b53f
00000140: f094 fe3e 852c 153f 124b 1640 ca98 0d3f
00000150: ee44 283f 7b24 833f eebf cb3f 114d 5d3f
00000160: be40 6b3f d3ac 5d3f f19e 003f e174 463f
00000170: 5d2d 183f 729e d33f 7318 c93f 1959 a93f
00000180: c973 463f 0d50 ea3f 6318 1c3f 3840 723f
00000190: f435 0240 8b04 a03f 86ef 293f dd56 8c3f
000001a0: bb9f 683f cba8 163f ee1f 793f 5761 be3f
000001b0: 1b22 b43e ede3 9d3e abae 1240 45b5 6b3f
000001c0: 9334 ca3f 1bf3 af3f 6563 a73f f042 563f
000001d0: d11b 053f 2a66 8c3f b8f9 653f 5002 a23f
000001e0: 1c6a 0640 47ed c73e 5c81 c43f 52f3 0e3f
000001f0: 216a 303f 939a 5a3f cd2f b73f a573 2e3f
